wesad_baseline/src/checkpoints/old/baseline_cnn_3s.pt (torch, 665228 bytes, 48 tensors)

encoder.conv1.weight f4 [32, 8, 7]
0	0x3d42cfd7	0.047561493
1	0xbcd038d9	-0.025417732
2	0xbdf70c16	-0.12062852
3	0xbdba37ac	-0.0909265
4	0x3d253478	0.04033324
5	0x3de38789	0.11109836
6	0x3d48f434	0.049061015
7	0x3df68fad	0.12039123
8	0x3cbe7b0f	0.023252038
9	0x3cb0ba7d	0.0215733
10	0xbcef486b	-0.029209336
11	0xbe02fdf7	-0.12792192
12	0xbd007377	-0.031360116
13	0x3def39d3	0.11680951
14	0xbdc64e06	-0.096828505
15	0x3dff2805	0.12458805
16	0x3c651d05	0.01398397
17	0xbde9e51c	-0.11420652
18	0x3d2ce5a4	0.04221119
19	0xbb36e36e	-0.0027906555
20	0xbce8f383	-0.028436428
21	0xbdba4111	-0.09094442
22	0x3ae8b8c5	0.0017755261
23	0xbd020775	-0.031745393
24	0x3e1daae5	0.15397222
25	0xbd53cf9c	-0.051711664
26	0xbd213cfc	-0.0393648
27	0xbb30d27b	-0.0026980925
28	0xbdd386b5	-0.10328428
29	0x3d33a5a2	0.04385913
30	0x3cb6dada	0.022321153
31	0xbd4c191a	-0.049828626
32	0x3d945f7b	0.07244774
33	0x3cf2a57e	0.029619928
34	0xbd8a6bcb	-0.06758841
35	0x3cbcfe5e	0.02307051
36	0xbd8fca0b	-0.070209585
37	0xbde45061	-0.111481436
38	0xbdf92556	-0.121653244
39	0xbd79510b	-0.060868304
40	0xbe08b624	-0.13350731
41	0xbda7bfba	-0.08190866
42	0x3dd004e8	0.10157186
43	0x3d6fbe7c	0.05853127
44	0x3db1a919	0.08674831
45	0x3b618282	0.0034410064
46	0x3d697469	0.056995783
47	0xbdfc4818	-0.12318438
48	0x3c0f7ce9	0.008757808
49	0xbd531a81	-0.051538948
50	0x3e15d4af	0.14631914
51	0x3da9a387	0.082831435
52	0xbd14ebda	-0.036357738
53	0x3bab8732	0.0052346224
54	0xbd65270b	-0.055945437
55	0xbde3a15a	-0.1111476
56	0xbbb5ba24	-0.0055458713
57	0x3d8dd74e	0.06925832
58	0x3d95986f	0.07304465
59	0x3c244319	0.010025763
60	0x3cb91fb7	0.02259813
61	0xbde0d0d6	-0.10977332
62	0xbc6be311	-0.014397399
63	0x3cbe0e72	0.023200247
64	0xbdce8556	-0.100840256
65	0x3d4f5d3d	0.05062603
66	0xbdd0b8c7	-0.101914935
67	0xbd484c72	-0.04890103
68	0x393fa74f	0.00018277507
69	0x3dd80128	0.105470955
70	0x3d859f43	0.065245174
71	0x3dd0373b	0.101667844
72	0x3d6b1076	0.057388745
73	0x3dbfdd2d	0.09368358
74	0x3ce71a14	0.028210677
75	0x3d199bbd	0.03750204
76	0xbdfb97bf	-0.12284803
77	0xbdd544dd	-0.10413525
78	0xbd28f58d	-0.0412498
79	0x3c9be153	0.019028341
80	0xbe11874c	-0.14211768
81	0xbdb843e0	-0.08997321
82	0x3d4cd43b	0.050007086
83	0xbd384ce6	-0.04499521
84	0xbd171a4e	-0.03689032
85	0x3bd9584d	0.0066328407
86	0x3da2b8f2	0.07945432
87	0xbe24bf51	-0.16088606
88	0x3dd920e4	0.106019765
89	0xbd84e854	-0.064896256
90	0x3be229d9	0.0069019613
91	0xbdf8e516	-0.1215307
92	0x3c10867c	0.008821126
93	0xbc7fb8be	-0.015608011
94	0xbe05035f	-0.12989567
95	0xbd770fd1	-0.060317818
96	0x3b073342	0.0020629917
97	0x3d83afa5	0.06429986
98	0x3c49bd0d	0.01231314
99	0xbdb37e2a	-0.08764298
100	0x3daf4d43	0.085596584
101	0xbe0ad458	-0.13557565
102	0xbd9a77b9	-0.075423665
103	0x3dae006d	0.08496175
104	0x3db5fd12	0.0888616
105	0xbd23a803	-0.03995515
106	0xbd1c8c39	-0.038219664
107	0x3cf1414b	0.02945008
108	0x3d9a9e5e	0.075497374
109	0x3dfebe7b	0.12438675
110	0xbd0d70a6	-0.034531258
111	0xbdb7fb3e	-0.089834675
112	0x3e1afc25	0.15135248
113	0xbcdb3555	-0.02675883
114	0x3e13692b	0.14395587
115	0xbcb02749	-0.021503108
116	0x3e215062	0.1575332
117	0xbdaa79a3	-0.083239816
118	0x3e1b2b22	0.15153173
119	0x3dbc6159	0.09198255
120	0xbd0b8ccb	-0.034069818
121	0xbdf7e054	-0.12103334
122	0x3df39468	0.118935406
123	0x3c286099	0.010276937
124	0xbd933085	-0.07186989
125	0xbd2d7f29	-0.042357598
126	0xbdc9d1b9	-0.098544545
127	0x3d919ed6	0.07110374
128	0x3d20dc3c	0.039272532
129	0xbdf58388	-0.11987978
130	0xbdbbb4ca	-0.09165342
131	0xbda485db	-0.080333434
132	0x3de69786	0.112593696
133	0x3dc610fc	0.09671208
134	0xbcfbad78	-0.030722365
135	0x3ce0663d	0.027392501
136	0xbce9503e	-0.028480645
137	0x3dd35e64	0.10320738
138	0xbd6312c9	-0.055437837
139	0xbcf7d30d	-0.030252004
140	0x3db2fd58	0.08739728
141	0xbd2f9f41	-0.042876486
142	0xbcb36059	-0.021896528
143	0xbd967b56	-0.07347743
144	0x3cf8f895	0.03039197
145	0xbd5c82ae	-0.053835563
146	0x3d2dcc07	0.042430904
147	0x3c84f788	0.016231313
148	0x3cd28cde	0.025701936
149	0xbcdbb3eb	-0.02681919
150	0x3d711410	0.058857024
151	0xbd776ac5	-0.060404558
152	0x3dbea561	0.09308887
153	0x3c7afad9	0.015318596
154	0x3e017c11	0.12644984
155	0x3c526627	0.012841738
156	0x3df14ef2	0.11782636
157	0xbd939273	-0.07205667
158	0xbd942b8b	-0.07234868
159	0x3df10126	0.11767797
160	0x3d593056	0.053024612
161	0x3d992308	0.07477385
162	0xbdbfa757	-0.093580894
163	0xbc61d088	-0.013782628
164	0x3d74c5ca	0.05975894
165	0xbe182c51	-0.14860655
166	0x3d198a11	0.037485186
167	0x3dd7c69c	0.105359286
168	0x3b8a11f7	0.0042135674
169	0x3d3b7c06	0.045772575
170	0x3e074325	0.13209207
171	0xbde5a846	-0.11213736
172	0x3c377fe5	0.011199926
173	0xbd55fd57	-0.052243557
174	0x3ca73d47	0.020414962
175	0x3d7555f8	0.05989644
176	0xbda0135b	-0.07816192
177	0x3dc91682	0.09818746
178	0x3d82e487	0.063912444
179	0x3e1320d6	0.14367995
180	0xbdcf3fc0	-0.10119581
181	0xbd04b3ca	-0.032398023
182	0xbcf3a7e9	-0.029743152
183	0xbe055dd0	-0.13024068
184	0x3d46457b	0.048406105
185	0xbe06a781	-0.13149835
186	0xbe0fdb7e	-0.14048573
187	0xbda3886f	-0.07985007
188	0xbe104646	-0.14089307
189	0x3d0f42ed	0.034975935
190	0x3d97b319	0.07407207
191	0xbd212e3c	-0.039350733
192	0x3ddb97bf	0.10722303
193	0xbcb2e1d5	-0.0218362
194	0xbd718c12	-0.058971472
195	0xbdb348dc	-0.08754131
196	0xbc8dec16	-0.017324489
197	0xbddb8210	-0.10718167
198	0xbdc9a06a	-0.0984505
199	0x3d99eef1	0.075162776
200	0x3d85b77e	0.06529139
201	0xbd6ba9c0	-0.057534933
202	0xbdd9a695	-0.10627476
203	0x3dfefdee	0.12450777
204	0x3cf858ea	0.030315835
205	0xbdea602d	-0.11444125
206	0x3c93026f	0.017945496
207	0xbde1c92b	-0.11024698
208	0x3d8d26f6	0.06892197
209	0x3deae618	0.11469668
210	0xbdecf05e	-0.11569284
211	0x3dd5f162	0.10446431
212	0xbd8fe3ff	-0.07025909
213	0xbcc74363	-0.024324125
214	0xbdc5ae30	-0.09652364
215	0x3dbb7b01	0.091543205
216	0x3cbd40a3	0.02310211
217	0x3cbf661f	0.023364125
218	0xbdbd8af2	-0.09255017
219	0xbdd81707	-0.10551267
220	0x3b4a9f98	0.003091788
221	0xbda6c3ca	-0.081428126
222	0x3d82fcd4	0.063958794
223	0x3d6925d8	0.056920856
224	0xbd87e923	-0.06636264
225	0x3c40113b	0.011722858
226	0xbdb08617	-0.086193256
227	0x3dfdcc02	0.12392427
228	0xbda68bf1	-0.081321605
229	0x3c64d399	0.013966464
230	0xbd823b00	-0.063589096
231	0x3d7550f9	0.059891675
232	0x3dcc6d6d	0.09981809
233	0x3d730ff4	0.059341386
234	0xbd339e08	-0.043851882
235	0x3dd1596d	0.10222135
236	0x3cd52719	0.02601962
237	0xbd1d4ea9	-0.038405094
238	0xbd2d4cf0	-0.0423097
239	0x3d18dffd	0.037322987
240	0x3d80b60a	0.06284721
241	0xbdb79af1	-0.089650996
242	0x3d43a0b9	0.0477607
243	0x3d5a778f	0.053336676
244	0x3de7447a	0.11292358
245	0xbd38659c	-0.045018777
246	0xbdf086f3	-0.117444895
247	0xbe1954c5	-0.14973743
248	0xbe474d0b	-0.19462983
249	0xbe307563	-0.1723228
250	0xbdf79857	-0.120896034
251	0xbd047773	-0.03234048
252	0xbc278991	-0.0102256695
253	0x3da7614c	0.08172855
254	0x3d589dc9	0.05288485
255	0x3d80c58a	0.062876776

encoder.conv1.bias f4 [32]
0	0xb78ae82a	-1.6558992e-05
1	0x37be86c8	2.2712527e-05
2	0x36bfa604	5.7115703e-06
3	0xb6d90161	-6.4672645e-06
4	0x36391626	2.758004e-06
5	0x35f76720	1.8432947e-06
6	0xb7a5f094	-1.978156e-05
7	0x37b95f32	2.2098047e-05
8	0xb6c1cb22	-5.775496e-06
9	0xb70b3d60	-8.299336e-06
10	0xb6095daa	-2.046911e-06
11	0xb62bf372	-2.562269e-06
12	0x36ba9a84	5.56122e-06
13	0xb66985b4	-3.479753e-06
14	0x38d4bc46	0.000101440164
15	0x37af3317	2.0885416e-05
16	0x3772b94e	1.4467469e-05
17	0x363fda95	2.858845e-06
18	0x37eb88a4	2.8077811e-05
19	0x386745a4	5.513955e-05
20	0xb7c54318	-2.3515473e-05
21	0x376515cf	1.3654541e-05
22	0xb7c9d81e	-2.4061705e-05
23	0xb91e9f62	-0.00015127429
24	0x38312c4c	4.2241343e-05
25	0xb8723ff2	-5.775685e-05
26	0xb73edcc6	-1.1376285e-05
27	0xb627f744	-2.5028867e-06
28	0xb7417fb0	-1.1533426e-05
29	0x3742fc9b	1.1622115e-05
30	0xb6e1bc69	-6.7274564e-06
31	0xb8555443	-5.0861632e-05

encoder.bn1.weight f4 [32]
0	0x3f7e5afa	0.9935757
1	0x3f7c7631	0.98617846
2	0x3f7e9ff7	0.99462837
3	0x3f761a19	0.9613357
4	0x3f7c36ee	0.98521316
5	0x3f82478c	1.0178084
6	0x3f7b17a2	0.98082936
7	0x3f8038a5	1.0017287
8	0x3f818d13	1.0121177
9	0x3f763d26	0.96187055
10	0x3f8070a1	1.0034372
11	0x3f7801ac	0.9687755
12	0x3f78be55	0.97165424
13	0x3f76561b	0.96225137
14	0x3f8417f6	1.0319812
15	0x3f795774	0.9739907
16	0x3f835201	1.0259401
17	0x3f7c9529	0.986651
18	0x3f7cf7af	0.98815435
19	0x3f7ca92f	0.98695654
20	0x3f81f423	1.015263
21	0x3f783865	0.9696105
22	0x3f7ea8da	0.994764
23	0x3f839179	1.027877
24	0x3f7a2570	0.97713375
25	0x3f805ba2	1.0027964
26	0x3f7d45dd	0.9893473
27	0x3f828fce	1.0200136
28	0x3f814623	1.0099529
29	0x3f7f3948	0.9969678
30	0x3f7e25a0	0.9927616
31	0x3f81271c	1.009006

encoder.bn1.bias f4 [32]
0	0x3cc1e43e	0.023668405
1	0xbc8d2523	-0.017229622
2	0xbba736e5	-0.0051029795
3	0xbc7179bb	-0.014738495
4	0xbca83646	-0.020533692
5	0xbc8898a9	-0.016674357
6	0xba571561	-0.0008204785
7	0x3c7eb417	0.015545866
8	0x3c0c2ca6	0.008555567
9	0xbc33c77c	-0.010972854
10	0x3b80ab6d	0.0039266855
11	0xbc41ddd6	-0.011832675
12	0xbc18364c	-0.009290289
13	0xbc4cb17a	-0.012493486
14	0x3cac8b2d	0.021062458
15	0xbc7177c2	-0.014738025
16	0xbc901be0	-0.017591417
17	0x3bf41afd	0.0074495063
18	0x3bb6e8ed	0.005581966
19	0xbc27df17	-0.01024606
20	0x3cd054ea	0.025431115
21	0xbcf13d38	-0.029448137
22	0xbc6bc900	-0.014391184
23	0xba77946d	-0.00094444194
24	0xbc9771cf	-0.018486885
25	0x3b842fac	0.0040340032
26	0x3ca1aa9b	0.019734671
27	0x3cbfcedc	0.023414068
28	0xbb8ea210	-0.0043528154
29	0xbc075b8d	-0.0082615735
30	0x3c1f3109	0.009716281
31	0x3ca6d46a	0.020364959

encoder.bn1.running_mean f4 [32]
0	0x3b0e0c92	0.0021674973
1	0xbc74238c	-0.014901053
2	0x3d25192f	0.04030722
3	0x3af5a432	0.0018740951
4	0x3d758689	0.059942756
5	0x3d8156b5	0.06315366
6	0x3d2efcd5	0.04272159
7	0x3dd376dc	0.10325405
8	0x3cbc5f5f	0.022994695
9	0x3cdc2a18	0.02687554
10	0x3d7764a4	0.060398713
11	0x3d97ce3e	0.074123845
12	0x3d12c724	0.035834447
13	0xbca2cfb6	-0.019874435
14	0xbbea8084	-0.0071564335
15	0xbd3943be	-0.04523062
16	0x3e0a1fcb	0.1348869
17	0xbd29d8e4	-0.04146661
18	0xbceb4621	-0.028719964
19	0x3ce57f15	0.028014699
20	0xbc3f041e	-0.011658696
21	0x3d8d7280	0.06906605
22	0x3cdc85cb	0.026919266
23	0xbcc4a2aa	-0.024003346
24	0xbd9bbc01	-0.07604218
25	0x3ceb18cf	0.028698353
26	0xbcc3cb2e	-0.023900595
27	0x3c5a2dfd	0.0133166285
28	0xbd094f93	-0.033523154
29	0xbbf156b7	-0.0073650735
30	0xbd8f4470	-0.06995475
31	0xbce49249	-0.027901785

encoder.bn1.running_var f4 [32]
0	0x3ebd3bc4	0.3695966
1	0x3e80f546	0.2518713
2	0x3e3af0de	0.18255946
3	0x3ebad438	0.36490035
4	0x3f52c69f	0.8233432
5	0x3e4b4403	0.19850163
6	0x3e344196	0.17603144
7	0x3ecc91d2	0.39955002
8	0x3e88178e	0.2658047
9	0x3ef357a4	0.47527802
10	0x3ea11791	0.31463292
11	0x3ef40ff6	0.47668427
12	0x3e6bf5ea	0.23043028
13	0x3eff2e3d	0.49839965
14	0x3e3187d2	0.17336968
15	0x3e04753c	0.12935346
16	0x3ea96420	0.33084202
17	0x3f6cb0d3	0.9245731
18	0x3e7c113b	0.24615948
19	0x3e911178	0.2833364
20	0x3e22844f	0.15870784
21	0x3ef135fe	0.47111505
22	0x3ece8d7c	0.4034232
23	0x3e5f8b0c	0.21830386
24	0x3e894d4b	0.26816782
25	0x3eb9fbbd	0.36324874
26	0x3e78e6fa	0.2430686
27	0x3e912815	0.28350893
28	0x3dcfd040	0.101471424
29	0x3dfff094	0.124970585
30	0x3e5760ee	0.2103307
31	0x3dd07121	0.101778276

encoder.conv2.weight f4 [64, 32, 5]
0	0x3c0f468c	0.008744847
1	0x3cd6aeda	0.026206423
2	0x3db0dae2	0.086354986
3	0x3d9b4b28	0.07582694
4	0x3c48db9a	0.012259388
5	0x3ceba79f	0.028766451
6	0xbb3a8665	-0.0028461453
7	0x3d8655d6	0.06559341
8	0x3ca5dc66	0.020246696
9	0xbca3ca88	-0.019994035
10	0x3d2a58df	0.04158866
11	0xbbaf7778	-0.005354818
12	0xbce3383e	-0.02773678
13	0x3c2a394f	0.01038964
14	0x3dbd979d	0.092574336
15	0xbd071ea6	-0.032988213
16	0x3ce64524	0.02810914
17	0xbd33af56	-0.043868385
18	0xbd63a478	-0.05557677
19	0x3ce427c8	0.027851
20	0x3c74f7d2	0.014951663
21	0x3d27f986	0.04100945
22	0x3bd874c4	0.0066057164
23	0xbd46e396	-0.048556887
24	0x3c8bafaf	0.017051546
25	0x3cee8b88	0.029119268
26	0x3cd82019	0.026382493
27	0x3c74dc1b	0.014945055
28	0xbc957912	-0.018246207
29	0xbd1e1e81	-0.03860331
30	0x3d0ad4a7	0.033894207
31	0xbd11d1d4	-0.0356005
32	0x3d78b110	0.060715735
33	0xbda22aa5	-0.0791829
34	0x3cc7dafb	0.02439641
35	0x3d26fd7a	0.040769078
36	0x3d6b935b	0.057513576
37	0x3d99e22b	0.07513841
38	0xbd22a947	-0.039712217
39	0x3d6c275b	0.05765472
40	0x3d0efe92	0.034910746
41	0xbd893243	-0.0669904
42	0xbd4c062f	-0.049810585
43	0x3cb49649	0.022044318
44	0xbd561adf	-0.05227172
45	0x3d91de78	0.07122511
46	0xbcca9c9f	-0.024732886
47	0x3d90167f	0.07035541
48	0xbbd18b8c	-0.006394809
49	0xbd8d39a9	-0.068957634
50	0xbd316f5b	-0.043319087
51	0x3cf39b68	0.02973719
52	0x3caa5cb7	0.020796163
53	0xbd8bf3ef	-0.06833636
54	0xbceb78c7	-0.028744115
55	0x3cd0c27e	0.025483366
56	0x3d8efb70	0.06981552
57	0x3c69881e	0.014253644
58	0x3d035a0e	0.032068305
59	0xbd4243aa	-0.04742781
60	0xbccf6860	-0.025318325
61	0x3d18c4e8	0.03729716
62	0x3d4b9a12	0.04970748
63	0x3d0416a9	0.032248173
64	0xbd18faed	-0.037348676
65	0xbd6ff053	-0.0585788
66	0xbd303ebf	-0.04302859
67	0xbd0135d0	-0.03154546
68	0xbca9099a	-0.020634461
69	0x3bb8d2e9	0.005640377
70	0xbd8ab53f	-0.06772851
71	0xbda565fb	-0.08076092
72	0xbd9d2dba	-0.07674737
73	0xbc3a4298	-0.011368416
74	0x3d4bacbb	0.049725275
75	0xbd6db5fa	-0.058034874
76	0xbd01a09a	-0.031647302
77	0xbc8c8493	-0.01715306
78	0x3af40f4b	0.001862028
79	0xbd1dad81	-0.038495544
80	0x3dd32ea2	0.10311629
81	0x3d9e9907	0.077440314
82	0x3d81a965	0.063311376
83	0x3dc5bcd8	0.0965516
84	0xbc69624b	-0.014244626
85	0xbcc9b4fd	-0.024622435
86	0x3d86af9f	0.06576466
87	0xbc943dbc	-0.018095843
88	0xbd6d2de6	-0.0579051
89	0x3d288370	0.041140974
90	0x3dac1940	0.084032536
91	0x3c9ccf8c	0.019141935
92	0x3d206756	0.03916105
93	0x3c08fa23	0.0083604185
94	0x39e7454c	0.00044111384
95	0x3d334b0b	0.04377274
96	0x3d84d9c5	0.06486849
97	0x3cd2d316	0.02573542
98	0xbc8a1666	-0.016856384
99	0x3b919f4c	0.0044440385
100	0x3d3d1f0b	0.046172183
101	0x3dd6f77f	0.10496425
102	0x3dc27e8e	0.09496795
103	0x3d191b32	0.03737945
104	0x3951f8dc	0.000200245
105	0x3d1efa65	0.038813014
106	0xbd93dc7d	-0.07219789
107	0xbcb6d68a	-0.022319097
108	0x3c94a664	0.018145747
109	0xbd968172	-0.073489085
110	0xbd1edf9c	-0.03878747
111	0x3ca0526b	0.01957055
112	0xbce992f9	-0.028512465
113	0x3cf51412	0.029916797
114	0xbd629980	-0.05532217
115	0xbd58a89a	-0.052895166
116	0xbba301ce	-0.0049745804
117	0x3d457b47	0.04821327
118	0x3c8bf873	0.017086243
119	0x3cca8fde	0.024726804
120	0xbd3218a7	-0.04348054
121	0x3d52de33	0.051481437
122	0x3d76b635	0.06023236
123	0x3b4635da	0.00302445
124	0x3d3bf854	0.04589112
125	0xbd66dbdf	-0.05636203
126	0x3d95d945	0.073168315
127	0xbc84fae9	-0.016232925
128	0xbd5b1494	-0.05348642
129	0x3d8d5a4b	0.06901988
130	0x3ba2a10b	0.0049630455
131	0xbd3fc821	-0.046821717
132	0xbd7761a8	-0.060395867
133	0x3cef4de6	0.02921195
134	0xbc8088ab	-0.015690168
135	0xbb91dd14	-0.0044514034
136	0xbd1cafe1	-0.03825367
137	0xba4c217b	-0.00077869714
138	0xbc8cee41	-0.017203452
139	0xb8257362	-3.9446524e-05
140	0xbaec59e6	-0.0018032163
141	0x3bede1e2	0.0072595933
142	0x3bf8a354	0.0075878296
143	0x3d42e409	0.047580753
144	0xbc04f577	-0.008115164
145	0x3d85400d	0.06506357
146	0xbcbeee54	-0.023307003
147	0xbd0a5ad4	-0.033778027
148	0xbd646cbc	-0.05576776
149	0xbd34d27b	-0.044146042
150	0xbd22dad4	-0.039759472
151	0xbb58297e	-0.0032983716
152	0x3ce2d085	0.02768732
153	0x3d38538f	0.045001563
154	0xbcff8d60	-0.031195343
155	0x3d865b38	0.06560367
156	0xbc62ccb2	-0.0138427485
157	0x3ba3ec57	0.005002539
158	0xbd778c9c	-0.06043683
159	0x3d9b2198	0.07574767
160	0x3d8f1c33	0.069878004
161	0x3d6ade61	0.057340983
162	0x3d528cf2	0.051403947
163	0xbb13c87b	-0.0022549916
164	0x3d00d5ea	0.031454004
165	0x3d0f2c48	0.03495434
166	0xbd5b1f3d	-0.053496588
167	0xbd1a3237	-0.037645545
168	0xbbb75c69	-0.005595733
169	0x3c61b5fc	0.013776299
170	0x3d0c73bc	0.03429006
171	0x3d7b47bf	0.06134772
172	0xbd65fe17	-0.056150522
173	0x3d3e7c10	0.046505034
174	0x3d9abdac	0.07555708
175	0x3d3c7cc3	0.04601742
176	0x3ceb8b96	0.028753083
177	0x3d337f76	0.043822728
178	0xbca3e0f6	-0.02000473
179	0x3ca87c11	0.020566972
180	0x3cd156c6	0.025554072
181	0xbcb6c973	-0.022312855
182	0xbd2d774c	-0.0423501
183	0xbc1b95ec	-0.009496193
184	0x3a0df3ce	0.0005415053
185	0x3d53ea96	0.05173739
186	0x3d4a70a6	0.049423836
187	0x3d8ee5be	0.069774136
188	0xbd53ee53	-0.051740956
189	0xbd8617e7	-0.06547528
190	0x3b8a2de7	0.0042168978
191	0x3d342b7a	0.043986775
192	0x3d24de40	0.040251017
193	0x3d39831f	0.045291062
194	0xbd1409bc	-0.036142096
195	0x3caf88c4	0.02142752
196	0x3d52249b	0.05130444
197	0xbcf1c3e8	-0.02951236
198	0xbacd1ef0	-0.0015649479
199	0x3d74eec1	0.059798006
200	0xbd24298f	-0.040078696
201	0x3d677e17	0.056516733
202	0xbcb03f2d	-0.0215145
203	0x3bc64480	0.0060506463
204	0x3cd58c31	0.026067825
205	0x3d3ab79f	0.04558527
206	0xbd9b64a8	-0.07587558
207	0x3d075d58	0.033048004
208	0xba2be44f	-0.0006557153
209	0xbcfd8334	-0.030946352
210	0x3da932fd	0.08261678
211	0xbd740d91	-0.05958325
212	0x3b9aeb54	0.0047277603
213	0x3d81d02b	0.06338533
214	0x3c9373b8	0.017999515
215	0xbd41cb54	-0.04731305
216	0x3cb5e125	0.022202084
217	0xbd38fdff	-0.045164105
218	0x3d756438	0.05991003
219	0xbd0f0620	-0.03491795
220	0xbd2c22d8	-0.042025417
221	0xbcc68081	-0.024231197
222	0xbcc2820e	-0.023743656
223	0xbc9628f5	-0.018330077
224	0x3c48763c	0.0122352205
225	0x3d191f4e	0.03738337
226	0x3d2a1ff0	0.041534364
227	0x3c521c68	0.012824155
228	0x3d8fc549	0.07020051
229	0x3c2cb5f4	0.010541428
230	0xbd4b5c37	-0.04964849
231	0xbcc9684b	-0.024585864
232	0x3dafe73c	0.08589026
233	0x3c5dcba7	0.013537324
234	0x3d4f729d	0.050646413
235	0x3cb344a9	0.021883326
236	0x3d42e369	0.047580156
237	0x3d0700e1	0.032959823
238	0xbc89d969	-0.016827302
239	0x3d284289	0.041079078
240	0xbd46b84d	-0.048515607
241	0x3d82edb7	0.06392997
242	0x3d98be1b	0.07458135
243	0x3d656ace	0.05601006
244	0xbc4595ed	-0.012059671
245	0xbb86e2b0	-0.0041163787
246	0x3d5a444a	0.05328778
247	0x3c4d83b4	0.0125436075
248	0xbcf04248	-0.02932848
249	0xbd0301e4	-0.031984225
250	0xbcfcab24	-0.030843325
251	0x3d193663	0.037405383
252	0x3d34652e	0.044041805
253	0x3d282c9d	0.04105817
254	0xbd4091b8	-0.04701397
255	0x3d5d3d87	0.054013755

encoder.conv2.bias f4 [64]
0	0x38518697	4.995483e-05
1	0xb7bef9d0	-2.2766093e-05
2	0x36d2638e	6.2700774e-06
3	0x384a2896	4.819835e-05
4	0x370d52d0	8.423536e-06
5	0xb79d0660	-1.8718827e-05
6	0x37a323fe	1.9447874e-05
7	0x3732a7d8	1.0648706e-05
8	0x35aa5b9e	1.2692651e-06
9	0xb747eeac	-1.1916894e-05
10	0xb73f29ad	-1.1394191e-05
11	0x36bdc184	5.655167e-06
12	0xb8544202	-5.0606213e-05
13	0x38626b81	5.398272e-05
14	0xb750c316	-1.2443188e-05
15	0xb6010481	-1.922512e-06
16	0xb6cc7308	-6.093065e-06
17	0x37c11546	2.30173e-05
18	0xb642d99c	-2.9034918e-06
19	0xb7025aac	-7.769715e-06
20	0xb72b7b63	-1.02211225e-05
21	0x388006e2	6.104798e-05
22	0xb737c14b	-1.09526545e-05
23	0xb619c418	-2.2912918e-06
24	0xb8583fd9	-5.1557876e-05
25	0xb687a8fd	-4.0429863e-06
26	0xb7f3ca00	-2.9061921e-05
27	0x37a230d9	1.9334651e-05
28	0x376e6ea4	1.4211666e-05
29	0x344df15e	1.9179922e-07
30	0x37497be4	1.2009379e-05
31	0xb2e13b00	-2.6220278e-08
32	0xb751173a	-1.2462779e-05
33	0xb83532dd	-4.3201133e-05
34	0xb82cc81e	-4.119437e-05
35	0x3630c995	2.634338e-06
36	0x380f70e3	3.419899e-05
37	0x354c0eaa	7.601726e-07
38	0x3600ca5b	1.9191273e-06
39	0x36f30fff	7.2438265e-06
40	0xb62627e0	-2.4759138e-06
41	0xb7b8eb03	-2.2043945e-05
42	0xb804eb69	-3.1690495e-05
43	0xb6851de6	-3.9671895e-06
44	0xb3d0695c	-9.7049195e-08
45	0x3866a5bd	5.499063e-05
46	0xb78d6109	-1.6853695e-05
47	0xb7a7f55d	-2.0022208e-05
48	0x375cc417	1.3158678e-05
49	0xb5cc2362	-1.5209482e-06
50	0xb7efe3e7	-2.8597146e-05
51	0x37d6293a	2.5529986e-05
52	0x380a51fa	3.297811e-05
53	0x37310ab0	1.05525105e-05
54	0x37d21957	2.504575e-05
55	0xb6c72d74	-5.9359536e-06
56	0x3646a796	2.9601847e-06
57	0x370ff849	8.581273e-06
58	0x3880b1ff	6.13667e-05
59	0xb7d6ebb8	-2.5620553e-05
60	0xb7c7773d	-2.3778173e-05
61	0x375e08a4	1.3234243e-05
62	0xb672db1e	-3.6188353e-06
63	0xb6231432	-2.4300648e-06

encoder.bn2.weight f4 [64]
0	0x3f7d7ec0	0.9902153
1	0x3f77e048	0.968266
2	0x3f81189e	1.0085638
3	0x3f7f8474	0.9981148
4	0x3f80b537	1.0055302
5	0x3f8272ae	1.0191247
6	0x3f80ebbe	1.0071943
7	0x3f7bf7b5	0.98424846
8	0x3f7b2bb6	0.9811357
9	0x3f80261b	1.0011629
10	0x3f81a057	1.0127057
11	0x3f7ab6e0	0.97935295
12	0x3f7f4389	0.99712425
13	0x3f8016de	1.0006979
14	0x3f7c0169	0.9843965
15	0x3f7ecc3a	0.99530375
16	0x3f7f3d9a	0.9970337
17	0x3f800eae	1.000448
18	0x3f78e377	0.97222084
19	0x3f79486d	0.9737614
20	0x3f724b4d	0.9464615
21	0x3f82139a	1.0162232
22	0x3f7f3297	0.9968657
23	0x3f750fdc	0.95727324
24	0x3f7e1045	0.99243575
25	0x3f808ae9	1.0042392
26	0x3f7dad67	0.99092716
27	0x3f7c6168	0.9858613
28	0x3f8151ac	1.0103049
29	0x3f77794d	0.96669465
30	0x3f7a6f68	0.9782624
31	0x3f7ad443	0.97980136
32	0x3f78713f	0.970478
33	0x3f827d81	1.0194551
34	0x3f7c3f3c	0.9853399
35	0x3f76b1ce	0.9636506
36	0x3f811304	1.0083928
37	0x3f75e2f1	0.9604941
38	0x3f77ca5e	0.9679316
39	0x3f7bee03	0.9841005
40	0x3f7e1b5b	0.9926049
41	0x3f7cef57	0.98802704
42	0x3f802ede	1.0014303
43	0x3f78d3c4	0.9719813
44	0x3f785aa1	0.9701329
45	0x3f7dad45	0.99092513
46	0x3f70f68a	0.9412619
47	0x3f802b74	1.0013261
48	0x3f7ddb40	0.99162674
49	0x3f6f0f20	0.93382454
50	0x3f798e73	0.97482985
51	0x3f81d25b	1.014232
52	0x3f80bbe1	1.0057336
53	0x3f7d4dc8	0.9894681
54	0x3f81a57b	1.0128626
55	0x3f79baba	0.9755055
56	0x3f7a3414	0.97735715
57	0x3f75169c	0.95737624
58	0x3f7d059b	0.9883668
59	0x3f7e0f65	0.9924224
60	0x3f81b6d1	1.0133916
61	0x3f7d9d10	0.99067783
62	0x3f80a486	1.0050209
63	0x3f744605	0.9541934

encoder.bn2.bias f4 [64]
0	0xbd791c95	-0.060818274
1	0xbcfe8377	-0.031068547
2	0xbc9e09d4	-0.019291796
3	0xbca3e479	-0.020006405
4	0x3b116b17	0.0022189075
5	0xbcab5623	-0.020915097
6	0xbc2b6ece	-0.01046343
7	0xbcf60d9b	-0.030035784
8	0x3aa63eee	0.001268355
9	0xbbcff64b	-0.006346499
10	0xbbfae608	-0.0076568164
11	0xbd126292	-0.035738535
12	0xbcf9c68f	-0.030490188
13	0xbcd72e76	-0.026267271
14	0xbceba87d	-0.028766865
15	0x3c32cea5	0.010913526
16	0xbc5b9344	-0.01340181
17	0xbd48f50a	-0.049061812
18	0xbc19c2b4	-0.0093848
19	0xbcdb8e3c	-0.026801221
20	0xbcc4acf3	-0.02400825
21	0xbc2ce043	-0.010551515
22	0xbb83a40f	-0.00401736
23	0xbc1c0ca1	-0.009524495
24	0xbc51b159	-0.012798631
25	0x3cc916b5	0.02454696
26	0xbc681fad	-0.014167708
27	0xbbd40229	-0.006469984
28	0xbc726f77	-0.014797083
29	0xbc267315	-0.010159274
30	0xb9b629d0	-0.00034744898
31	0xbc87a4db	-0.016558101
32	0xbbc39e95	-0.005969832
33	0xbb913481	-0.004431308
34	0xbcea9d23	-0.028639382
35	0x3bad4fca	0.0052890526
36	0x3c252c5f	0.01008138
37	0xbccddc9f	-0.025129614
38	0xbc97bb4d	-0.01852193
39	0xbc5976ed	-0.013272983
40	0xbd0c781a	-0.034294225
41	0xbce1bd80	-0.027556181
42	0x3c87d7fb	0.01658248
43	0xbc65f2a5	-0.014034902
44	0x3b8c9c0e	0.004291064
45	0xbc6fadd6	-0.014628848
46	0xbd046ec8	-0.03233221
47	0xbcf3bd3f	-0.029753326
48	0xbca92dad	-0.020651663
49	0xbd4782c9	-0.04870871
50	0x39b91b17	0.00035306133
51	0x3ba037ad	0.0048894496
52	0x3c266918	0.010156892
53	0xbcb96b1c	-0.022634082
54	0x396cba56	0.0002257613
55	0xbc9d2992	-0.019184861
56	0xbbdb34f6	-0.006689663
57	0xbc894be6	-0.016759824
58	0xbc9f0a96	-0.019414227
59	0x3b884963	0.004159139
60	0xbca4d794	-0.020122327
61	0xbcb50b50	-0.02210012
62	0xbbdb73cb	-0.006697153
63	0xbc91bd89	-0.017790573

encoder.bn2.running_mean f4 [64]
0	0x3ea913a1	0.33022788
1	0x3f2c62cd	0.6733826
2	0x3e56f510	0.20991921
3	0x3ef37487	0.4754984
4	0xbed5356a	-0.41642314
5	0xbeb991a1	-0.3624392
6	0xbf0dde60	-0.5541744
7	0xbea385ae	-0.31937927
8	0xbeb9c06f	-0.36279628
9	0xbe977fc0	-0.29589653
10	0x3d60dea2	0.05489982
11	0x3cf80f26	0.03028066
12	0x3f0b425f	0.5439815
13	0x3ec32dab	0.3812078
14	0xbc4e0cbe	-0.01257628
15	0xbd0efeec	-0.03491108
16	0xbf017c1c	-0.5058
17	0xbda80222	-0.08203532
18	0xbc422a1c	-0.01185086
19	0x3eb40a3c	0.35164058
20	0x3f0ee41d	0.55816823
21	0xbd8c1e7c	-0.06841752
22	0xbe85a008	-0.26098657
23	0xbd83819b	-0.06421205
24	0xbe57f6b3	-0.21090202
25	0x3f49edaa	0.7887827
26	0x3e2d8d91	0.16948535
27	0xbe3c39f0	-0.18381476
28	0xbed1f4b8	-0.41007018
29	0x3dba1973	0.09086885
30	0x3f37d0d4	0.7180302
31	0x3e869832	0.2628799
32	0xbe9f365f	-0.3109617
33	0xbbe03d54	-0.0068432484
34	0x3d6aae5c	0.05729519
35	0xbf043dcc	-0.51656795
36	0xbe5d8405	-0.21632393
37	0xbf055cb3	-0.5209457
38	0x3e57d8b8	0.21078765
39	0x3ef37481	0.47549823
40	0xbf218399	-0.6309143
41	0x3d901e10	0.07036984
42	0xbe979f61	-0.29613784
43	0xbe84eb14	-0.259606
44	0xbe8e2984	-0.2776605
45	0xbda5a4be	-0.08088063
46	0x3e89aa22	0.26887614
47	0xbe16c79f	-0.14724587
48	0x3e79c983	0.24393277
49	0x3e446b0e	0.19181463
50	0x3ee40745	0.44536796
51	0xbe36ba6a	-0.17844549
52	0xbe01963f	-0.1265497
53	0xbe601244	-0.21881968
54	0xbf045f05	-0.5170749
55	0x3f092099	0.53565365
56	0x3e1dd5a3	0.15413527
57	0xbcfcfadf	-0.030881343
58	0x3f229672	0.6351081
59	0x3ed12c2f	0.40854022
60	0x3e389c3f	0.18028353
61	0xbdcc886a	-0.099869564
62	0xbeb224a0	-0.34793568
63	0x3ebd8c6f	0.37021205

encoder.bn2.running_var f4 [64]
0	0x3ded731e	0.115942225
1	0x3e00c7b5	0.12576182
2	0x3d96a576	0.07355778
3	0x3e1b5e1c	0.15172619
4	0x3e322ccc	0.17399901
5	0x3ddd32b4	0.108006865
6	0x3e8c047c	0.2734717
7	0x3e44f929	0.19235672
8	0x3e3c2413	0.18373136
9	0x3dfb72cc	0.12277755
10	0x3dd1b736	0.10240023
11	0x3e1f721c	0.15570873
12	0x3dbb6e43	0.0915189
13	0x3d9ebc4b	0.07750758
14	0x3e3281ae	0.17432281
15	0x3de132be	0.109960064
16	0x3e6f73de	0.23384044
17	0x3daab6e2	0.083356634
18	0x3e1b3522	0.15156987
19	0x3e0c4644	0.13698679
20	0x3dcbd23e	0.0995221
21	0x3dda4cfc	0.10659215
22	0x3deb2835	0.11482278
23	0x3e6225d6	0.22084746
24	0x3da52f5a	0.08065672
25	0x3e0f37f2	0.13986185
26	0x3e1aaaf0	0.1510427
27	0x3dc7b122	0.09750582
28	0x3e29adb0	0.16570163
29	0x3e5c1907	0.21493922
30	0x3e3c0ae0	0.18363523
31	0x3e16a3b7	0.1471089
32	0x3ea00647	0.3125479
33	0x3e0d9431	0.13826062
34	0x3d7a488b	0.06110434
35	0x3ea13c9f	0.31491563
36	0x3daf055a	0.085459426
37	0x3e361829	0.17782654
38	0x3e5baf1c	0.21453518
39	0x3dd03b2f	0.101675384
40	0x3e2bf838	0.16793907
41	0x3e10c49d	0.14137502
42	0x3e194d3e	0.14970872
43	0x3e2f8199	0.17139281
44	0x3e3d399e	0.1847901
45	0x3d38699b	0.04502259
46	0x3e0c24ff	0.13685988
47	0x3dac376e	0.0840901
48	0x3e2f57ad	0.1712329
49	0x3e6bd914	0.23032027
50	0x3e4a26d9	0.19741382
51	0x3dbbcd6e	0.09170042
52	0x3dba35de	0.090923056
53	0x3e052fd3	0.13006525
54	0x3e3ab8cb	0.18234555
55	0x3e15770a	0.14596191
56	0x3d8a19c6	0.06743197
57	0x3e548dd8	0.20757234
58	0x3de81ead	0.11333976
59	0x3dd676f2	0.10471906
60	0x3d9f2426	0.07770567
61	0x3e335660	0.17513418
62	0x3e2ad498	0.1668266
63	0x3e144dc1	0.14482786

encoder.conv3.weight f4 [128, 64, 5]
0	0x3c54026b	0.01294003
1	0xbd8cdc71	-0.06877983
2	0xbd51fe54	-0.051267937
3	0xbd5202fd	-0.05127238
4	0x3c9db0cd	0.019249344
5	0xbd6ab1b3	-0.057298373
6	0xbc8971f8	-0.016777977
7	0xb9da7cf1	-0.0004167329
8	0xbd2f0a7d	-0.04273461
9	0x3cdc533a	0.026895154
10	0x3cdce8e9	0.026966529
11	0xbd44bb75	-0.048030335
12	0xbcc661a4	-0.02421648
13	0xbbc3f26a	-0.0059798257
14	0xbcb863f4	-0.022508599
15	0xbb2132e1	-0.0024596977
16	0xbadefe93	-0.0017013125
17	0x3d4af575	0.049550492
18	0x3c1954f9	0.009358638
19	0xbc6b3e7b	-0.014358158
20	0xbcf68a17	-0.030095143
21	0xbd62893b	-0.055306654
22	0x3c82039b	0.01587086
23	0x3c945e81	0.01811147
24	0x3cc1b5e5	0.023646304
25	0xbdb85e38	-0.09002346
26	0xbc4ce886	-0.01250661
27	0xbda72b70	-0.08162582
28	0xbc3191d7	-0.010837994
29	0xbd7aed21	-0.0612613
30	0xbca98c6d	-0.020696843
31	0xbc4b6523	-0.01241425
32	0x3b79ecab	0.003813545
33	0xbd0a531e	-0.033770673
34	0xbd5a0a51	-0.053232495
35	0x3c8eea45	0.017445693
36	0x3d431e89	0.047636542
37	0xbbd81e18	-0.0065953843
38	0x3d3c4484	0.04596378
39	0xbc926db2	-0.017874572
40	0x3b9c3c00	0.0047678947
41	0x3caccad0	0.021092802
42	0x3d0a25a4	0.033727303
43	0x3c12b526	0.008954322
44	0xbd344513	-0.044011187
45	0xbd32504c	-0.04353361
46	0x3d6d6cca	0.057965077
47	0x3d2bacbb	0.041912775
48	0x3c20f066	0.00982294
49	0xbced2c8c	-0.028951906
50	0x3ca9114f	0.020638136
51	0xbb96da96	-0.004603694
52	0x3bc22091	0.0059242924
53	0x3ad7864e	0.0016443224
54	0x3cdc2aff	0.02687597
55	0x3b670888	0.0035252888
56	0x3cf43df4	0.029814698
57	0x3d4d588f	0.050133284
58	0x3cf1e079	0.029525982
59	0x3d08e7c3	0.03342415
60	0x3c11184d	0.008855891
61	0x3c4cd07b	0.0125008775
62	0x3c19bf21	0.009383948
63	0xbd0badcd	-0.034101296
64	0xbd63f166	-0.055650137
65	0x3d4c6381	0.04989958
66	0x3b086774	0.0020813616
67	0xbd1cc77e	-0.038276188
68	0x3c172a34	0.009226371
69	0x3d703b6c	0.05865042
70	0x3c655b2f	0.013998791
71	0x3c614783	0.01374996
72	0xbbeef53e	-0.0072924187
73	0xbc1c011b	-0.009521748
74	0xbc503414	-0.012707729
75	0x3d5d299e	0.053994767
76	0x3d25463d	0.040350188
77	0x3c9d1f2c	0.019179903
78	0xbd47d63d	-0.048788298
79	0x3c5bb9d3	0.013411003
80	0xbd4166f1	-0.047217313
81	0xbc2733cf	-0.010205223
82	0x3d255375	0.040362794
83	0xbcf9221a	-0.030411769
84	0xbd071076	-0.032974683
85	0x3d38af29	0.04508892
86	0xbccbb5ce	-0.024866965
87	0x3d3bbec9	0.045836244
88	0x3d877718	0.06614512
89	0x3c533b4a	0.012892554
90	0xbcda9d83	-0.026686436
91	0x3d12d38a	0.03584627
92	0x3cf4b3e8	0.029870942
93	0xbd3bb3be	-0.045825712
94	0x3cc993ff	0.024606703
95	0xbd09984c	-0.033592507
96	0xbc94ae8c	-0.018149637
97	0xbc2e6820	-0.0106449425
98	0xbc7f97e9	-0.015600183
99	0x3d12b2ef	0.035815176
100	0x3d0429d9	0.03226647
101	0x3bf58856	0.007493059
102	0x3c99628b	0.018723747
103	0xbc7ce342	-0.015435042
104	0x3b591b47	0.003312783
105	0xbd714182	-0.058900364
106	0xbd82b2de	-0.063817725
107	0xbda18ae5	-0.0788782
108	0xbbd7ecee	-0.0065895235
109	0xbc4efa46	-0.012632912
110	0xbca6c3b5	-0.020356992
111	0x3c6aeed8	0.014339171
112	0xbd24cdd2	-0.040235348
113	0x3d259321	0.040423516
114	0xbb09c7ad	-0.0021023557
115	0xbcbbac53	-0.022909319
116	0xbbb1bc7a	-0.0054240795
117	0x3cf36d59	0.029715227
118	0x3d411f0b	0.047148746
119	0x3c7d2479	0.01545059
120	0xbc9a9933	-0.01887188
121	0xbc8eba26	-0.017422747
122	0x3d3b0992	0.045663424
123	0x3d2fe1de	0.042940013
124	0x3d860b9e	0.065451846
125	0x3d13409e	0.035950296
126	0xbc8275c6	-0.0159253
127	0x3c790925	0.015199934
128	0x37be8c43	2.271508e-05
129	0xbc74dc82	-0.014945151
130	0x3ce0d77e	0.027446505
131	0x3d378092	0.04480035
132	0xbca2d961	-0.019879045
133	0xbd402969	-0.04691449
134	0x3c96c124	0.018402644
135	0x3d226667	0.03964844
136	0xbcff060d	-0.031130815
137	0x3d4ade0b	0.049528163
138	0x3d196c42	0.03745676
139	0xbd0ea729	-0.034827385
140	0xbd04b547	-0.032399442
141	0xbd6d91c6	-0.05800035
142	0x3ca10dcd	0.019659901
143	0xbd779329	-0.060443077
144	0x3ad081f9	0.0015907875
145	0x3d1db310	0.038500845
146	0xbb93c799	-0.004509878
147	0x3c2e3395	0.010632415
148	0xbd262b61	-0.040568713
149	0x3cdac8a5	0.026707003
150	0xbc4ae3b3	-0.012383389
151	0xbc2f6a1f	-0.010706454
152	0x3bb3ee84	0.0054910798
153	0xbd1c2f65	-0.038131136
154	0xbd3d8304	-0.046267524
155	0x3d3d39d6	0.046197735
156	0xbd3d8dcc	-0.046277806
157	0xbbe36b16	-0.006940256
158	0xbd4e0e08	-0.05030635
159	0x3d1029eb	0.035196226
160	0xbcf1553b	-0.029459586
161	0xba1e3969	-0.00060357765
162	0xbd40af48	-0.04704216
163	0xbb7b41c4	-0.003833876
164	0x3d5551e5	0.052080054
165	0xbc830948	-0.015995637
166	0xbc9c795b	-0.019100836
167	0xbd59d883	-0.053184997
168	0xbda7ed06	-0.081995055
169	0xbd93fad6	-0.072255775
170	0x3d42ecb4	0.04758902
171	0x3c4676b6	0.012113264
172	0x3b25b96c	0.0025287522
173	0xbd0ac1ee	-0.033876352
174	0x3cb69e50	0.022292286
175	0x3d12e23a	0.035860278
176	0x3d12a861	0.03580511
177	0x3cdf3aba	0.027249683
178	0x3cd77bcb	0.026304146
179	0x3ca8bf76	0.020599108
180	0xbcb26e5b	-0.021781137
181	0xbb8a40be	-0.0042191437
182	0x3d3c196a	0.045922674
183	0xbc14cc87	-0.009081966
184	0x3d62b03f	0.055343863
185	0xbbbbcb93	-0.005731055
186	0xbca91830	-0.020641416
187	0xbc5565ea	-0.0130247865
188	0xbd09f2d6	-0.033678852
189	0x3d30108d	0.042984534
190	0xbd0ab949	-0.033868108
191	0xbc024ac9	-0.0079524005
192	0x3abaccdd	0.0014251728
193	0x3c3ef8d0	0.011656001
194	0x3c18f449	0.009335586
195	0x3d268136	0.04065057
196	0x3ce98b9f	0.02850896
197	0xbcc8fabf	-0.024533628
198	0xbd1928af	-0.037392315
199	0x3cdb937d	0.026803726
200	0xbd169f22	-0.036772855
201	0x3cdee6c5	0.027209649
202	0x3cb8c399	0.022554206
203	0x3cdb71c8	0.026787654
204	0xbc4502b9	-0.012024575
205	0x3d19cf6b	0.037551325
206	0x3bf4deb5	0.007472838
207	0x3d076288	0.03305295
208	0x3cc95b80	0.024579763
209	0x3d2be6df	0.041968223
210	0xbc9ec455	-0.019380728
211	0xbc32dd00	-0.010916948
212	0x3c7b0578	0.015321128
213	0xbbe6d5e2	-0.00704454
214	0x3c131e07	0.008979327
215	0xbce56a2b	-0.028004726
216	0xbd0462c6	-0.03232076
217	0x3d342b8c	0.043986842
218	0xbcb2fd2a	-0.021849234
219	0xbd30442e	-0.04303377
220	0x3cc2deaa	0.023787815
221	0xbc9efb4f	-0.019406943
222	0x3c29485b	0.010332192
223	0x3bfb9c3f	0.007678538
224	0x3abf2c77	0.0014585395
225	0x3b14b017	0.0022687966
226	0x3d43bede	0.047789447
227	0xbc20e139	-0.009819322
228	0x3d219967	0.039452937
229	0x3d34ef46	0.0441735
230	0xbcae5c4c	-0.021284245
231	0xbc3e2586	-0.011605626
232	0x3d094e1b	0.033521753
233	0x3d1a8577	0.03772494
234	0xbd7e3040	-0.062057734
235	0xbc8825f3	-0.016619658
236	0xbd833d84	-0.064082175
237	0x3cd1b7ee	0.0256004
238	0xbcc3438b	-0.023835918
239	0xbbf972b5	-0.007612551
240	0xbcf1fbea	-0.029539067
241	0xbd184b0e	-0.037180953
242	0x3d3c9964	0.046044722
243	0xbce1802c	-0.027526937
244	0xbc8d5a38	-0.017254934
245	0xbba104fe	-0.004913925
246	0x3b63187a	0.003465204
247	0xbd2aacf9	-0.041668866
248	0x3cfd21c4	0.03089989
249	0x3c70659b	0.014672662
250	0x3c3be718	0.011468671
251	0x3d42d7a5	0.047568936
252	0xbb62814f	-0.0034561937
253	0xbc05c975	-0.008165707
254	0xbcbe870c	-0.023257755
255	0x3d1f235f	0.038852092

encoder.conv3.bias f4 [128]
0	0xb6e9fd7e	-6.9734515e-06
1	0x3521fa69	6.034157e-07
2	0x36f037c6	7.1590503e-06
3	0x3561b0f8	8.4076555e-07
4	0x33b78260	8.5453166e-08
5	0x35788268	9.2576965e-07
6	0xb5314a52	-6.604579e-07
7	0x36c6d6b6	5.9258555e-06
8	0xb71519b7	-8.887079e-06
9	0xb69a3106	-4.5952647e-06
10	0xb66c1ac8	-3.518233e-06
11	0xb3749380	-5.6944828e-08
12	0xb5834d82	-9.782818e-07
13	0x37949ba8	1.7715458e-05
14	0xb67ddf66	-3.7829973e-06
15	0x360ef3ab	2.1301482e-06
16	0x37058ad0	7.959738e-06
17	0xb71a7a1f	-9.207549e-06
18	0xb6765646	-3.6707074e-06
19	0x36d4b5ba	6.339248e-06
20	0xb403fdc0	-1.229264e-07
21	0xb6614c50	-3.3572032e-06
22	0x359d7af1	1.1733192e-06
23	0xb71e3541	-9.429933e-06
24	0xb6929f6a	-4.3696973e-06
25	0xb6b01cab	-5.248546e-06
26	0xb51163a8	-5.416173e-07
27	0x36113b2e	2.164113e-06
28	0xb66f05f4	-3.561724e-06
29	0xb63c4f38	-2.8060294e-06
30	0xb5985182	-1.1348604e-06
31	0x353e7372	7.094851e-07
32	0x36b2014e	5.3049653e-06
33	0x35c27777	1.4488895e-06
34	0x36dfa779	6.6654143e-06
35	0xb6a2d167	-4.852354e-06
36	0xb6e6d802	-6.8796808e-06
37	0x365060bb	3.105072e-06
38	0xb6684dd2	-3.4615991e-06
39	0xb58cf97e	-1.0503425e-06
40	0xb35d56a0	-5.1534357e-08
41	0xb607bd1a	-2.022664e-06
42	0xb4b59770	-3.3824062e-07
43	0x3616773a	2.242114e-06
44	0x363183c5	2.6451755e-06
45	0x3756919b	1.2789295e-05
46	0x35be073c	1.4158209e-06
47	0x36f70e32	7.362826e-06
48	0xb5f42d5b	-1.8192617e-06
49	0xb7293d9a	-1.0087528e-05
50	0x36a1c4d2	4.821087e-06
51	0xb582664c	-9.715527e-07
52	0xb5fc21aa	-1.8785261e-06
53	0xb6684cf8	-3.4615496e-06
54	0xb57e7da4	-9.4805205e-07
55	0x36482344	2.982285e-06
56	0xb6133d88	-2.1940523e-06
57	0x36a6e3bf	4.9736987e-06
58	0xb5c3daba	-1.459229e-06
59	0x35090b96	5.1053337e-07
60	0xb5823011	-9.699744e-07
61	0xb7c6619c	-2.3648892e-05
62	0xb79da36b	-1.8791956e-05
63	0xb71f3ef0	-9.491792e-06
64	0xb77f8098	-1.5229125e-05
65	0xb60af2f8	-2.070503e-06
66	0x35ecf124	1.7653551e-06
67	0x3462f5ec	2.1137356e-07
68	0xb418b7ac	-1.4222923e-07
69	0x32d72b70	2.5049047e-08
70	0x3585dd0e	9.973608e-07
71	0x35bd6025	1.4109579e-06
72	0xb5267ae5	-6.2018654e-07
73	0xb67367b4	-3.6270185e-06
74	0x365f9a0a	3.3319252e-06
75	0x356883aa	8.661833e-07
76	0x3549db51	7.519748e-07
77	0xb83a2c89	-4.4387332e-05
78	0xb6b557da	-5.4044476e-06
79	0x37234bb8	9.733187e-06
80	0xb7213d65	-9.610642e-06
81	0xb69a9082	-4.6063806e-06
82	0xb7004141	-7.644588e-06
83	0xb6b85886	-5.493933e-06
84	0xb5a4d14c	-1.2279866e-06
85	0xb55f889a	-8.3272755e-07
86	0xb6eda1f3	-7.082004e-06
87	0xb45f0390	-2.076979e-07
88	0x35da3742	1.6258348e-06
89	0x360fc2b4	2.1421993e-06
90	0xb5e53a00	-1.707871e-06
91	0x3733ea5c	1.07237975e-05
92	0xb6245f05	-2.4493213e-06
93	0xb5c5cfd6	-1.4738132e-06
94	0x3614a7bf	2.215136e-06
95	0x353b523e	6.9782607e-07
96	0xb6ace9d8	-5.1532224e-06
97	0xb63cdbf0	-2.8142204e-06
98	0xb50efb10	-5.3264466e-07
99	0x36023f8c	1.9408499e-06
100	0xb4fd58a3	-4.7189414e-07
101	0x36e73749	6.8907725e-06
102	0x352271c8	6.0515276e-07
103	0xb5a4e2f0	-1.2285e-06
104	0x36053ff8	1.985578e-06
105	0x3723569e	9.735724e-06
106	0xb6113767	-2.1638932e-06
107	0xb7196df4	-9.145111e-06
108	0xb5000cc6	-4.7702304e-07
109	0xb7abe89e	-2.049311e-05
110	0xb6ac25f1	-5.1304164e-06
111	0x35d5140b	1.587557e-06
112	0x3706166b	7.992242e-06
113	0x3581c6f2	9.66915e-07
114	0x36e16cd2	6.718191e-06
115	0xb61ec61d	-2.3659152e-06
116	0x36f28e3f	7.2287216e-06
117	0xb528deec	-6.290927e-07
118	0x352fc2f2	6.5476263e-07
119	0x3553d5fc	7.8915014e-07
120	0x348fc908	2.6782095e-07
121	0x32c8dec0	2.338436e-08
122	0x36246af0	2.450015e-06
123	0xb5cc6f9d	-1.5231668e-06
124	0xb6801072	-3.8166118e-06
125	0xb6edc465	-7.0860137e-06
126	0x354bdd1f	7.5945167e-07
127	0xb5932f9a	-1.0966207e-06

encoder.bn3.weight f4 [128]
0	0x3f8e4767	1.111554
1	0x3f89e38c	1.0772567
2	0x3f867ab1	1.0506192
3	0x3f8ec68f	1.1154345
4	0x3f8b8915	1.0901209
5	0x3f890418	1.0704374
6	0x3f8ccffb	1.1000971
7	0x3f8a961b	1.0827059
8	0x3f89e048	1.077157
9	0x3f8b30a5	1.087422
10	0x3f87995d	1.0593678
11	0x3f8931f6	1.0718372
12	0x3f8d32da	1.1031144
13	0x3f8ca0fa	1.0986626
14	0x3f8c6165	1.0967222
15	0x3f8bd43b	1.0924143
16	0x3f900afc	1.1253352
17	0x3f8c5bca	1.0965512
18	0x3f89999d	1.0750004
19	0x3f8b2d18	1.0873137
20	0x3f89cf17	1.0766324
21	0x3f8a0322	1.0782206
22	0x3f893522	1.071934
23	0x3f8ae03a	1.0849679
24	0x3f8bff26	1.093724
25	0x3f8c59ac	1.0964866
26	0x3f89eea4	1.0775952
27	0x3f8ad14f	1.0845126
28	0x3f8b21f5	1.0869738
29	0x3f8933d7	1.0718945
30	0x3f8951f9	1.0728141
31	0x3f882351	1.0635778
32	0x3f88dbf1	1.0692121
33	0x3f89fb33	1.0779785
34	0x3f8b7fe3	1.0898403
35	0x3f8b2eca	1.0873654
36	0x3f892d7f	1.0717009
37	0x3f8a6074	1.0810685
38	0x3f8a64fd	1.0812069
39	0x3f84d6ce	1.0378053
40	0x3f88fa09	1.0701305
41	0x3f8d022c	1.1016288
42	0x3f8c3c99	1.0955993
43	0x3f8acb28	1.0843248
44	0x3f8ce242	1.1006548
45	0x3f8b5277	1.0884541
46	0x3f8cfc4b	1.1014494
47	0x3f8cfac8	1.1014032
48	0x3f8ce437	1.1007146
49	0x3f8cecc2	1.1009753
50	0x3f8ba44b	1.0909513
51	0x3f892ab1	1.0716153
52	0x3f8f3068	1.1186647
53	0x3f8adcce	1.0848634
54	0x3f8b587d	1.088638
55	0x3f8c3fb2	1.0956938
56	0x3f8bf1f8	1.0933218
57	0x3f8d6e75	1.1049334
58	0x3f875f79	1.0576011
59	0x3f8a2734	1.0793214
60	0x3f89b4cb	1.0758299
61	0x3f8d0799	1.1017944
62	0x3f8b6dd2	1.089289
63	0x3f8ea237	1.1143254
64	0x3f8ba709	1.091035
65	0x3f8a2227	1.0791672
66	0x3f839bdb	1.0281938
67	0x3f8a31c7	1.0796441
68	0x3f8ab909	1.0837718
69	0x3f8a65d9	1.0812331
70	0x3f8ba1a4	1.0908704
71	0x3f8a7f6a	1.0820134
72	0x3f8b2f22	1.0873759
73	0x3f880c5a	1.0628769
74	0x3f8ae170	1.0850048
75	0x3f8c6ba5	1.097035
76	0x3f8b4d76	1.0883014
77	0x3f8b614e	1.088907
78	0x3f8ae379	1.0850669
79	0x3f8888b1	1.0666715
80	0x3f859ccf	1.0438479
81	0x3f8bc54d	1.0919586
82	0x3f8a1602	1.0787966
83	0x3f8a8c6e	1.0824106
84	0x3f8c1481	1.0943757
85	0x3f8ddc0e	1.108278
86	0x3f9039f1	1.1267682
87	0x3f88f0cc	1.0698485
88	0x3f8d2eeb	1.1029943
89	0x3f8ed6b5	1.1159273
90	0x3f8c59ea	1.096494
91	0x3f8adb15	1.0848109
92	0x3f8ae54f	1.085123
93	0x3f8b6e0b	1.0892957
94	0x3f8ad6c1	1.0846788
95	0x3f8669da	1.0501053
96	0x3f8a797f	1.0818328
97	0x3f8e1cd6	1.110255
98	0x3f8cb4a6	1.099263
99	0x3f8acd3c	1.0843883
100	0x3f8a1ca3	1.0789989
101	0x3f8c372c	1.0954337
102	0x3f8c192d	1.0945183
103	0x3f888e9b	1.066852
104	0x3f8b9f82	1.0908053
105	0x3f8a2900	1.0793762
106	0x3f8b2adc	1.0872455
107	0x3f8b13e6	1.0865448
108	0x3f8bb9aa	1.0916035
109	0x3f8a74d2	1.0816901
110	0x3f8bfe35	1.0936953
111	0x3f8c6ff0	1.0971661
112	0x3f8a93b2	1.0826323
113	0x3f86914d	1.0513092
114	0x3f8e33c0	1.1109543
115	0x3f8b5e81	1.0888215
116	0x3f8d63b4	1.1046052
117	0x3f8d570b	1.1042188
118	0x3f8d7a4b	1.1052946
119	0x3f8e012e	1.109411
120	0x3f8c0005	1.0937506
121	0x3f8acdaa	1.0844014
122	0x3f8b410f	1.0879229
123	0x3f899f03	1.0751652
124	0x3f8cad08	1.0990305
125	0x3f8b930e	1.0904253
126	0x3f8ad87d	1.0847317
127	0x3f8bb4eb	1.0914587

encoder.bn3.bias f4 [128]
0	0x3d67aaf7	0.05655953
1	0x3da03841	0.078232296
2	0x3d3fb0f5	0.04679962
3	0x3d975a83	0.073903106
4	0x3d9023c4	0.07038072
5	0x3d830b2c	0.06398615
6	0x3dc3db25	0.09563283
7	0x3d5b899d	0.053598035
8	0x3d3471eb	0.044053953
9	0x3d2ab684	0.041677967
10	0x3d034499	0.03204784
11	0x3d6100b1	0.0549323
12	0x3d8f50c1	0.069978245
13	0x3d8d9495	0.069131054
14	0x3daeebe9	0.0854109
15	0x3da1b418	0.07895678
16	0x3d9a652e	0.0753883
17	0x3d835d1f	0.06414246
18	0x3d296fd0	0.0413664
19	0x3d4728e8	0.048622996
20	0x3d4d21a4	0.05008091
21	0x3d80b35b	0.06284209
22	0x3ceab07d	0.02864861
23	0x3da55e25	0.08074597
24	0x3d4e6696	0.050390802
25	0x3d918cd6	0.071069404
26	0x3d6c4008	0.057678252
27	0x3d803575	0.06260196
28	0x3d8b1580	0.0679121
29	0x3d696a2c	0.05698602
30	0x3d229c92	0.0397001
31	0x3d4fffdd	0.05078112
32	0x3d18573b	0.037192564
33	0x3d85a605	0.06525806
34	0x3d9eb5ec	0.077495426
35	0x3d9d643d	0.076851346
36	0x3d98fb73	0.07469835
37	0x3d5a6fac	0.053329155
38	0x3d96dbff	0.0736618
39	0x3d54033d	0.0517609
40	0x3d54f7fd	0.051994313
41	0x3d69dc28	0.057094723
42	0x3d70fd31	0.058835212
43	0x3d85ce23	0.06533458
44	0x3da81ff8	0.082092226
45	0x3d7ed8be	0.06221842
46	0x3d86cc0a	0.06581886
47	0x3d9bc6c2	0.076062694
48	0x3d591e2a	0.053007282
49	0x3d65b855	0.056083996
50	0x3d8c511e	0.068514094
51	0x3d79c3ad	0.060977627
52	0x3db86c0f	0.090049855
53	0x3d5a7280	0.053331852
54	0x3daaf9df	0.083484404
55	0x3d7d73fb	0.061878186
56	0x3d60d1a5	0.054887433
57	0x3d892f6d	0.06698499
58	0x3d786128	0.06063953
59	0x3d984529	0.07435066
60	0x3d8a8c36	0.06765024
61	0x3d56879c	0.05237542
62	0x3d51bba1	0.051204327
63	0x3da0324f	0.078220956
64	0x3d7f6464	0.0623516
65	0x3d86d749	0.06584031
66	0x3d160781	0.03662825
67	0x3d77db7b	0.060512047
68	0x3d9362f3	0.071966074
69	0x3db95f2d	0.090513565
70	0x3d67fa14	0.056634977
71	0x3d838376	0.064215586
72	0x3dd1b9e8	0.10240537
73	0x3d7dfd12	0.062008925
74	0x3d9327b6	0.07185309
75	0x3dab818a	0.08374317
76	0x3d9809cf	0.07423746
77	0x3d541cfa	0.051785447
78	0x3d435e09	0.0476971
79	0x3d8a77bd	0.067611195
80	0x3d28e674	0.041235402
81	0x3d55a031	0.052154724
82	0x3d43e157	0.047822323
83	0x3d8b63b0	0.06806123
84	0x3d8ca22b	0.068668686
85	0x3d9cb107	0.07650953
86	0x3d9da7fe	0.076980576
87	0x3d68ee71	0.05686802
88	0x3d5abe48	0.053404123
89	0x3dc48a47	0.09596687
90	0x3da30d6b	0.07961544
91	0x3d98f675	0.07468883
92	0x3d9efc32	0.07762946
93	0x3d52458c	0.051335856
94	0x3d862a49	0.06551034
95	0x3d489d2e	0.048978023
96	0x3d3cc24d	0.046083737
97	0x3da78a4e	0.081806764
98	0x3d847961	0.06468464
99	0x3d4a3a65	0.049372096
100	0x3d2f42a6	0.04278817
101	0x3d66b97e	0.056329243
102	0x3da69e26	0.08135633
103	0x3d8ab537	0.06772845
104	0x3d950309	0.072759695
105	0x3d7f9b3d	0.062403906
106	0x3d7fdf24	0.062468663
107	0x3d3fbbfb	0.04681013
108	0x3d91684f	0.070999734
109	0x3d9d23b4	0.076728255
110	0x3d8e0a72	0.06935586
111	0x3dafdc48	0.08586937
112	0x3d4b4a0e	0.04963117
113	0x3d2f1416	0.042743765
114	0x3d975035	0.07388345
115	0x3d84c8a3	0.06483581
116	0x3d9ee002	0.0775757
117	0x3da5594f	0.08073675
118	0x3d820763	0.06349065
119	0x3db90bfe	0.090354905
120	0x3d72f05b	0.059311252
121	0x3d9e62b3	0.07733669
122	0x3d8fbc85	0.07018379
123	0x3d42c41f	0.047550317
124	0x3d8c41d0	0.0684849
125	0x3d8ce1ad	0.06878982
126	0x3d848429	0.0647052
127	0x3d63c9ce	0.055612378

encoder.bn3.running_mean f4 [128]
0	0xbca4f2e4	-0.02013535
1	0xbe28c156	-0.16480002
2	0xbe1075d9	-0.14107455
3	0xbd079ba9	-0.033107433
4	0x3e687ec8	0.22704613
5	0xbec8e4be	-0.39237016
6	0xbec157a7	-0.37762186
7	0xbd374a88	-0.044748813
8	0x3d96f3a8	0.073706925
9	0x3ba594d8	0.005053144
10	0x3dfecd44	0.12441495
11	0xbe6d81a8	-0.23193991
12	0x3da2e6e6	0.07954197
13	0x3d81330c	0.063085645
14	0xbf0249e7	-0.50894016
15	0xbeb20d05	-0.34775558
16	0x3e076e3b	0.13225643
17	0x3de91c54	0.11382356
18	0x3e6468d5	0.22305615
19	0x3ec8ba51	0.39204648
20	0x3d5f41b5	0.054506022
21	0x3e40c713	0.18825941
22	0xbca3028f	-0.019898681
23	0xbd009615	-0.03139313
24	0xbdb13a2b	-0.08653673
25	0x3dfa93c3	0.122352146
26	0xbe40addb	-0.1881632
27	0xbd88bd55	-0.06676737
28	0x3dee6167	0.11639672
29	0x3e76b654	0.2409299
30	0x3e5f1189	0.21784033
31	0x3e713b21	0.23557712
32	0x3e0ce35d	0.13758607
33	0xbea7f9d1	-0.32807782
34	0xbd2f5750	-0.042807877
35	0x3d5cff26	0.053954266
36	0xbe5a5068	-0.21319735
37	0x3d8e8e9c	0.06960794
38	0xbe2e0147	-0.16992675
39	0xbeb74c5e	-0.3580045
40	0xbd9465f3	-0.07246008
41	0xbd452645	-0.0481322
42	0xbd2e482e	-0.042549305
43	0xbd2014f6	-0.03908249
44	0xbe9cd35b	-0.3063
45	0xbdfc0e37	-0.12307399
46	0xbd0e8b51	-0.03480083
47	0xbdec381e	-0.11534141
48	0x3e24f608	0.16109478
49	0x3d372fd0	0.044723332
50	0xbe9ee30c	-0.31032598
51	0xbdd8c31e	-0.10584091
52	0x3e3645e6	0.17800102
53	0xbe81ade2	-0.25327975
54	0xbdd65969	-0.104662724
55	0x3c7a92ba	0.015293771
56	0xbc63c90c	-0.013902914
57	0x3d81c13c	0.06335685
58	0xbe1436c7	-0.14474021
59	0xbebf276d	-0.37334767
60	0xbe85a1d5	-0.2610003
61	0x3d009ec8	0.031401426
62	0x3d1bd6f6	0.0380468
63	0x3dacae0a	0.08431633
64	0xbd8071b5	-0.06271688
65	0xbe6a670e	-0.22890875
66	0x3e5c09a2	0.2148805
67	0xbe0e6732	-0.13906553
68	0xbe8998d4	-0.2687441
69	0xbeb9f7a8	-0.3632176
70	0x3e126828	0.14297545
71	0xbe56ae18	-0.20964849
72	0x3d415ed8	0.04720959
73	0xbe8ab422	-0.27090555
74	0xbe45bdcb	-0.19310682
75	0x3e12b9ba	0.14328662
76	0xbcff9200	-0.031197548
77	0x3c874799	0.016513633
78	0xbd044ea4	-0.03230156
79	0xbeb0ff6b	-0.34569868
80	0xbdfd96c6	-0.123822734
81	0x3db95316	0.090490505
82	0x3ea0ba42	0.31392103
83	0xbb888275	-0.0041659423
84	0xbd2c69d6	-0.04209312
85	0x3e616c97	0.2201408
86	0xbd818342	-0.063238636
87	0xbdff243f	-0.12458085
88	0x3e947554	0.28995764
89	0xbef1af62	-0.4720412
90	0x3e5e9566	0.21736678
91	0x3dfd2e44	0.1236234
92	0xbebc6d78	-0.36802268
93	0xbd33c9e6	-0.043893717
94	0xbe34dc8a	-0.17662254
95	0x3d6c0322	0.057620175
96	0x3e56da37	0.2098168
97	0x3e4323e6	0.19056663
98	0x3d1f5381	0.038897995
99	0x3df37d2d	0.1188911
100	0xbea31fed	-0.31860295
101	0x3c508a52	0.012728291
102	0xbe384239	-0.17994012
103	0xbe743829	-0.23849548
104	0xbe2cf684	-0.16890913
105	0xbee324da	-0.44364053
106	0xbde1bd5d	-0.11022446
107	0xbc4b609d	-0.012413171
108	0xbe6401c6	-0.22266302
109	0xbe123a69	-0.14280094
110	0xbce5de1e	-0.028060015
111	0xbe3512f8	-0.17683017
112	0xbd61319c	-0.05497895
113	0xbeb9ea59	-0.36311606
114	0x3e0e1e41	0.13878728
115	0xbc9c2c72	-0.019064162
116	0xbe1ffb13	-0.15623121
117	0xbe6f3815	-0.23361237
118	0x3d6a6627	0.057226326
119	0xbea54004	-0.32275403
120	0x3cf0e120	0.029404223
121	0xbe27b9ff	-0.16379546
122	0x3b42dc69	0.0029733425
123	0xbe2fed50	-0.17180371
124	0xbd117cb5	-0.03551932
125	0xbe7ffbe8	-0.24998438
126	0xbac312d1	-0.0014882927
127	0x3d33ad52	0.043866463

encoder.bn3.running_var f4 [128]
0	0x3e187814	0.14889556
1	0x3e1f2337	0.15540777
2	0x3e0dcb79	0.1384715
3	0x3dc179b5	0.09447042
4	0x3e3a0596	0.18166193
5	0x3df881d4	0.12134138
6	0x3e10dca7	0.14146672
7	0x3e05eff7	0.1307982
8	0x3de7af34	0.11312714
9	0x3de1407c	0.109986275
10	0x3df7c87a	0.12098785
11	0x3e12d2c2	0.1433821
12	0x3ddd4c82	0.10805608
13	0x3e0b1e35	0.13585742
14	0x3e0a01c3	0.13477235
15	0x3de5a9de	0.1121404
16	0x3decb956	0.115587875
17	0x3e1448a8	0.14480841
18	0x3df1230d	0.117742635
19	0x3e182b9a	0.14860383
20	0x3e057d79	0.13036145
21	0x3dd101c1	0.10205413
22	0x3ded65c3	0.11591675
23	0x3e067c5c	0.13133377
24	0x3e10b29f	0.14130639
25	0x3e35ca9f	0.17753075
26	0x3dc4323a	0.095798925
27	0x3e210081	0.15722848
28	0x3e25308e	0.16131803
29	0x3e1e64b9	0.1546811
30	0x3e0d57a5	0.13802965
31	0x3e17606f	0.1478288
32	0x3e1869fa	0.14884177
33	0x3e1e7cbd	0.15477271
34	0x3e4b1791	0.19833209
35	0x3e0bf571	0.13667847
36	0x3e25e405	0.16200264
37	0x3df640a4	0.12024048
38	0x3e2a7dba	0.16649523
39	0x3e34fccf	0.17674564
40	0x3e306039	0.17224206
41	0x3e1eb334	0.15498048
42	0x3de1190c	0.109911054
43	0x3e037ced	0.12840624
44	0x3dd44019	0.10363788
45	0x3e06dcab	0.13170116
46	0x3e01ca3b	0.12674801
47	0x3dd1abb7	0.1023783
48	0x3de98820	0.11402917
49	0x3e029cb0	0.12755084
50	0x3df1256b	0.11774715
51	0x3de6f0b6	0.11276381
52	0x3e14940b	0.14509599
53	0x3e1e2f65	0.15447767
54	0x3de88cca	0.113549784
55	0x3de4f343	0.11179211
56	0x3e0e85f4	0.13918287
57	0x3df8b269	0.12143404
58	0x3ddf0a2d	0.10890613
59	0x3e02e1b0	0.12781405
60	0x3ded2b8b	0.11580571
61	0x3e2a722b	0.16645114
62	0x3e1d4648	0.15358841
63	0x3dfd3c31	0.12364996
64	0x3e567398	0.20942533
65	0x3e18315e	0.14862582
66	0x3e21cc09	0.1580049
67	0x3e0cb1e7	0.1373974
68	0x3dd0a800	0.101882935
69	0x3e07720a	0.13227096
70	0x3e0426a6	0.12905368
71	0x3ddfe707	0.10932737
72	0x3e4b45d6	0.19850859
73	0x3e0c5647	0.13704787
74	0x3dd2d762	0.10294987
75	0x3e14fb36	0.14548954
76	0x3dfd3240	0.123631
77	0x3db5e5a8	0.08881694
78	0x3dcf6935	0.101274885
79	0x3e346759	0.17617549
80	0x3e553a38	0.2082299
81	0x3dc88992	0.097918645
82	0x3e317264	0.17328793
83	0x3df93aa6	0.121693894
84	0x3e0d926f	0.13825391
85	0x3e0e3822	0.138886
86	0x3e0592dc	0.13044304
87	0x3e176ab8	0.14786804
88	0x3e1e9934	0.1548813
89	0x3ddc80f0	0.107667804
90	0x3e05128b	0.12995355
91	0x3e395807	0.18099986
92	0x3e26d73e	0.16293046
93	0x3e0226ad	0.12710066
94	0x3df0eb38	0.117636144
95	0x3e2e3835	0.17013629
96	0x3dfb4707	0.12269407
97	0x3e1f6687	0.15566455
98	0x3dbaab58	0.091147125
99	0x3e22def1	0.15905358
100	0x3e1ddca1	0.15416194
101	0x3e185d6c	0.14879388
102	0x3e43d5b4	0.1912449
103	0x3e4a8eac	0.19780988
104	0x3defb56a	0.11704524
105	0x3e1708c2	0.14749435
106	0x3df2f9c9	0.11864049
107	0x3e366619	0.17812385
108	0x3e203130	0.15643764
109	0x3e073af9	0.1320609
110	0x3da9f35b	0.082983695
111	0x3e27c45f	0.16383503
112	0x3e13feb7	0.14452635
113	0x3e403f92	0.1877425
114	0x3dd01f10	0.10162175
115	0x3e147dda	0.14501134
116	0x3e006116	0.12537035
117	0x3dbf053b	0.093271695
118	0x3e029288	0.1275121
119	0x3e0885f7	0.13332354
120	0x3dfea9ed	0.124347545
121	0x3e336472	0.17518786
122	0x3e2afabe	0.16697213
123	0x3de56ee7	0.112027936
124	0x3e009fde	0.12560984
125	0x3e0faff8	0.1403197
126	0x3e0dbc96	0.13841471
127	0x3e1503b6	0.14552197
