wesad_baseline/src/checkpoints/old/baseline_cnn_1s.pt (torch, 665228 bytes, 48 tensors)

encoder.conv1.weight f4 [32, 8, 7]
0.058125485 0.1091094 -0.08284174 -0.10914703 -0.0149397245 -0.055063862 -0.024279423 -0.104815856
-0.058744267 -0.12295856 -0.06003736 -0.08293485 -0.13861305 -0.06439571 0.06138655 -0.102802224
0.13488008 -0.04167894 -0.09486958 0.02969928 0.0809052 0.071433395 0.07047337 -0.06422308
0.030764893 -0.11350834 -0.08224192 -0.057037704 0.039565116 -0.051195435 -0.074649565 -0.037162345
-0.022082621 0.08243751 0.070463896 0.12704459 0.13398457 0.024757147 0.09170738 -0.059554804
0.11870236 0.075745806 -0.019073071 -0.026578138 -0.10731897 0.080910265 0.04443861 -0.003492846
-0.032444656 0.036398854 0.017808238 0.08143958 0.10445051 -0.11737827 -0.06462545 -0.061641194
0.1184727 -0.09342021 -0.1259447 0.13088255 -0.04404656 0.11560187 -0.028567154 -0.007658636
-0.039190695 -0.088032365 -0.074442826 -0.102443025 0.08809177 0.11501907 -0.078857765 0.11099049
0.03665667 -0.028340181 -0.020859456 -0.11256511 -0.12062918 -0.0957147 -0.0010135088 0.09725553
0.08007322 -0.13132572 0.08356168 -0.06441404 -0.025377927 0.09732555 0.094043575 -0.050868616
-0.07329294 -0.0772159 0.06632803 0.042553697 0.07151713 -0.10825222 -0.09986854 0.09327914
-0.01545408 0.11237337 -0.0643647 0.054562952 0.088525034 0.15966181 0.082228996 0.00281212
0.18406406 -0.11723771 0.09032149 -0.043957856 -0.0724028 0.09394278 -0.033990614 0.08021011
-0.1025143 -0.06299039 -0.03140124 -0.013917232 -0.10764836 0.0034255174 -0.00033074227 -0.033458102
0.106374145 -0.02889183 -0.049155813 0.0736696 -0.020816209 -0.0021742408 -0.01727618 0.093946256
0.01009883 -0.08385707 0.047614347 0.03513766 -0.05689353 -0.0695135 0.015765714 0.035166834
0.020574888 -0.0023468386 -0.1118092 -0.111506045 0.016444588 -0.048720695 0.019616961 -0.06203648
-0.032492686 -0.00850098 -0.004981426 0.08840191 -0.034873847 -0.08901454 0.049154617 -0.10491571
-0.15837923 -0.12445036 -0.015279974 -0.03571839 0.038896095 -0.077388555 0.002897722 -0.09444505
-0.12255409 -0.0965156 -0.07930467 0.129011 0.027023219 -0.098369315 -0.021035034 0.09163677
0.039455183 -0.10262436 0.12590732 0.00020463925 -0.101873 0.14261329 0.05573217 -0.03273827
0.0042489786 0.07275495 0.028345777 -0.12304741 -0.037434753 0.0024807623 -0.032637928 0.08481243
0.10318112 0.105536416 -0.053515416 0.005730848 0.10373863 -0.074195944 -0.10046176 0.0040381392
0.040584415 0.07325927 0.06823857 0.051200043 0.103184246 0.018925482 0.005328131 -0.1304955
0.070280224 -0.055811256 0.020093765 -0.056246504 -0.06474308 -0.11232308 -0.06020174 -0.04126799
-0.12485067 -0.07275668 -0.078199536 0.017946316 0.11142031 0.1406353 0.1279172 -0.0130743105
0.024183141 0.016702518 -0.1068058 -0.046851203 -0.075250745 0.086532995 0.14703137 -0.028154472
-0.031015065 -0.083167516 0.07655907 -0.08017581 -0.0032586379 -0.07825522 -0.106447324 0.085560046
0.053509884 0.020473756 -0.009200311 0.1457919 0.037369896 0.060427733 0.01299812 -0.032224532
0.1334273 -0.0940679 0.021890795 0.030086843 -0.05822764 -0.027237734 0.09951293 -0.047099832
0.09975154 0.11897073 -0.03132454 -0.0174016 -0.05195591 -0.058262978 -0.00908432 -0.06364813
00000000: fd14 6e3d c074 df3d eea8 a9bd 7a88 dfbd
00000010: bfc5 74bc a58a 61bd a4e5 c6bc b2a9 d6bd
00000020: d49d 70bd b3d1 fbbd bce9 75bd bfd9 a9bd
00000030: 94f0 0dbe e6e1 83bd 7770 7b3d f989 d2bd
00000040: 011e 0a3e 89b7 2abd fb4a c2bd e84b f33c
00000050: a0b1 a53d ac4b 923d 5854 903d 6487 83bd
00000060: a806 fc3c 1077 e8bd 746e a8bd 5ea0 69bd
00000070: 080f 223d 4eb2 51bd dfe1 98bd 8b37 18bd
00000080: 9de6 b4bc ffd4 a83d 604f 903d fa17 023e
00000090: 4033 093e 80cf ca3c 14d1 bb3d bdef 73bd
000000a0: 391a f33d 9e20 9b3d 213f 9cbc 65ba d9bc
000000b0: 0cca dbbd 48b4 a53d 4305 363d 3be8 64bb
000000c0: b0e4 04bd f716 153d 95e2 913c cbc9 a63d
000000d0: 26ea d53d 0564 f0bd 595a 84bd 7a7b 7cbd
000000e0: d1a1 f23d 1853 bfbd a6f7 00be 1306 063e
000000f0: 2a6a 34bd acc0 ec3d aa05 eabc 4cf5 fabb
00000100: 6c86 20bd 504a b4bd 7b75 98bd a6cd d1bd
00000110: 7569 b43d 1e8f eb3d 2e80 a1bd fb4e e33d
00000120: 4e25 163d ab29 e8bc 73e1 aabc 8988 e6bd
00000130: 6e0c f7bd 1206 c4bd b6d7 84ba e82d c73d
00000140: 6efd a33d 407a 06be 6322 ab3d 82eb 83bd
00000150: 5fe5 cfbc 9e52 c73d eb99 c03d 9c5b 50bd
00000160: 9c1a 96bd 5f23 9ebd fdd6 873d c94c 2e3d
00000170: 9377 923d 57b3 ddbd e187 ccbd 2209 bf3d
00000180: 1c33 7dbc 0224 e63d a4d1 83bd 677d 5f3d
00000190: 9d4c b53d 637e 233e ad67 a83d 8b4b 383b
000001a0: 4a7b 3c3e 531a f0bd 79fa b83d 270d 34bd
000001b0: eb47 94bd 1265 c03d be39 0bbd 3345 a43d
000001c0: 04f3 d1bd 1b01 81bd 969e 00bd 1a05 64bc
000001d0: be76 dcbd a57e 603b 7a67 adb9 5d0b 09bd
000001e0: b0da d93d 8fae ecbc 9b57 49bd 16e0 963d
000001f0: c186 aabc b57d 0ebb c786 8dbc e566 c03d
00000200: 9075 253c 41bd abbd 4307 433d 82ec 0f3d
00000210: 3109 69bd 185d 8ebd 1927 813c 190b 103d
00000220: ab8c a83c 6bcd 19bb 39fc e4bd 485d e4bd
00000230: cdb6 863c 5a8f 47bd c0b3 a03c f719 7ebd
00000240: 0d17 05bd b247 0bbc 3b3b a3bb 100c b53d
00000250: e1d7 0ebd 414d b6bd 5a56 493d 0cde d6bd
00000260: 2a2e 22be d5df febd db58 7abc 724d 12bd
00000270: 8351 1f3d e47d 9ebd b5e7 3d3b 686c c1bd
00000280: a4fd fabd f9a9 c5bd 7d6a a2bd 761b 043e
00000290: cc5f dd3c da75 c9bd aa51 acbc 0fac bb3d
000002a0: c29b 213d b82c d2bd d9ed 003e 6e94 5639
000002b0: cba2 d0bd 3809 123e 6a47 643d 9018 06bd
000002c0: 043b 8b3b 8c00 953d 6735 e83c 4800 fcbd
000002d0: 2f55 19bd 4994 223b 59af 05bd 24b2 ad3d
000002e0: 9f50 d33d 7a23 d83d fb32 5bbd d6c9 bb3b
000002f0: eb74 d43d 0bf4 97bd e5be cdbd 5e52 843b
00000300: d83b 263d f508 963d aac0 8b3d 23b7 513d
00000310: 4352 d33d 9d09 9b3c 9a97 ae3b 9da0 05be
00000320: 14ef 8f3d 589a 64bd ae9b a43c bc62 66bd
00000330: 0598 84bd a509 e6bd 1a96 76bd a008 29bd
00000340: b5b1 ffbd 7401 95bd 1427 a0bd 2704 933c
00000350: 5530 e43d b302 103e bafc 023e a235 56bc
00000360: b91b c63c b8d3 883c 00bd dabd 0ce7 3fbd
00000370: 101d 9abd 3638 b13d 648f 163e 35a4 e6bc
00000380: 4e13 febc bb53 aabd 00cb 9c3d 3733 a4bd
00000390: df8e 55bb 4644 a0bd 0e01 dabd 1b3a af3d
000003a0: 2e2d 5b3d 94b8 a73c e7bc 16bc 794a 153e
000003b0: 2d11 193d 1283 773d 11f6 543c dffd 03bd
000003c0: 2ba1 083e aca6 c0bd 5354 b33c af78 f63c
000003d0: 1b80 6ebd ab21 dfbc 6fcd cb3d c1eb 40bd
000003e0: 894a cc3d eda6 f33d 294e 00bd cd8d 8ebc
000003f0: b8cf 54bd 29a5 6ebd 66d6 14bc f359 82bd

encoder.conv1.bias f4 [32]
9.31674e-05 -2.5122215e-05 1.2986749e-05 1.5566762e-05 6.269198e-06 -1.7675387e-05 -0.00012802007 -5.9930797e-05
5.6752877e-05 5.540479e-06 5.4942873e-05 -2.2917351e-05 1.51418935e-05 -1.0067899e-05 6.253705e-05 1.5602036e-05
-2.8520071e-05 -6.842447e-06 -7.628063e-05 -0.00021901906 -2.9392464e-05 4.0772586e-05 -2.8324022e-05 -0.00012753492
-3.4872428e-05 -4.5802426e-05 -4.920674e-05 7.728249e-06 4.382949e-05 -4.1882362e-05 1.9492862e-05 -6.2344254e-05
00000000: de62 c338 8cbd d2b7 aae1 5937 5e95 8237
00000010: 005c d236 9b45 94b7 203d 06b9 345e 7bb8
00000020: f009 6e38 5ae8 b936 7672 6638 a33e c0b7
00000030: f009 7e37 4ce9 28b7 5326 8338 1ee1 8237
00000040: 633e efb7 2c98 e5b6 daf8 9fb8 7ba8 65b9
00000050: d68f f6b7 3b03 2b38 6099 edb7 e5ba 05b9
00000060: fc43 12b8 fb1b 40b8 5663 4eb8 94a8 0137
00000070: 8ed5 3738 d8aa 2fb8 9a84 a337 d1be 82b8

encoder.bn1.weight f4 [32]
1.0097588 0.9942816 0.9722353 1.0074614 0.97614384 0.9870533 1.0407542 0.99403447
0.92878896 0.9816507 0.9986776 0.95465785 0.99311376 0.9235501 0.964549 0.9507662
1.0060291 0.97889936 1.0259635 0.99651533 0.9898843 0.98947096 0.97782725 1.0019041
1.0070975 1.0207427 1.0073854 0.9707187 0.9886815 0.9924971 0.8813305 1.0250688
00000000: c73f 813f 3d89 7e3f 6ae4 783f 7ff4 803f
00000010: 90e4 793f 86af 7c3f 6f37 853f 0b79 7e3f
00000020: 1dc5 6d3f 764d 7b3f 56a9 7f3f 7564 743f
00000030: b43c 7e3f c86d 6c3f afec 763f 6a65 733f
00000040: 90c5 803f 2699 7a3f c652 833f a11b 7f3f
00000050: 0f69 7d3f f84d 7d3f e352 7a3f 653e 803f
00000060: 92e8 803f b2a7 823f 01f2 803f 0581 783f
00000070: 3b1a 7d3f 4a14 7e3f e09e 613f 7435 833f

encoder.bn1.bias f4 [32]
-0.001552922 -0.036428403 -0.05911187 0.02454871 0.02138899 0.0060758158 -0.015341279 0.016909288
-0.06984393 -0.028400656 -0.030434873 -0.021101624 -0.015678031 0.015810411 -0.02825408 -0.01104217
0.013348101 -0.013542244 0.019183597 0.011241606 0.02650413 0.014048598 -0.052173976 0.017749352
0.029346433 0.010052965 -0.051184393 -0.24936095 -0.014397234 0.013254787 -0.059136573 -0.016253613
00000000: 6a8b cbba f335 15bd 4a1f 72bd 601a c93c
00000010: f737 af3c a317 c73b fd59 7bbc 5985 8a3c
00000020: 560a 8fbd 7ea8 e8bc 8e52 f9bc 50dd acbc
00000030: 376f 80bc d684 813c 1a75 e7bc 38ea 34bc
00000040: feb1 5a3c 4ae0 5dbc eb26 9d3c b72e 383c
00000050: 301f d93c 172c 663c 61b4 55bd 1767 913c
00000060: ee67 f03c 31b5 243c baa6 51bd 7a58 7fbe
00000070: 60e2 6bbc 9b2a 593c 3139 72bd 4c26 85bc

encoder.bn1.running_mean f4 [32]
-0.05925833 0.03642937 -0.026435409 -0.028747074 0.047257904 -0.023835458 0.053700943 0.0024765607
-0.00482022 -0.007408497 0.04416011 0.018118532 0.020664051 0.07174465 0.019918423 -0.01310731
0.024653234 0.059926033 -0.0005364518 -0.0017885691 0.027710028 0.030539868 -0.0012396128 0.05254763
-0.04191426 -0.070536524 0.016874783 -0.0027240913 0.0015191706 -0.010987168 -0.011252287 0.06507492
00000000: ddb8 72bd f736 153d 128f d8bc fc7e ebbc
00000010: 8191 413d 9442 c3bc 85f5 5b3d cb4d 223b
00000020: f0f2 9dbb fac2 f2bb 3be1 343d 516d 943c
00000030: a847 a93c dcee 923d f62b a33c 0bc0 56bc
00000040: 94f5 c93c 0075 753d aca0 0cba 6c6e eaba
00000050: 2400 e33c bf2e fa3c 817a a2ba 2f3c 573d
00000060: 49ae 2bbd 7475 90bd fc3c 8a3c ab86 32bb
00000070: e81e c73a 8603 34bc 835b 38bc 0046 853d

encoder.bn1.running_var f4 [32]
0.48534483 0.18966949 0.36744618 0.43569383 0.22425099 0.1808978 0.12344216 0.21541798
0.35744524 0.3959682 0.41171402 0.46513423 0.37602708 0.30379912 0.28092596 0.45199695
0.43831283 0.3048273 0.15925056 0.16108344 0.21501507 0.16539612 0.3033668 0.35546413
0.18246593 0.8374323 0.15380898 0.7823884 0.63355416 0.19770022 0.234096 0.2579552
00000000: 1e7f f83e b838 423e e821 bc3e 4313 df3e
00000010: 0da2 653e 463d 393e 3ecf fc3d 8896 5c3e
00000020: 1003 b73e 58bc ca3e 2ecc d23e 1326 ee3e
00000030: 9f86 c03e 8f8b 9b3e 87d5 8f3e 256c e73e
00000040: 8a6a e03e 5312 9c3e 9412 233e 0ff3 243e
00000050: e92c 5c3e 9a5d 293e e552 9b3e 65ff b53e
00000060: 59d8 3a3e f761 563f 1a80 1d3e 9b4a 483f
00000070: 9b30 223f ed71 4a3e ddb6 6f3e b412 843e

encoder.conv2.weight f4 [64, 32, 5]
0.05620245 -0.023219928 -0.009040316 0.005221258 0.026448788 0.09199693 -0.028702851 -0.03828874
-0.008775405 0.049704477 -0.08365439 0.00083080714 0.011831617 -0.04267667 0.009905465 -0.030071324
-0.053343754 -0.027794922 0.039561316 0.0423982 -0.00572913 0.011495751 -0.05422692 0.012375637
-0.073275164 0.01751284 -0.023251442 0.012489906 -0.08560177 0.05379654 0.07458123 -0.0134513825
0.09105442 0.085695684 0.034122545 -0.0008802457 -0.009500629 0.025231447 -0.017477587 -0.077318765
-0.055184633 -0.017875373 -0.01631037 0.044949695 -0.07884496 -0.016996283 -0.05679228 -0.04801673
-0.0073812925 -0.049235705 -0.012004264 -0.021210203 0.026337698 -0.034976777 0.05062004 -0.007688461
0.012034087 -0.032550566 0.022549903 -0.005786029 0.06463881 0.011063148 -0.0324343 0.020564033
0.097193666 0.03185096 0.008661381 -0.06729511 -0.001736436 0.009380419 -0.01865502 0.07552303
-0.06391218 -0.020684779 -0.0011230102 -0.029701293 -0.008901927 0.0028656137 0.04998202 0.044719238
0.021484781 0.0033299776 -0.023453753 -0.06738044 0.04677916 0.03077734 -0.042332496 0.05568057
-0.040468577 0.043819353 0.022531716 -0.04458348 -0.05001058 0.016490888 0.0058810106 -0.10953749
-0.091110446 -0.045252424 -0.07303776 -0.040437616 -0.024328854 -0.06179811 0.060982496 -0.04392988
0.0059941444 0.03420875 -0.030897893 0.030087002 -0.084030755 -0.019580498 -0.055686075 0.06870841
-0.052922163 0.06658078 -0.056351364 -0.054933574 0.07839341 0.0009792608 0.081669144 0.019023828
-0.113662295 -0.10731637 -0.07539438 -0.10696773 -0.00042036411 0.04316336 0.035032894 -0.065830246
0.043631855 0.0042230417 0.08177588 0.059386652 0.0013813468 -0.017839346 0.013682728 -0.04935519
-0.07876013 0.008081411 -0.0142226415 -0.112201884 -0.036821723 -0.012623461 0.026253264 0.013957764
-0.063404754 0.046884194 0.051684726 -0.022389602 0.045027856 0.046517577 0.04271709 -0.04970933
-0.05736369 -0.03784799 0.0044830656 -0.028198777 -0.03299021 0.09247122 -0.020905241 0.06308056
-0.04391755 0.020323562 0.018668776 -0.027517125 -0.023570746 0.005492857 -0.001433965 0.028111108
-0.03347442 -0.005278071 -0.073211834 0.023866417 -0.0069788555 -0.06531404 0.057427302 -0.0068406905
0.021356864 -0.06500575 0.06745835 0.0031921002 -0.06557607 0.008029159 0.011737948 0.027597953
-0.082506984 0.037642457 0.03380409 -0.063884966 0.04531243 0.05982377 -0.019073678 0.022370085
0.02950742 0.011059195 0.025849361 0.08993931 -0.061899986 -0.013658433 -0.042902496 -0.04227945
0.053696472 0.029923111 0.01095396 0.032775067 -0.01886856 0.0750976 -0.02992922 0.07234662
0.047284838 -0.06113877 0.072073355 0.035019644 0.04245374 0.005788156 -0.048422553 0.0071979165
-0.017067228 -0.010527468 -0.01855253 -0.064455464 -0.052057058 0.045389526 0.072059005 0.038706727
-0.05716211 -0.03425235 0.06257572 -0.039276414 -0.036986385 -0.06751118 0.07851438 0.0775601
-0.002693499 0.08852476 0.035570465 0.066499665 -0.0148353195 -0.018894138 -0.030412149 0.029998802
-0.025842814 0.050752223 -0.014645861 0.06442954 -0.016834319 -0.041813698 -0.12520407 -0.111775346
-0.091921136 -0.04243592 0.09660762 0.00021763866 0.054585986 0.06610186 0.049074315 -0.02419791
00000000: 8a34 663d b837 bebc d51d 14bc 1617 ab3b
00000010: 21ab d83c e368 bc3d 3e22 ebbc a7d4 1cbd
00000020: b7c6 0fbc ec96 4b3d fe52 abbd 86ca 593a
00000030: 66d9 413c bbcd 2ebd 884a 223c 2358 f6bc
00000040: fb7e 5abd 2db2 e3bc 0c0b 223d bca9 2d3d
00000050: 6dbb bbbb ad58 3c3c 0c1d 5ebd 2fc3 4a3c
00000060: 4a11 96bd 1677 8f3c cf79 bebc 76a2 4c3c
00000070: fb4f afbd c359 5c3d 0bbe 983d 3063 5cbc
00000080: bd7a ba3d 3881 af3d 15c4 0b3d 4ac0 66ba
00000090: 87a8 1bbc 2eb2 ce3c 282d 8fbc 4d59 9ebd
000000a0: 4809 62bd 606f 92bc 539d 85bc 2c1d 383d
000000b0: 7779 a1bd ca3b 8bbc 069f 68bd 31ad 44bd
000000c0: c5de f1bb 61ab 49bd 88ad 44bc 05c1 adbc
000000d0: 28c2 d73c cf43 0fbd f656 4f3d 7cef fbbb
000000e0: 9f2a 453c be53 05bd 93ba b83c bb98 bdbb
000000f0: 5a61 843d 3542 353c d4d9 04bd e775 a83c
00000100: 790d c73d 2776 023d 77e8 0d3c 05d2 89bd
00000110: 2099 e3ba 54b0 193c 6ad2 98bc d1ab 9a3d
00000120: 64e4 82bd 2073 a9bc f831 93ba 2050 f3bc
00000130: 63d9 11bc 05cd 3b3b f2b9 4c3d 852b 373d
00000140: da00 b03c c13b 5a3b 1622 c0bc c2fe 89bd
00000150: 819b 3f3d c320 fc3c d764 2dbd 4f11 643d
00000160: 61c2 25bd ec7b 333d 6f94 b83c 2b9d 36bd
00000170: e5d7 4cbd e617 873c 7eb5 c03b 3155 e0bd
00000180: 1d98 babd 9b5a 39bd d294 95bd eaa1 25bd
00000190: 4e4d c7bc 0420 7dbd c8c8 793d d1ef 33bd
000001a0: 876a c43b 791e 0c3d 941d fdbc 0479 f63c
000001b0: 5118 acbd 4867 a0bc 1517 64bd ffb6 8c3d
000001c0: e9c4 58bd 815b 883d b0d0 66bd 0702 61bd
000001d0: b98c a03d 8a5a 803a 2742 a73d dcd7 9b3c
000001e0: c7c7 e8bd afc8 dbbd 5e68 9abd e611 dbbd
000001f0: 5164 dcb9 10cc 303d a77e 0f3d 02d2 86bd
00000200: 51b7 323d 7161 8a3b 1d7a a73d 6b3f 733d
00000210: 4f0e b53a d223 92bc 852d 603c ab28 4abd
00000220: fe4c a1bd e567 043c 1506 69bc 1aca e5bd
00000230: 60d2 16bd a2d2 4ebc 1611 d73c 1baf 643c
00000240: 5ada 81bd a409 403d 5db3 533d 666a b7bc
00000250: 216f 383d 3789 3e3d 1ef8 2e3d 039c 4bbd
00000260: 30f6 6abd 7e06 1bbd aee6 923b 1f01 e7bc
00000270: be20 07bd 8d61 bd3d 7841 abbc 6130 813d
00000280: e4e2 33bd 997d a63c 43ef 983c 986b e1bc
00000290: 7017 c1bc 6dfd b33b e2f3 bbba 4449 e63c
000002a0: 791c 09bd abf3 acbb 16f0 95bd 8183 c33c
000002b0: e2ae e4bb 5ec3 85bd e438 6b3d df27 e0bb
000002c0: 97f4 ae3c bc21 85bd 9a27 8a3d 8e32 513b
000002d0: bf4c 86bd bc8c 033c 8650 403c 1a15 e23c
000002e0: 6cf9 a8bd fa2e 1a3d 2876 0a3d 1fd6 82bd
000002f0: 8799 393d c509 753d 6740 9cbc 7841 b73c
00000300: 8bb9 f13c a031 353c 0ac2 d33c 1a32 b83d
00000310: d78a 7dbd 9fc7 5fbc 87ba 2fbd 372d 2dbd
00000320: d5f0 5b3d 5021 f53c 3d78 333c 263f 063d
00000330: 3d92 9abc c5cc 993d 202e f5bc 772a 943d
00000340: bfad 413d a66c 7abd 329b 933d c270 0f3d
00000350: f9e3 2d3d 92aa bd3b ba56 46bd 80dc eb3b
00000360: 92d0 8bbc 677b 2cbc 7afb 97bc 3a01 84bd
00000370: c839 55bd 5eea 393d ac93 933d f28a 1e3d
00000380: d122 6abd 314c 0cbd b327 803d 4ee0 20bd
00000390: 097f 17bd 4d43 8abd 26cc a03d d4d7 9e3d
000003a0: 6a85 30bb 784c b53d 56b2 113d fa30 883d
000003b0: d70f 73bc e1c7 9abc e622 f9bc 0cc0 f53c
000003c0: 4fb4 d3bc 90e1 4f3d 32f5 6fbc a2f3 833d
000003d0: 20e8 89bc d744 2bbd 7f35 00be 79ea e4bd
000003e0: 2641 bcbd 4ad1 2dbd 37da c53d ef35 6439
000003f0: 8e95 5f3d 6960 873d 2602 493d b23a c6bc

encoder.conv2.bias f4 [64]
9.331412e-06 9.374568e-05 -2.3438697e-05 5.7315716e-05 -3.8547245e-05 -6.250833e-05 -4.696543e-05 -1.497152e-06
-2.2891686e-06 -4.217925e-05 5.3714903e-05 -3.4268454e-05 -1.2909144e-05 -2.1991473e-05 -1.0363278e-06 -5.615499e-06
2.0368527e-05 4.9753853e-06 2.4693572e-05 -2.451753e-05 -4.1204858e-05 4.74523e-05 -4.2746833e-06 0.00012657043
3.921218e-06 -3.738174e-05 -9.4991774e-05 -2.1540682e-05 4.5014534e-05 -3.280144e-05 -3.1531483e-05 -1.20906225e-05
-1.2438197e-05 -8.493446e-06 2.1042779e-06 -1.7734294e-05 -1.7780803e-05 -1.8315935e-05 -8.419126e-06 0.000156988
-1.7953163e-05 -1.1173746e-05 -5.2467134e-05 1.6339582e-05 3.749555e-05 -1.642438e-05 -2.6704889e-05 -7.257199e-07
-4.3527296e-05 -1.8598548e-05 -2.2185133e-05 -2.9809577e-05 -4.1651714e-05 9.152763e-06 -4.1049017e-05 2.03639e-05
-0.00010113037 -6.1369494e-05 -8.659413e-05 -1.1838213e-05 6.6806515e-06 1.8943785e-05 -9.120389e-06 9.822169e-06
00000000: 1c8e 1c37 5499 c438 389e c4b7 4866 7038
00000010: caad 21b8 e716 83b8 bffc 44b8 c0f1 c8b5
00000020: 9e9f 19b6 a0e9 30b8 f04b 6138 79bb 0fb8
00000030: 5a94 58b7 547a b8b7 f417 8bb5 c56c bcb6
00000040: 14dd aa37 3cf2 a636 0b25 cf37 ffaa cdb7
00000050: 61d3 2cb8 8507 4738 406f 8fb6 feb7 0439
00000060: 0293 8336 56ca 1cb8 5236 c7b8 43b2 b4b7
00000070: fdcd 3c38 4794 09b8 ac40 04b8 d4d8 4ab7
00000080: a6ad 50b7 137f 0eb7 3837 0d36 1bc4 94b7
00000090: fc27 95b7 2ca5 99b7 df3f 0db7 259d 2439
000000a0: 209a 96b7 e076 3bb7 2810 5cb8 fc10 8937
000000b0: 8a44 1d38 16c7 89b7 5004 e0b7 17cf 42b5
000000c0: 1491 36b8 1404 9cb7 361a bab7 940f fab7
000000d0: 30b3 2eb8 d18e 1937 0c2c 2cb8 24d3 aa37
000000e0: f415 d4b8 7fb3 80b8 df99 b5b8 bd9c 46b7
000000f0: 5c2a e036 78e9 9e37 c603 19b7 e5c9 2437

encoder.bn2.weight f4 [64]
0.991874 0.95053804 1.0165172 0.9740238 0.98747635 0.9642553 0.9686617 0.9758668
0.98243177 1.0245914 0.98220634 0.95083594 0.9347192 0.999155 0.9771858 0.9158673
0.9455229 0.9671734 0.9852496 0.9919657 1.0014589 0.97999007 1.0150602 0.9821985
0.9943092 0.9878074 0.98676395 0.9554304 0.97549427 0.9582938 0.9929919 0.92302567
0.9759663 0.94980687 0.97012967 0.9348443 0.9064445 0.98994654 0.99484956 1.0242096
0.98212343 0.9279565 0.9892299 0.9823841 0.9803575 0.9912678 0.96943825 0.9729178
0.9991847 0.96827227 0.95088357 0.97674847 0.97226244 1.0022274 0.9695383 0.946477
0.98205215 0.9956404 1.0012177 0.95302266 0.9531862 0.9537632 0.9969925 1.0038097
00000000: 74eb 7d3f 7656 733f 3c1d 823f a059 793f
00000010: 40cb 7c3f 6fd9 763f 37fa 773f 68d2 793f
00000020: a680 7b3f d025 833f e071 7b3f fc69 733f
00000030: c249 6f3f 9fc8 7f3f d928 7a3f 4876 6a3f
00000040: ca0d 723f ad98 773f 5139 7c3f 77f1 7d3f
00000050: ce2f 803f a1e0 7a3f 7eed 813f 5c71 7b3f
00000060: 0c8b 7e3f f2e0 7c3f 909c 7c3f 1697 743f
00000070: feb9 793f be52 753f b834 7e3f 694b 6c3f
00000080: edd8 793f 8b26 733f 6b5a 783f f551 6f3f
00000090: bf0c 683f 236d 7d3f 76ae 7e3f 4d19 833f
000000a0: 716c 7b3f 8f8e 6d3f 2c3e 7d3f 867d 7b3f
000000b0: b6f8 7a3f bac3 7d3f 1b2d 783f 2411 793f
000000c0: 92ca 7f3f b1e0 773f 1b6d 733f 300c 7a3f
000000d0: 31e6 783f fd48 803f a933 783f 514c 723f
000000e0: c567 7b3f 4ae2 7e3f e727 803f 4bf9 733f
000000f0: 0304 743f d329 743f e73a 7f3f d67c 803f

encoder.bn2.bias f4 [64]
0.0011411248 -0.045612108 -0.0007080663 -0.04760262 -0.003808491 0.012561217 -0.0119201215 -0.018635334
-0.040394742 -0.02195702 -0.012693802 -0.035252865 -0.030467093 -0.023915997 -0.0482785 -0.06468523
-0.040956885 -0.019955281 -0.018255478 0.020714583 -0.04407906 0.016508779 0.018531686 -0.026332535
-0.001940402 -0.06367959 -0.053339947 -0.0004525693 -0.03361347 -0.025968932 -0.0023651596 -0.045055825
-0.06358032 -0.05238601 -0.026754756 -0.01640264 0.004978291 -0.050777532 -0.021176487 -0.00021815866
-0.016335197 -0.06472604 -0.03200709 -0.017467296 -0.0071590543 -0.044363067 -0.035785016 0.0011914867
-0.014201048 -0.02044216 -0.018170128 -0.011388075 0.0014625521 -0.035498668 -0.015124184 -0.00635432
0.004367228 -0.04167821 -0.018400922 -0.023913955 -0.025625804 -0.03206699 -0.013165864 -0.023553787
00000000: cb91 953a c3d3 3abd 869d 39ba f7fa 42bd
00000010: e097 79bb 90cd 4d3c 9d4c 43bc 21a9 98bc
00000020: f574 25bd 35df b3bc aaf9 4fbc 4f65 10bd
00000030: 2096 f9bc 7beb c3bc adbf 45bd b179 84bd
00000040: 68c2 27bd 4279 a3bc 838c 95bc a1b1 a93c
00000050: 3f8c 34bd 6b3d 873c c3cf 973c 54b7 d7bc
00000060: 1655 feba 726a 82bd fd7a 5abd d346 edb9
00000070: 47ae 09bd ccbc d4bc cb00 1bbb 758c 38bd
00000080: 6636 82bd b692 56bd ca2c dbbc d45e 86bc
00000090: ef20 a33b 1afc 4fbd 507a adbc 85c1 64b9
000000a0: 64d1 85bc 168f 84bd de19 03bd 9317 8fbc
000000b0: 8096 eabb 0cb6 35bd 4f93 12bd a92b 9c3a
000000c0: 83ab 68bc 5176 a7bc 85d9 94bc 0c95 3abc
000000d0: 1bb3 bf3a 0d67 11bd 6dcb 77bc e637 d0bb
000000e0: f71a 8f3b c5b6 2abd 88bd 96bc 33e7 c3bc
000000f0: 35ed d1bc ad58 03bd a3b5 57bc dff3 c0bc

encoder.bn2.running_mean f4 [64]
-0.25761625 -0.21627106 0.72631294 -0.8082736 -0.8754215 -0.62946826 0.61556685 -0.067144364
0.013035622 0.0659976 -0.18349412 -0.049951803 -0.16032757 -0.3893181 0.8586298 -0.53433204
-0.2009679 -0.7266261 0.12846243 -0.15722167 0.20220312 -0.84535795 -0.43594706 0.24514832
0.73954374 -0.19620167 0.01829123 -0.48182118 -0.12444591 -0.40661648 0.66477007 -0.78766966
-0.33024332 -0.24087414 -0.14827181 -0.2181276 -0.5651345 -0.24707894 0.45957884 -0.44662514
-0.36905527 -0.59955025 0.37529954 0.25305855 0.27532357 -0.41544843 -0.25363734 -0.5516611
-0.2397078 0.7137556 -0.0980762 0.2984715 0.756337 -0.19521311 -0.4782966 -0.15431614
0.12787564 0.22914091 -0.6205836 -0.2632069 0.39987054 0.064348854 -0.06185949 -0.4029586
00000000: 47e6 83be 2976 5dbe a5ef 393f 05eb 4ebf
00000010: a01b 60bf d524 21bf ca95 1d3f fc82 89bd
00000020: 5d93 553c c029 873d e2e5 3bbe 439a 4cbd
00000030: e92c 24be b454 c7be 2acf 5b3f fcc9 08bf
00000040: 87ca 4dbe 2b04 3abf a88b 033e b8fe 20be
00000050: 560e 4f3e 6169 58bf 7434 dfbe 2908 7b3e
00000060: bd52 3d3f 17e9 48be 7dd7 953c 44b1 f6be
00000070: 7fdd febd 0930 d0be 5f2e 2a3f b8a4 49bf
00000080: a715 a9be b6a7 76be 91d4 17be d75c 5fbe
00000090: a8ac 10bf 4302 7dbe eb4d eb3e 0dac e4be
000000a0: d0f4 bcbe 207c 19bf 4327 c03e e490 813e
000000b0: 36f7 8c3e a8b5 d4be c1dc 81be a939 0dbf
000000c0: f675 75be b0b8 363f 2ddc c8bd 42d1 983e
000000d0: 4d9f 413f f2e5 47be 4be3 f4be 0d05 1ebe
000000e0: d5f1 023e eaa3 6a3e 91de 1ebf 0ec3 86be
000000f0: d5bb cc3e 55c9 833d 6060 7dbd 9750 cebe

encoder.bn2.running_var f4 [64]
0.39842477 0.20239599 0.17278315 0.17012395 0.21175553 0.13223964 0.13779657 0.1938676
0.1847909 0.16987304 0.11429626 0.14892288 0.10193443 0.15921971 0.22908756 0.12464789
0.21632566 0.32510048 0.14880896 0.23608497 0.15188861 0.22432722 0.28969848 0.15680628
0.27719355 0.08008967 0.107721865 0.40039638 0.20155272 0.16258092 0.26295835 0.27991146
0.2019762 0.21003564 0.085075304 0.123360835 0.38368487 0.06445182 0.19974473 0.09817958
0.17570874 0.14119802 0.091943584 0.26454616 0.16763027 0.083628885 0.1408811 0.31605387
0.2317258 0.25487128 0.24472493 0.14706278 0.20942448 0.20165384 0.15923125 0.337838
0.2643715 0.19601327 0.1075011 0.26113817 0.18924867 0.23992604 0.110044755 0.25881183
00000000: 55fe cb3e e540 4f3e 11ee 303e f934 2e3e
00000010: 71d6 583e d469 073e 8b1a 0d3e 3a85 463e
00000020: d339 3d3e 33f3 2d3e 2814 ea3d 3d7f 183e
00000030: 00c3 d03d 7e0a 233e ee95 6a3e 6547 ff3d
00000040: 7984 5d3e 9273 a63e 6061 183e 42c0 713e
00000050: b088 1b3e 09b6 653e 5c53 943e d391 203e
00000060: 50ec 8d3e 0e06 a43d 489d dc3d c100 cd3e
00000070: d663 4e3e 9d7b 263e 7aa2 863e 8e50 8f3e
00000080: d9d2 4e3e 9513 573e f63b ae3d 9ba4 fc3d
00000090: 5872 c43e 51ff 833d e289 4c3e 6012 c93d
000000a0: feec 333e 3796 103e eb4c bc3d 9872 873e
000000b0: 45a7 2b3e 9f45 ab3d 2343 103e d0d1 a13e
000000c0: 8749 6d3e 7d7e 823e 2c99 7a3e a097 163e
000000d0: 5f73 563e 587e 4e3e 840d 233e 1af9 ac3e
000000e0: b45b 873e b4b7 483e 8929 dc3d e7b3 853e
000000f0: 67ca 413e 2caf 753e 255f e13d fc82 843e

encoder.conv3.weight f4 [128, 64, 5]
-0.034790613 0.05143967 -0.010639051 -0.026195494 0.038116146 0.025434956 -0.0022050617 -0.0004917228
0.025962144 0.021618217 0.05251288 -0.026294068 0.030577378 0.035849895 0.0564966 0.01091482
0.0007386171 -0.010439232 -0.009064263 0.024732191 -0.05385049 -0.0656912 -0.07357646 -0.07056853
-0.034715388 -0.018888645 0.02854399 -0.039967418 0.009068306 -0.014812757 0.011951535 -0.020801242
-0.052426793 -0.045611773 0.013534678 0.0024862026 0.0054461914 -0.030270107 -0.012880389 -0.0063856267
0.053385887 0.022391088 -0.0400438 0.05628949 0.049629837 -0.060731325 -0.060815003 -0.012873946
-0.023952436 0.03680851 -0.049356066 -0.057469632 -0.03274833 0.022538463 -0.009005036 0.026515165
0.013332611 -0.03389083 0.015265301 0.039651293 -0.004107979 -0.021086667 0.0514606 0.031443022
-0.043864712 -0.0053816144 -0.026234506 -0.029742727 0.026035603 -0.051089104 -0.042824376 0.017007539
0.051989507 -0.038242497 0.014686855 0.044569194 0.007590146 0.037704065 0.01767744 0.0038612005
-0.009938573 0.038374476 0.03573428 0.047915075 -0.004429382 0.026146848 -0.02638398 -0.004459607
0.039202206 0.02612659 0.020188617 -0.018879354 -0.045655344 -0.009506937 -0.01170425 -0.021156847
0.0018691595 -0.07522615 -0.037086196 -0.01851107 -0.017525185 0.04015223 0.01194762 0.040549085
0.037529834 0.07969719 0.016915653 0.06379154 0.0023222317 0.0060825124 0.032918 0.033999775
0.0066226963 0.041456714 -0.010967559 -0.0030833732 0.005436681 0.0018866914 -0.0031177455 0.043774348
-0.016671391 -0.016933855 -0.0090330755 0.03846153 -0.008610454 0.036334682 -0.046595328 0.035930924
0.01147458 0.037275642 0.015175763 -0.035437595 0.022759315 -0.0298698 -0.0031700681 -0.0031405939
-0.047417115 0.002841221 0.015105129 0.04341215 0.0003937899 -0.042321347 0.046857685 0.0082720565
-0.00037177457 0.009462557 0.03151647 -0.039576784 0.03932812 0.012193487 -0.03066847 -0.037234616
-0.021460151 0.008758743 -0.027684478 0.049721353 0.04026764 0.046710256 -0.031135801 0.05415931
-0.024450436 0.00045602498 -0.02582968 -0.048866317 -0.046889435 0.028252302 -0.012920884 0.04539703
0.006055513 0.009621931 -0.0031342462 -0.020801615 -0.009357296 -0.0091967285 0.04410709 0.011658307
-0.032120463 0.01008575 -0.040946312 0.0073408424 0.0069182287 -0.048205998 -0.019051865 0.03437599
0.0030019197 0.018053832 -0.014022574 -0.059772216 0.028163489 0.020279003 -0.018121434 0.0023336418
0.03775949 0.039283216 -0.013522985 0.012140409 -0.01199357 -0.050849676 -0.059435874 -0.047901236
0.0115890615 -0.033754136 -0.032877415 0.034321655 0.012922445 -0.039074812 0.047378477 -0.054061133
-0.012148593 0.02608658 0.022865118 0.02669975 -0.01724904 0.0061707743 -0.05308483 0.013755529
-0.027357012 0.03442512 -0.011166203 0.039110906 -0.046752065 -0.047005307 0.001527134 -0.0014948604
-0.0064518643 -0.023652554 -0.068808384 -0.058258187 0.002128242 0.0054051415 0.06314303 0.010838827
0.04786131 0.010773775 0.044090312 -0.017784264 0.013528249 0.04725188 -0.032625843 -0.03306411
0.03458123 0.008834529 -0.007875676 -0.025323838 0.04326742 -0.007099972 -0.03431018 -0.06293646
-0.030770225 0.022977142 -5.5193595e-05 -0.067068584 -0.05413284 -0.04113568 0.014151694 0.033082616
00000000: 9a80 0ebd 67b2 523d 6a4f 2ebc ef97 d6bc
00000010: ad1f 1c3d f85c d03c cc82 10bb f5e6 00ba
00000020: 90ae d43c b018 b13c bf17 573d a866 d7bc
00000030: 697d fa3c 57d7 123d fb68 673d 13d4 323c
00000040: c19f 413a 5009 2bbc 4682 14bc 2a9b ca3c
00000050: 5592 5cbd 1c89 86bd 41af 96bd 3c86 90bd
00000060: b931 0ebd 5cbc 9abc 16d5 e93c e0b4 23bd
00000070: 3b93 143c 35b1 72bc 5fd0 433c 5e67 aabc
00000080: 7abd 56bd 69d3 3abd 8ec0 5d3c 8fef 223b
00000090: f775 b23b 04f9 f7bc 4408 53bc 853e d1bb
000000a0: 29ab 5a3d 846d b73c f804 24bd cf8f 663d
000000b0: a848 4b3d 69c1 78bd 2719 79bd 3eed 52bc
000000c0: e637 c4bc 85c4 163d 9629 4abd 4765 6bbd
000000d0: 1d23 06bd 95a2 b83c dc89 13bc 5536 d93c
000000e0: 0671 5a3c 1cd1 0abd 501b 7a3c 6569 223d
000000f0: 3a9c 86bb f2bd acbc 5ac8 523d 66ca 003d
00000100: 7cab 33bd 4158 b0bb bfe9 d6bc 05a7 f3bc
00000110: 9e48 d53c cf42 51bd 9d68 2fbd 6553 8b3c
00000120: f3f2 543d 2aa4 1cbd 22a1 703c 308e 363d
00000130: c2b6 f83b 946f 1a3d 47d0 903c 320c 7d3b
00000140: 66d5 22bc 8e2e 1d3d 1c5e 123d 9942 443d
00000150: 5924 91bb ea31 d63c 3723 d8bc e521 92bb
00000160: 7e92 203d 6e07 d63c 9962 a53c e0a8 9abc
00000170: 1901 3bbd fcc2 1bbc 2fc3 3fbc 2051 adbc
00000180: 96fe f43a 2b10 9abd b2e7 17bd 87a4 97bc
00000190: fa90 8fbc aa76 243d f3bf 433c cc16 263d
000001a0: e2b8 193d 4838 a33d b292 8a3c 24a5 823d
000001b0: 9530 183b d04f c73b 06d5 063d 5943 0b3d
000001c0: 3403 d93b 84ce 293d 47b1 33bc 6b12 4abb
000001d0: 3026 b23b dc4a f73a 1753 4cbb bb4c 333d
000001e0: 7192 88bc deb8 8abc 77ff 13bc d689 1d3d
000001f0: dd12 0dbc add3 143d beda 3ebd 4e2c 133d
00000200: e0ff 3b3c 58ae 183d c3a3 783c 0327 11bd
00000210: be71 ba3c 83b1 f4bc ebc0 4fbb 6cd2 4dbb
00000220: 7338 42bd c733 3a3b 817b 773c f0d0 313d
00000230: 9675 ce39 2659 2dbd d8ed 3f3d 8587 073c
00000240: bdea c2b9 d708 1b3c 6a17 013d 441b 22bd
00000250: 8616 213d 31c7 473c 713c fbbc 5383 18bd
00000260: 33cd afbc d580 0f3c 8fca e2bc 9ea8 4b3d
00000270: aeef 243d 4153 3f3d 8210 ffbc 27d6 5d3d
00000280: 484c c8bc a316 ef39 c498 d3bc 0c28 48bd
00000290: 230f 40bd 5f71 e73c 1eb2 53bc 3cf2 393d
000002a0: 536d c63b 4ea5 1d3c ed67 4dbb 2668 aabc
000002b0: 584f 19bc e0ad 16bc a3a9 343d 7c02 3f3c
000002c0: bf90 03bd b43e 253c 52b7 27bd 738b f03b
000002d0: 4fb2 e23b a773 45bd a812 9cbc d7cd 0c3d
000002e0: dbbb 443b a1e5 933c f0be 65bc b6d3 74bd
000002f0: 1eb7 e63c 2720 a63c 6773 94bc 03f0 183b
00000300: b2a9 1a3d 70e7 203d 838f 5dbc 91e8 463c
00000310: ae80 44bc c047 50bd 0873 73bd 1634 44bd
00000320: 0ce0 3d3c c741 0abd 78aa 06bd dd94 0c3d
00000330: aab8 533c e90c 20bd ef0f 423d 356f 5dbd
00000340: e40a 47bc 86b3 d53c a14f bb3c 6fb9 da3c
00000350: dc4d 8dbc 3534 ca3b 7b6f 59bd df5e 613c
00000360: d01b e0bc 5b01 0d3d 73f2 36bc c232 203d
00000370: 187f 3fbd a388 40bd 1d2a c83a 31ef c3ba
00000380: 296a d3bb 00c3 c1bc 69eb 8cbd 23a0 6ebd
00000390: fa79 0b3b 9d1d b13b 2251 813d 5695 313c
000003a0: 390a 443d 7d84 303c 0b98 343d 4eb0 91bc
000003b0: 97a5 5d3c 308b 413d ada2 05bd 3b6e 07bd
000003c0: 0ca5 0d3d b3be 103c fb08 01bc f073 cfbc
000003d0: 2e39 313d e2a6 e8bb d588 0cbd d5e4 80bd
000003e0: d711 fcbc 8f3a bc3c ac7f 67b8 415b 89bd
000003f0: 66ba 5dbd e37d 28bd 82dc 673c a381 073d

encoder.conv3.bias f4 [128]
-2.9926323e-06 9.645938e-06 8.118326e-06 -3.7052055e-06 -6.344655e-06 -1.7346978e-05 -3.7427135e-06 8.110597e-06
4.1094277e-06 -5.3531057e-06 -3.3675396e-06 1.4759276e-05 -2.803612e-06 -1.7415839e-06 -1.4901437e-06 -2.494894e-06
2.2989293e-06 2.3579314e-06 1.709509e-06 3.779967e-06 8.5507845e-06 -3.8350486e-06 8.574237e-06 4.8246748e-06
-4.697773e-06 -1.125323e-06 2.38113e-06 -3.2827784e-06 -3.3847211e-06 3.2715698e-06 2.383212e-05 1.1357256e-05
-1.1288034e-06 -2.9478967e-06 -2.1053682e-05 1.7922808e-05 -3.379107e-06 -8.226298e-06 3.7969958e-06 4.48518e-06
7.56713e-07 3.0260326e-06 -6.1606283e-06 -2.6000507e-06 1.0714234e-05 2.0232608e-05 -1.8370823e-06 7.3367073e-06
-9.285566e-06 5.1977727e-06 -1.536618e-06 7.612087e-06 6.2128393e-06 -8.0451955e-06 -3.6326816e-07 -8.400888e-06
-4.504879e-06 -1.0741196e-05 4.9938208e-06 -1.0267668e-05 2.4038036e-06 -3.1685963e-06 1.8807241e-06 -1.0832136e-05
-1.1736099e-06 -2.075041e-05 -6.3818616e-06 2.6360808e-06 -1.4613897e-05 -5.8623527e-06 9.096555e-06 -2.2655017e-06
5.6179306e-07 3.0343667e-06 -2.3670339e-07 -2.924997e-06 3.979778e-06 7.258317e-06 5.27265e-06 3.5774048e-07
5.754533e-06 -4.762148e-06 5.1443235e-06 1.0927147e-05 -6.0251896e-06 -6.7786405e-06 -9.835365e-06 1.4397991e-06
2.3167645e-06 1.3979299e-05 9.405039e-06 4.078917e-06 1.5992972e-06 5.3015747e-06 -1.6187809e-05 -2.5851807e-06
4.2582415e-06 -1.5002186e-06 -2.6008067e-05 1.4485973e-05 1.9247393e-06 2.585232e-07 9.28991e-06 -2.8232462e-06
1.2374536e-06 2.0700004e-06 5.5821783e-06 -4.4502867e-06 -2.0484151e-06 3.6921772e-06 1.8162485e-06 -8.508905e-06
-8.256195e-06 4.539236e-06 8.640372e-06 9.688454e-06 -8.313502e-06 6.906209e-06 5.6103863e-06 3.823528e-06
7.3837614e-06 2.1794662e-05 1.05500476e-07 3.7389323e-06 1.0438321e-06 4.0342056e-06 3.0781202e-06 1.9329824e-05
00000000: 08d5 48b6 fdd4 2137 f233 0837 f2a6 78b6
00000010: 2ce4 d4b6 5a84 91b7 542b 7bb6 c012 0837
00000020: b7e3 8936 d49e b3b6 e4fd 61b6 9c9e 7737
00000030: b025 3cb6 5ec0 e9b5 f300 c8b5 f46d 27b6
00000040: 4e47 1a36 f43c 1e36 4872 e535 57ab 7d36
00000050: 5775 0f37 d1ae 80b6 11da 0f37 a4e3 a136
00000060: 90a1 9db6 ce09 97b5 80cb 1f36 b44d 5cb6
00000070: 1125 63b6 248d 5b36 17eb c737 0b8b 3e37
00000080: 6481 97b5 7bd4 45b6 709c b0b7 f058 9637
00000090: 9ec4 62b6 ae03 0ab7 e4cf 7e36 677f 9636
000000a0: ec20 4b35 d812 4b36 65b7 ceb6 887c 2eb6
000000b0: 49c1 3337 32b9 a937 ab91 f6b5 d62d f636
000000c0: 34c9 1bb7 8768 ae36 cb3d ceb5 546b ff36
000000d0: e277 d036 daf9 06b7 3207 c3b4 8af1 0cb7
000000e0: 9e28 97b6 1635 34b7 9890 a736 4c43 2cb7
000000f0: 0851 2136 12a4 54b6 306d fc35 abbb 35b7
00000100: ee84 9db5 2b11 aeb7 c623 d6b6 86e7 3036
00000110: 362e 75b7 3ab5 c4b6 689d 1837 0609 18b6
00000120: 20ce 1635 06a2 4b36 8828 7eb4 114b 44b6
00000130: 088a 8536 788c f336 b8eb b036 7a0f c034
00000140: 1017 c136 8aca 9fb6 679d ac36 bd53 3737
00000150: fc2b cab6 1474 e3b6 9202 25b7 1f3f c135
00000160: b679 1b36 a288 6a37 56ca 1d37 a1dd 8836
00000170: 6fa7 d635 2ee4 b136 0ecb 87b7 117d 2db6
00000180: 04e2 8e36 1e5b c9b5 e62b dab7 c808 7337
00000190: c52a 0136 28cb 8a34 dcdb 1b37 0077 3db6
000001a0: 9516 a635 56ea 0a36 8c4e bb36 ac53 95b6
000001b0: 8177 09b6 1fc7 7736 d3c5 f335 78c1 0eb7
000001c0: 1684 0ab7 be4f 9836 1df6 1037 988b 2237
000001d0: 387a 0bb7 e2bb e736 da40 bc36 db4b 8036
000001e0: 07c2 f736 aed3 b637 808f e233 5eea 7a36
000001f0: cc19 8c35 905d 8736 b491 4e36 7b26 a237

encoder.bn3.weight f4 [128]
1.0922557 1.092773 1.0424455 1.0876964 1.091401 1.1065017 1.0816637 1.1157991
1.0585904 1.1536379 1.058363 1.0654749 1.0712652 1.0922697 1.1022676 1.0845656
1.1132463 1.0938698 1.0894758 1.0852679 1.1124513 1.064594 1.088773 1.0646957
1.0537534 1.0612364 1.0837212 1.102724 1.0636611 1.0670642 1.0854124 1.0776813
1.1428536 1.0911587 1.1114985 1.0859537 1.0212109 1.0809734 1.1016508 1.0132432
1.1226771 1.0450379 1.0818971 1.0825338 1.0435325 1.1025395 1.1868519 1.1323686
1.0432726 1.0943093 1.1182446 1.113379 1.0591252 1.093022 1.1498034 1.0901716
1.1046845 1.0946912 1.0609826 1.0692308 1.0773841 1.0588827 1.1288921 1.0878935
0.99518573 1.0565323 1.1211942 1.102329 1.1379278 1.0943823 1.0579778 1.1044046
1.0436193 1.0514203 1.0368843 1.1552687 1.1047548 1.1374102 1.05643 1.0255893
1.062381 1.0809782 1.0832703 1.0891263 1.1116467 1.0426593 1.0862253 1.161829
1.0504185 1.0637966 1.0918103 1.0853437 1.1145319 1.1160854 1.0635074 1.122639
1.0431002 1.0390396 1.1559337 1.1163379 1.0724692 1.0446721 1.0871156 1.0691836
1.0927167 1.0523041 1.0919406 1.0819644 1.0790504 1.0929414 1.0953708 1.0203345
1.0799322 1.0512103 1.0837575 1.1303555 1.145166 1.0817194 1.073017 1.0812855
1.0894421 1.107148 1.1066964 1.0895125 1.0957831 1.0631697 1.1049988 1.0689216
00000000: 09cf 8b3f fcdf 8b3f db6e 853f a339 8b3f
00000010: 07b3 8b3f d9a1 8d3f f573 8a3f 81d2 8e3f
00000020: e47f 873f 68aa 933f 7078 873f 7b61 883f
00000030: 381f 893f 7ecf 8b3f 1b17 8d3f 0cd3 8a3f
00000040: db7e 8e3f ed03 8c3f f173 8b3f 0fea 8a3f
00000050: ce64 8e3f 9e44 883f ea5c 8b3f f347 883f
00000060: 64e1 863f 98d6 873f 60b7 8a3f 0f26 8d3f
00000070: 0c26 883f 8f95 883f cbee 8a3f 76f1 893f
00000080: 0749 923f 17ab 8b3f 9545 8e3f 8800 8b3f
00000090: 0ab7 823f 565d 8a3f e502 8d3f f4b1 813f
000000a0: e2b3 8f3f cdc3 853f 9b7b 8a3f 7890 8a3f
000000b0: 7992 853f 0420 8d3f c3ea 973f 74f1 903f
000000c0: f589 853f 5412 8c3f a422 8f3f 3483 8e3f
000000d0: 6a91 873f 25e8 8b3f c22c 933f be8a 8b3f
000000e0: 4d66 8d3f d71e 8c3f 47ce 873f 8edc 883f
000000f0: b9e7 893f 7889 873f 897f 903f 1840 8b3f
00000100: 7ec4 7e3f 733c 873f 4b83 8f3f 1e19 8d3f
00000110: 9ea7 913f b814 8c3f d16b 873f 215d 8d3f
00000120: 5195 853f f194 863f a0b8 843f d8df 933f
00000130: 9b68 8d3f a896 913f 1939 873f 8346 833f
00000140: 1afc 873f 7e5d 8a3f 9aa8 8a3f 7e68 8b3f
00000150: 704a 8e3f dc75 853f 6e09 8b3f d0b6 943f
00000160: 1d74 863f 7d2a 883f 71c0 8b3f 8bec 8a3f
00000170: fba8 8e3f e3db 8e3f 0321 883f a2b2 8f3f
00000180: 4f84 853f 40ff 843f a3f5 933f 29e4 8e3f
00000190: ac46 893f d1b7 853f 9b26 8b3f 02db 883f
000001a0: 24de 8b3f e7b1 863f b6c4 8b3f cf7d 8a3f
000001b0: 531e 8a3f 81e5 8b3f 1c35 8c3f 529a 823f
000001c0: 383b 8a3f 0f8e 863f 91b8 8a3f 7daf 903f
000001d0: cd94 923f c875 8a3f 9f58 893f 9067 8a3f
000001e0: d772 8b3f 07b7 8d3f 3aa8 8d3f 2575 8b3f
000001f0: 9f42 8c3f f215 883f 9a70 8d3f 6cd2 883f

encoder.bn3.bias f4 [128]
0.091103405 0.11352792 0.08518991 0.07951374 0.13698794 0.095592886 0.11977206 0.09450676
0.068460844 0.099329226 0.048637893 0.06982284 0.07968039 0.0902402 0.12160058 0.0644579
0.081550635 0.08070445 0.09823853 0.07755109 0.097004935 0.075437255 0.07191847 0.089944
0.08019536 0.07355343 0.10511829 0.099159025 0.061909262 0.07752151 0.061077766 0.066063106
0.10322905 0.07912305 0.067138486 0.06337584 0.082883775 0.11615448 0.074890845 0.09811644
0.10539839 0.08149468 0.0857204 0.0882875 0.071481645 0.09482477 0.106129244 0.12447913
0.08164896 0.08618615 0.08307041 0.08219223 0.079766974 0.04665449 0.12235041 0.0866853
0.08748417 0.0820968 0.055686686 0.104282655 0.074472025 0.06936322 0.10684333 0.08126013
0.056744825 0.07012175 0.11191824 0.05760535 0.09164375 0.080785796 0.06618979 0.07547927
0.007751893 0.081298344 0.07364927 0.104932256 0.081602745 0.08911286 0.075244494 0.006059397
0.058007576 0.08794914 0.0811389 0.06739284 0.086617 0.031341568 0.097013935 0.11365967
0.03797217 0.111330085 0.091168374 0.066254295 0.12281837 0.10160414 0.0795298 0.09381594
0.058625143 0.053593565 0.103553 0.10649436 0.11200534 0.062081955 0.06417828 0.07055899
0.09098591 0.088568725 0.105610766 0.08726921 0.08265572 0.08477817 0.060237415 0.042381674
0.076042056 0.07031647 0.09103054 0.0903095 0.08753038 0.075714044 0.0893411 0.097180545
0.09498297 0.10405735 0.10157387 0.09563653 0.10000135 0.08994682 0.12139749 0.08722114
00000000: 6c94 ba3d 5381 e83d 0c78 ae3d 1ad8 a23d
00000010: 9146 0c3e 34c6 c33d 0e4b f53d c38c c13d
00000020: 3335 8c3d 1f6d cb3d 8738 473d 47ff 8e3d
00000030: 792f a33d dbcf b83d ba09 f93d 8102 843d
00000040: 0504 a73d 6048 a53d 4831 c93d 1bd3 9e3d
00000050: 86aa c63d d97e 9a3d fe49 933d 8f34 b83d
00000060: 773d a43d 2ea3 963d 4248 d73d e313 cb3d
00000070: 9194 7d3d 99c3 9e3d ae2c 7a3d 184c 873d
00000080: c169 d33d 440b a23d e77f 893d 31cb 813d
00000090: f8be a93d 66e2 ed3d 5f60 993d 46f1 c83d
000000a0: 1cdb d73d afe6 a63d 2d8e af3d 14d0 b43d
000000b0: f864 923d 7d33 c23d 4a5a d93d eaee fe3d
000000c0: 9237 a73d 5d82 b03d d220 aa3d 6654 a83d
000000d0: de5c a33d c718 3f3d da92 fa3d 1088 b13d
000000e0: e72a b33d 5e22 a83d b917 643d 2592 d53d
000000f0: ca84 983d 4e0e 8e3d add0 da3d b66b a63d
00000100: 436d 683d fe9b 8f3d 6435 e53d 96f3 6b3d
00000110: b8af bb3d 0673 a53d 838e 873d e094 9a3d
00000120: 9703 fe3b bf7f a63d 6ed5 963d b9e6 d63d
00000130: 571f a73d ce80 b63d c919 9a3d e88d c63b
00000140: 5a99 6d3d ae1e b43d 272c a63d 4205 8a3d
00000150: 4164 b13d 0460 003d 3eaf c63d 67c6 e83d
00000160: b588 1b3d 0701 e43d 7cb6 ba3d 55b0 873d
00000170: 3388 fb3d d515 d03d 85e0 a23d 9222 c03d
00000180: eb20 703d ed84 5b3d 9813 d43d b719 da3d
00000190: 0e63 e53d a649 7e3d e76f 833d 3b81 903d
000001a0: d256 ba3d 8563 b53d 754a d83d 33ba b23d
000001b0: 6747 a93d 2da0 ad3d 82bb 763d 6898 2d3d
000001c0: f0bb 9b3d 1502 903d 386e ba3d 30f4 b83d
000001d0: 2143 b33d f70f 9b3d 77f8 b63d 9806 c73d
000001e0: 6e86 c23d 051c d53d f605 d03d 16dd c33d
000001f0: 82cd cc3d 0a36 b83d 3f9f f83d ffa0 b23d

encoder.bn3.running_mean f4 [128]
-0.1850113 -0.024626486 -0.08301844 0.08087303 0.008982671 -0.18393517 -0.29410094 0.0561249
0.17449167 0.08200399 0.13858575 -0.22561997 -0.053017877 -0.28506425 -0.003912581 0.15502119
-0.32738575 -0.045779467 0.2513802 0.08614592 -0.0071204863 -0.034754653 -0.16818099 -0.103140675
0.22358385 -0.06569587 -0.1635917 -0.46660665 0.110995784 0.017148789 0.3011853 -0.1898028
-0.20241947 -0.10765908 -0.18044965 0.24663869 -0.10784324 -0.12730108 -0.08920341 0.7239135
0.061044227 -0.21087097 0.16196969 -0.028527921 -0.15224034 0.2569035 -0.43919283 0.08945468
-0.12150759 0.32453868 -0.3440777 -0.31314373 0.28117797 0.18949248 0.02079222 0.13311324
-0.31975818 0.24013536 -0.3110132 0.28200272 0.030470476 0.08532736 -0.20123538 0.1634012
0.22026113 -0.2515065 0.02494801 0.13488804 -0.32609197 -0.41246733 0.11872399 0.1051123
0.5253799 -0.36023295 0.16740286 -0.08010461 -0.372815 -0.26413202 -0.06739061 0.5864386
-0.04311566 -0.22858767 -0.3283037 0.25881276 -0.45369753 0.25085554 0.5146154 -0.35416928
0.16361281 -0.4765776 0.1754223 0.2416126 -0.3101904 -0.013876851 0.3032552 -0.39095944
0.13777709 -0.03752361 -0.33131576 -0.05080971 -0.1586457 -0.30203018 -0.3068475 0.17687044
0.12348746 -0.14658946 -0.28075218 -0.18335454 -0.4507423 -0.4438947 0.26922208 -0.0024044288
-0.10947928 0.06277811 -0.033757385 -0.12782311 -0.0035687364 -0.20629437 0.16934986 -0.27562696
0.22875948 -0.08043966 0.13261472 0.06859287 -0.284191 0.107158385 0.035235606 0.1541129
00000000: 9a73 3dbe 7cbd c9bc 9205 aabd c2a0 a53d
00000010: 0e2c 133c 8059 3cbe 6694 96be 39e3 653d
00000020: f2ad 323e b5f1 a73d 6ce9 0d3e ec08 67be
00000030: 4629 59bd f1f3 91be 1c35 80bb e0bd 1e3e
00000040: 1b9f a7be 4083 3bbd e8b4 803e 466d b03d
00000050: f852 e9bb e55a 0ebd a337 2cbe 6b3b d3bd
00000060: 2af3 643e 8e8b 86bd 9584 27be 11e7 eebe
00000070: c251 e33d 9e7b 8c3c f634 9a3e aa5b 42be
00000080: 0d47 4fbe 5d7c dcbd cbc7 38be da8e 7c3e
00000090: ebdc dcbd 375b 02be 47b0 b6bd 6552 393f
000000a0: 8309 7a3d 8fee 57be 62db 253e 63b3 e9bc
000000b0: e4e4 1bbe db88 833e e2dd e0be 0434 b73d
000000c0: f9d8 f8bd ef29 a63e f42a b0be 6054 a0be
000000d0: 8ff6 8f3e 510a 423e 7254 aa3c d64e 083e
000000e0: 58b7 a3be 0be6 753e 1f3d 9fbe a962 903e
000000f0: 389d f93c 1cc0 ae3d a610 4ebe a552 273e
00000100: 228c 613e 76c5 80be c55f cc3c 1720 0a3e
00000110: 87f5 a6be eb2e d3be 9025 f33d 1e45 d73d
00000120: 4c7f 063f 7470 b8be a86b 2b3e e30d a4bd
00000130: 9ce1 bebe 503c 87be 1704 8abd d720 163f
00000140: 0c9a 30bd e312 6abe 6c17 a8be 1b83 843e
00000150: 0b4b e8be 2370 803e d6bd 033f ad55 b5be
00000160: 1e8a 273e fb01 f4be e7a1 333e 4b69 773e
00000170: 47d1 9ebe bb5b 63bc 4444 9b3e d62b c8be
00000180: 7015 0d3e 5bb2 19bd 38a2 a9be d81d 50bd
00000190: 0574 22be b3a3 9abe 1e1b 9dbe 861d 353e
000001a0: fee6 fc3d 8c1b 16be c0be 8fbe 4bc1 3bbe
000001b0: b2c7 e6be 2b46 e3be 7ad7 893e 9f93 1dbb
000001c0: ac36 e0bd cf91 803d 2f45 0abd 10e4 02be
000001d0: 76e1 69bb d53e 53be 0d6a 2d3e fa1e 8dbe
000001e0: ed3f 6a3e 8cbd a4bd 27cc 073e 6b7a 8c3d
000001f0: 7c81 91be db75 db3d 3653 103d c6cf 1d3e

encoder.bn3.running_var f4 [128]
0.07818977 0.095711045 0.121043 0.22042775 0.13013095 0.09846914 0.11183477 0.1688336
0.13317865 0.08891261 0.13878085 0.13438496 0.23777694 0.13538843 0.1098986 0.10272359
0.24261612 0.17170416 0.1731403 0.119009435 0.15652546 0.17169213 0.10823543 0.14318942
0.1137515 0.1518583 0.09928969 0.24690038 0.14682448 0.09128166 0.12923913 0.17738348
0.13172886 0.09945676 0.17946975 0.13103998 0.09673798 0.09890712 0.111991465 0.13616614
0.19135949 0.0915548 0.12703608 0.14453031 0.08544441 0.13990933 0.110281006 0.11526419
0.14038958 0.1550713 0.12182376 0.13319217 0.13721707 0.19428302 0.118945904 0.10462905
0.09160922 0.09852445 0.16168313 0.13770498 0.13182312 0.13571674 0.08717337 0.16471387
0.123219 0.10504882 0.17114042 0.1151487 0.19570193 0.16512978 0.123431474 0.19658096
0.15930885 0.101917565 0.1605787 0.107977115 0.19207858 0.22695832 0.15074195 0.1656106
0.14471015 0.10327939 0.1032586 0.114733785 0.13934803 0.1541728 0.10689286 0.120413385
0.21316613 0.09548716 0.1414491 0.13212457 0.14343719 0.078808725 0.12275189 0.10609556
0.21555585 0.11187475 0.110316865 0.16055128 0.2183172 0.17176898 0.1868291 0.098432206
0.20851882 0.13933368 0.114643425 0.17676413 0.18334037 0.11671357 0.102977574 0.09364647
0.15100288 0.12825707 0.27528554 0.15698864 0.13189636 0.12510751 0.16640641 0.13297391
0.15418515 0.14886516 0.2184459 0.096288264 0.11271995 0.14311305 0.18342426 0.13549721
00000000: f521 a03d 2704 c43d 64e5 f73d d0b7 613e
00000010: 0c41 053e 30aa c93d a109 e53d b7e2 2c3e
00000020: fc5f 083e d117 b63d 911c 0e3e 369c 093e
00000030: cc7b 733e 44a3 0a3e 8412 e13d bf60 d23d
00000040: 5c70 783e 37d3 2f3e b14b 313e 38bb f33d
00000050: 3648 203e 10d0 2f3e 8aaa dd3d 3fa0 123e
00000060: 8cf6 e83d be80 1b3e 6558 cb3d 74d3 7c3e
00000070: 2859 163e e1f1 ba3d 4357 043e 04a4 353e
00000080: eee3 063e fcaf cb3d ebc6 373e 582f 063e
00000090: 901e c63d d18f ca3d c85b e53d 236f 0b3e
000000a0: bef3 433e 1581 bb3d bf15 023e c1ff 133e
000000b0: 7bfd ae3d 6444 0f3e 02db e13d a20f ec3d
000000c0: 49c2 0f3e 03cb 1e3e bc7e f93d 8763 083e
000000d0: a282 0c3e 21f2 463e e999 f33d c147 d63d
000000e0: 9d9d bb3d 30c7 c93d 4390 253e 8902 0d3e
000000f0: a4fc 063e 54f9 0a3e f487 b23d c1aa 283e
00000100: 3e5a fc3d d623 d73d 6f3f 2f3e 15d3 eb3d
00000110: 1666 483e c817 293e a4c9 fc3d 854c 493e
00000120: dc21 233e 28ba d03d be6e 243e 1b23 dd3d
00000130: 3fb0 443e c367 683e 195c 1a3e d395 293e
00000140: e62e 143e 2584 d33d 3f79 d33d 8cf9 ea3d
00000150: 40b1 0e3e 79df 1d3e a5ea da3d 4b9b f63d
00000160: 3948 5a3e c68e c33d 08d8 103e aa4b 073e
00000170: 33e1 123e 7866 a13d 5865 fb3d a148 d93d
00000180: acba 5c3e 971e e53d cfed e13d 8e67 243e
00000190: 8b8e 5f3e 35e4 2f3e 2150 3f3e d396 c93d
000001a0: f585 553e 7dad 0e3e 2cca ea3d a801 353e
000001b0: 94bd 3b3e 8607 ef3d e8e5 d23d b8c9 bf3d
000001c0: 80a0 1a3e d255 033e 3af2 8c3e a1c1 203e
000001d0: d70f 073e 2f1c 003e 7166 2a3e 502a 083e
000001e0: b6e2 1d3e 1c70 183e 48b0 5f3e c832 c53d
000001f0: b8d9 e63d 3a8c 123e 92d3 3b3e c8bf 0a3e
