wesad_baseline/src/checkpoints/old/baseline_cnn_0.5s.pt (torch, 665228 bytes, 48 tensors)

encoder.conv1.weight f4 [32, 8, 7]
000000 7e d2 0f be a9 de b1 3d 31 8f da bd 52 68 c2 3d
       -0.1404514 0.08685047 -0.10671843 0.09492554
000010 13 34 48 bd 3b 1e 0e be 6a b3 9a bd 6b ec 49 3b
       -0.048877787 -0.1387872 -0.07553752 0.0030811082
000020 40 93 0d be 12 d7 00 3d b2 8e b9 bd a2 ff d8 bc
       -0.13825703 0.031455107 -0.0906042 -0.026489083
000030 1d 39 3e 3d b5 32 a6 bd 67 55 e3 3d 1f 7b 41 bd
       0.046441186 -0.0811514 0.111002736 -0.047236558
000040 be b5 a2 bd d5 8a 87 bd b2 e3 6a 3d 67 56 e8 3d
       -0.07944821 -0.06618277 0.057346053 0.11344605
000050 3a d0 8f bd d4 e6 fa bc d0 14 03 3d e8 db 4b bc
       -0.07022138 -0.030627646 0.03200227 -0.012442566
000060 ca 15 33 bd 36 4d 07 be 60 fd 0b be 80 0f a4 3c
       -0.04372195 -0.13213047 -0.13670874 0.020026922
000070 d5 07 41 3d 6a 08 e6 3d 9b b5 21 3c 91 d1 14 3e
       0.04712661 0.112320736 0.009869958 0.14533068
000080 9b 8a 39 3d 60 c4 09 3e 04 ee df 3d 6d 5b 39 3d
       0.0452982 0.13453817 0.1093407 0.045253206
000090 89 d5 55 bd 42 be a6 3d ac 48 ab bc 8f da a0 bb
       -0.052205596 0.081417575 -0.020908676 -0.0049088667
0000a0 86 3c 6f 3d 7a da df 3d 6b a2 10 3e 90 d8 11 3e
       0.05840733 0.10930343 0.14124458 0.14242768
0000b0 e5 72 c3 3d db 70 47 bd a1 16 cc 3d 79 4e 20 3e
       0.09543399 -0.04869161 0.099652536 0.15654935
0000c0 5f 9e 0f bd 4f 12 6f bd a2 eb 16 3e 67 7c be bc
       -0.035063144 -0.05836707 0.14738324 -0.023252679
0000d0 9d fd 90 bd b2 3c a0 3d 23 20 5f bd cc ec 51 bd
       -0.07079623 0.07824077 -0.054474007 -0.051251218
0000e0 64 f8 6f bd 30 92 11 be 64 d0 05 bd 54 35 6f bd
       -0.058586493 -0.14215922 -0.03266944 -0.058400467
0000f0 f0 d5 38 3d 4b 7f 05 bc 20 a1 63 bd 5c dc 99 3c
       0.0451259 -0.008148025 -0.055573583 0.018781833
000100 fc 3e 5f 3d f2 e9 b8 3c 23 81 a3 bd 93 2b 3d 3d
       0.054503426 0.022572491 -0.07983615 0.046184134
000110 f0 20 18 bd b7 14 f3 bb a2 72 03 3e dc a6 05 3e
       -0.037140787 -0.007418241 0.12836698 0.13051933
000120 59 4f ee 3d 9b 0a 1c bd 1e 87 bd bd f4 d6 0b 3d
       0.11636228 -0.03809605 -0.09254287 0.034140542
000130 00 21 6c 3c ed e7 99 3d ae 3f c8 bb d4 da 97 3c
       0.014412165 0.075149395 -0.006111107 0.018536963
000140 04 a9 79 3d 9d ce 0d be 6b d9 ea bd a5 ec f5 bd
       0.0609522 -0.13848348 -0.114672504 -0.12008027
000150 63 cc 8a bc bf 8d 1f 3d 88 14 b7 bd 32 53 db 3d
       -0.016943162 0.03895354 -0.08939463 0.107092276
000160 f2 e7 b6 bd dc bb 3e 3c 11 c3 9b 3b 81 31 a7 3d
       -0.08930959 0.011641469 0.0047534783 0.08163739
000170 63 1f e5 3d 84 c9 77 bd 03 14 5b 3d 84 d0 0f 3e
       0.11187627 -0.060494915 0.05348588 0.14044386
000180 7d 44 5a 3d c4 d4 99 3d fb 58 de 3d b3 3f 79 3d
       0.05328797 0.07511285 0.108568154 0.060851764
000190 88 ce 7a bd b6 34 ab bd 80 8d 08 be 77 6c 53 3d
       -0.06123212 -0.08359663 -0.13335228 0.051617112
0001a0 47 45 e1 bc 47 43 86 bc 76 07 14 3e b9 87 80 bb
       -0.027498854 -0.016389502 0.14455971 -0.0039224294
0001b0 8a bd 0e 3d ce 1c 46 bd d5 ac 30 bd ac e4 a8 bd
       0.034848727 -0.048367314 -0.043133575 -0.08246741
0001c0 89 8e 09 be 0a 30 2f 3d 05 f3 a2 3d fb f3 ef bd
       -0.13433279 0.042770423 0.079565085 -0.117164575
0001d0 ee 77 d7 bd 84 40 84 bd 7b 3e ee bd b8 f3 ac 3d
       -0.10520922 -0.06457618 -0.11633011 0.08444923
0001e0 ea b0 25 3e bf b4 a6 bd d3 d3 f6 3d 0a 70 af 3c
       0.16180769 -0.08139943 0.12052121 0.02141573
0001f0 e2 b4 51 bd ff 71 3b bd 27 cc 97 3d d2 dd ad bc
       -0.051197894 -0.045763012 0.07411986 -0.021223936
000200 90 72 c2 3d 06 fe eb 3c d7 79 90 bc 8b 49 65 3d
       0.09494507 0.028807651 -0.017636223 0.05597834
000210 47 97 a6 3d 06 b4 48 3c 0d 3b 1c 3d 4f 64 fa bd
       0.081343226 0.012249952 0.038142253 -0.122261636
000220 d9 58 5e 3d 0b 87 6b 3c 51 c3 80 bd 95 e6 b9 bc
       0.05428395 0.0143754585 -0.06287254 -0.022692958
000230 1e ed 19 3d bb aa 89 bd 85 be df 3d 18 1e 66 bd
       0.03757965 -0.067220174 0.109250106 -0.056181043
000240 38 0d 95 bd 63 65 6d 3d 6b 69 09 3c 92 37 a8 bd
       -0.07277912 0.057958018 0.00838695 -0.08213724
000250 8e 63 f5 bc 2c c6 a6 bd 70 8f 72 bd 5f c1 de bd
       -0.029954698 -0.08143267 -0.059218824 -0.10876726
000260 ef f2 37 3d ee aa 80 bd 33 44 89 bc e4 7b 16 be
       0.044909414 -0.06282602 -0.016756153 -0.14695698
000270 14 62 93 bd c8 1e 3a bd 40 e3 ca 3d 3d 35 87 bd
       -0.07196441 -0.04543951 0.09906626 -0.06601951
000280 2e 24 07 bd 7e e3 32 ba e1 fb d8 3d 82 3f 6b 3d
       -0.032993488 -0.000682406 0.10594917 0.057433613
000290 16 e9 6c bc 1d 78 c7 bd 4f 76 c8 3d b3 57 ff bd
       -0.014459869 -0.09739707 0.097881906 -0.12467899
0002a0 26 2c f1 3d bc 35 60 3d 92 b4 8c 3d fc f7 c6 3c
       0.11775999 0.054738745 0.068703786 0.02428817
0002b0 31 f0 8c bc 7f 92 71 bd 66 94 09 3e 23 91 b3 bb
       -0.017204376 -0.0589776 0.13435516 -0.005479948
0002c0 0f a0 0a be 7a e3 46 bd c4 a2 df bd 8f 69 6f bb
       -0.1353762 -0.048556782 -0.10919717 -0.0036531424
0002d0 4c dd ab 3c 35 06 6d 3d 75 b3 9d bd 24 ec 66 bd
       0.020979546 0.057867248 -0.07700244 -0.056377545
0002e0 e2 1d 74 bd 9e 31 38 3c 89 18 10 bb 79 16 bb 3d
       -0.05959881 0.011242298 -0.002198728 0.09135146
0002f0 6a 68 f4 3d 3a c0 97 3d 5f 51 4d bd eb 7c 5a bc
       0.11933978 0.07409711 -0.05012643 -0.013335447
000300 00 1f d5 3c 52 fa ca 3b 3e cf 50 3d 0a 05 39 bd
       0.026015759 0.0061943913 0.05097889 -0.04517082
000310 d7 d3 47 3d f7 2c d6 bd 02 36 bf bb 8d ef 13 3d
       0.04878601 -0.10457795 -0.0058352957 0.036117125
000320 7b e9 fa 3c 5a ed a2 bc 95 93 81 3d cc 06 5b 3d
       0.03062891 -0.019888569 0.06326977 0.05347328
000330 9c 42 67 3d ea 80 b8 3d 85 90 03 3e 6a 44 c6 3d
       0.056460008 0.090089634 0.12848099 0.09681018
000340 ac 5d 83 3d 92 58 cb bd 06 c4 dc 3d 3d 73 66 bd
       0.06414351 -0.09929003 0.10779576 -0.056262244
000350 c8 82 bd bd 23 9a 82 bd 7b cf a3 bd b0 bc 0c be
       -0.0925346 -0.063770555 -0.07998558 -0.13743854
000360 a1 f4 9b bb 48 21 24 bd 05 f6 cf 3d d8 08 86 3d
       -0.0047593866 -0.040070802 0.101543464 0.065446556
000370 99 e1 ae 3d a7 78 ac bd be df c6 bc 24 ee dc bd
       0.08539123 -0.0842145 -0.02427661 -0.10787609
000380 76 12 59 3d 7e 27 1e bc 9d 02 05 be 0a d9 9d 3d
       0.05299612 -0.00965297 -0.12989278 0.077074125
000390 0b eb d1 bd f6 99 bf bd be 7e 8d bd 1b bf 1f 3d
       -0.10249909 -0.093555376 -0.0690894 0.03900061
0003a0 27 e5 03 bd 24 a2 fc bc ab 1d 78 3d a5 79 cc bd
       -0.03220096 -0.030839033 0.06057517 -0.09984139
0003b0 aa 0b f5 3d f2 58 74 bd da b8 a5 bd f8 b6 15 bc
       0.11965115 -0.059655137 -0.08091898 -0.009137861
0003c0 67 d4 e8 bc 04 bf 9c 3d e9 a8 f9 3c 95 9e d1 bd
       -0.028421594 0.07653621 0.03047605 -0.10235325
0003d0 ab ca 4b 3d 0c ab 6e 3b 92 a6 8a 3d 1c 48 b6 3d
       0.049753826 0.003641787 0.06770052 0.089004725
0003e0 39 6a e2 bd 42 aa 66 3d fb 61 75 bd 49 0b 7f bd
       -0.110554166 0.056314714 -0.059907895 -0.06226662
0003f0 aa db f2 3c eb fb 68 bd 52 09 ce bd aa 7e 9a bd
       0.02964576 -0.056880873 -0.100603715 -0.075436905

encoder.conv1.bias f4 [32]
000000 b2 87 2c 37 54 13 1d 37 58 d5 33 39 2c a4 f4 35
       1.0283593e-05 9.362429e-06 0.00017150247 1.8227197e-06
000010 45 97 d2 38 93 f3 9b 37 9e f9 04 b6 82 e1 10 b8
       0.000100417565 1.8590863e-05 -1.981483e-06 -3.4542296e-05
000020 d8 17 97 b8 41 bb 9d 37 f6 37 77 37 5c a5 d2 35
       -7.204682e-05 1.8803055e-05 1.4735377e-05 1.5694345e-06
000030 81 f3 1e 37 19 7b 97 b7 46 58 3a b8 6c c3 69 38
       9.474229e-06 -1.8057925e-05 -4.4428067e-05 5.573353e-05
000040 50 ed a5 b7 bf e1 fe 37 2d 13 b3 37 ad 0d f4 b7
       -1.978004e-05 3.038428e-05 2.1347392e-05 -2.9093435e-05
000050 fe af 0a b8 da 97 f1 b7 9a 75 4f b7 da 2a 01 b8
       -3.306567e-05 -2.880015e-05 -1.2365543e-05 -3.0795905e-05
000060 84 c1 83 38 1c dd 0e b7 71 2d 25 37 b8 3e d4 b7
       6.282612e-05 -8.515341e-06 9.8453465e-06 -2.5301575e-05
000070 40 13 01 37 4a 5e df 36 c5 dc cc 37 36 7d 24 37
       7.693481e-06 6.6568946e-06 2.4421499e-05 9.804315e-06

encoder.bn1.weight f4 [32]
000000 cc 4e 7a 3f cf 6e 81 3f 40 36 82 3f 9b 76 7a 3f
       0.97776484 1.0111941 1.0172806 0.9783723
000010 24 6c 7f 3f 09 ba 73 3f a8 f3 76 3f 94 79 82 3f
       0.99774384 0.9520574 0.9646554 1.0193353
000020 76 df 7c 3f 53 13 81 3f e4 36 6d 3f f7 4f 7b 3f
       0.98778474 1.0084022 0.9266188 0.9816889
000030 67 9f 68 3f 96 0a 7b 3f 37 08 80 3f 46 a2 81 3f
       0.9086823 0.9806303 1.0002507 1.0127647
000040 95 fe 81 3f 84 93 82 3f 50 91 80 3f cc e1 7c 3f
       1.0155817 1.0201268 1.0044346 0.9878204
000050 4b 57 79 3f 91 6b 7b 3f ec 53 77 3f 62 1e 74 3f
       0.97398823 0.9821101 0.9661243 0.9535886
000060 8b 89 82 3f f8 68 7b 3f dc 90 80 3f 3c 02 79 3f
       1.0198225 0.98207045 1.0044208 0.97269034
000070 8f 62 78 3f ae 3f 79 3f 0b 14 7f 3f e8 27 80 3f
       0.9702539 0.9736279 0.9963996 1.0012178

encoder.bn1.bias f4 [32]
000000 bf a5 71 bc dd 04 a8 bb 52 64 97 bc 4f b2 3f 3d
       -0.01474899 -0.005127533 -0.018480454 0.046800908
000010 b5 79 a5 3c 39 a8 87 3b 97 68 b5 bd 0f fb 6b bd
       0.020199636 0.0041399268 -0.088578396 -0.057612475
000020 e4 9f a8 3c d2 47 b1 3c 12 c9 55 bd 9c b2 02 bd
       0.020584054 0.021640692 -0.05219371 -0.031908616
000030 0e bc 2b bd ef 01 0a 3d 63 b7 01 bd 35 29 1c 3c
       -0.04192739 0.03369325 -0.03166903 0.009531309
000040 c3 98 b6 3b 83 05 68 3b a9 ed 84 bc 4e a4 c4 bc
       0.00557241 0.0035403676 -0.016226606 -0.024004128
000050 c1 28 ba bc ee f3 81 bc df d0 d2 bc 3b a7 d3 bc
       -0.022724511 -0.015863385 -0.025734363 -0.025836578
000060 29 18 e1 bc bf ee c5 3b 6b 80 27 bc d9 db 18 bb
       -0.02747734 0.0060404236 -0.010223488 -0.0023324399
000070 57 e2 0e bd 98 2c 07 bb ef c9 e1 bc 3e 2f b9 bc
       -0.034883823 -0.0020625945 -0.02756211 -0.022605535

encoder.bn1.running_mean f4 [32]
000000 d5 26 c7 bb 6a 74 b6 bb eb b9 bf bb d6 91 01 bd
       -0.006077627 -0.005568077 -0.0058510206 -0.03163322
000010 2a 66 69 bc 62 a8 08 bc 10 32 f0 3b ff bd 51 3d
       -0.014245549 -0.008340927 0.0073301867 0.051206585
000020 55 24 ad 3b 1d 8d 5e 3d 1f 6c 4a 3d c0 06 21 3d
       0.005283872 0.054333795 0.04941952 0.039313078
000030 af 64 50 bd 28 44 88 3d be 61 44 bd cf 63 f3 bc
       -0.05087727 0.06653625 -0.047944777 -0.029710678
000040 35 96 39 3d 24 65 57 3d 37 fd 4e 3d 25 2b d0 3c
       0.045309264 0.05258669 0.050534453 0.025411198
000050 74 d8 c8 bb 4e 53 ff bc 6a 48 39 3d 96 fe 12 bb
       -0.006129319 -0.031167652 0.045235075 -0.0022429577
000060 5a 6b 5b bc cb c9 44 3c 46 f2 d2 3c 5a e4 7e 3c
       -0.013392294 0.012011002 0.02575029 0.015557373
000070 5e cd 89 bc 72 fb 11 bd 3b 4f 6d bc 0e 52 8d ba
       -0.01682156 -0.035640188 -0.014484222 -0.00107819

encoder.bn1.running_var f4 [32]
000000 6d 05 f7 3e c2 30 92 3e 23 58 83 3e 57 ca ce 3e
       0.48246327 0.28552824 0.2565318 0.40388748
000010 ef a9 7f 3e 11 f4 39 3f d9 e2 ae 3e 5f 44 dd 3e
       0.24967168 0.7263804 0.34157446 0.43216226
000020 75 62 57 3e 40 16 05 3f 17 5e 34 3f 69 67 89 3f
       0.21033652 0.51987076 0.7045607 1.0734683
000030 45 30 89 3e 22 9e f4 3e fa f2 bf 3e b5 ab 2e 3e
       0.2679464 0.47776896 0.37490064 0.17057689
000040 d4 03 4e 3e e4 91 d3 3e 98 24 44 3e a1 0e 96 3e
       0.20118648 0.41322243 0.19154584 0.29308036
000050 9f 3b 89 3e ce 98 e4 3d 71 25 e0 3e 62 f1 8e 3e
       0.268033 0.11161958 0.43778566 0.27918535
000060 6c 72 3c 3e 8e f8 83 3e a4 dd 80 3e 14 05 3d 3e
       0.18403023 0.2577557 0.25169098 0.18458968
000070 c0 23 8d 3e cf cb 2b 3f 5d 10 ab 3e 7c 77 63 3f
       0.27566338 0.6710786 0.33410922 0.88854194

encoder.conv2.weight f4 [64, 32, 5]
000000 60 50 c0 bc 08 01 b3 3d 3c e9 b5 3b d6 3c dd 3c
       -0.023475826 0.08740431 0.0055514853 0.027006548
000010 c3 25 6b bc 92 fb e1 ba 21 8e 42 3d 40 41 a8 bc
       -0.014352265 -0.0017241111 0.047498826 -0.020538926
000020 59 13 86 bd 77 d2 73 bd f9 93 2f 3c 1a 68 90 3c
       -0.06546659 -0.059526887 0.010716432 0.017627764
000030 70 f2 48 bd 23 9b b3 bc d1 ec c3 bc ce 60 2a bd
       -0.04905933 -0.02192456 -0.023916634 -0.041596226
000040 bc 99 ee 3c 01 a9 98 bc 9e f2 de bb 25 65 59 3c
       0.02912604 -0.018635275 -0.0068038246 0.013268744
000050 1c b6 60 bc cd 84 a4 bd 0d 21 4d 3d 05 80 61 bd
       -0.013715293 -0.08033142 0.050080348 -0.05505373
000060 dd 73 84 bc f0 13 77 bd c6 95 c3 bb cc 87 a8 3d
       -0.01616853 -0.06032175 -0.005968782 0.08229026
000070 c2 0c 6a bd c2 a6 ba 3d 3e 82 d9 bc c7 ae 3c bd
       -0.057141073 0.09113838 -0.026551362 -0.04606512
000080 ec 57 17 bd cb cc 44 3d ad d2 60 bd c8 9d 30 3c
       -0.036949083 0.04804687 -0.054888416 0.0107798055
000090 f0 2d bf 3d a1 f2 33 3d c4 6f 0a bd 5c 8c 06 3d
       0.09334934 0.04393256 -0.033797994 0.0328487
0000a0 1c 6b 1c bd eb f6 99 bc 38 45 82 bd 22 e9 4b 3d
       -0.038188085 -0.018794497 -0.06360859 0.04978288
0000b0 05 f1 f8 3b 28 3c 75 bd a6 ba 88 bd ad 89 64 bd
       0.007597091 -0.059871823 -0.06676225 -0.05579536
0000c0 0d 78 a0 bd 84 29 14 3d fd 27 06 3d fa 9d 07 3d
       -0.07835398 0.036172405 0.03275298 0.033109643
0000d0 ae d5 21 3d 98 b7 f9 bc b0 c3 6d bd 4b 13 4a bc
       0.03951042 -0.030483052 -0.05804795 -0.012333701
0000e0 42 d2 94 3d 12 3a a1 3d a4 be 07 bd 6b 96 bc 3c
       0.07266666 0.07872404 -0.033140793 0.023020944
0000f0 8b 23 8f 3c ec 19 04 bd 46 06 85 3c f1 30 3d 3d
       0.017473003 -0.032251284 0.016238343 0.046189252
000100 f3 09 47 bd ef 18 52 bc b4 d0 96 bd 1a e2 44 3d
       -0.048593473 -0.012823327 -0.07364026 0.04806719
000110 84 92 78 bd f0 7b 0d 3b e6 24 39 3d c0 46 4c 3d
       -0.060686603 0.0021588765 0.045201205 0.04987216
000120 da 2d a7 bb b0 3b 65 3d 43 d4 92 bd ba 92 18 39
       -0.0051019015 0.055965126 -0.07169392 0.0001455051
000130 20 40 6b 3d e8 47 c6 bc 80 f4 b3 bc 3c eb 61 3d
       0.0574342 -0.02420421 -0.021967173 0.055155978
000140 f8 ef 72 bc 28 15 c1 3b 08 87 a6 bd da b0 59 bd
       -0.014827721 0.0058924146 -0.08131224 -0.053147174
000150 33 6a 72 3a ae 94 df 3b 4e a7 4d 3d c7 72 57 3d
       0.00092473923 0.006823144 0.050208382 0.052599695
000160 38 5f 8a bd 7b 64 77 bd 84 44 da 3c d4 d6 07 3d
       -0.06756443 -0.06039856 0.026643999 0.03316386
000170 26 10 55 3c 18 a7 b4 bb 6f 5d 5c bc 57 15 e3 3c
       0.013004338 -0.005513083 -0.013450011 0.027720137
000180 c4 b1 8e bb 3b 15 0f bd b6 cd af 3d a9 5b 85 3d
       -0.0043546874 -0.034932356 0.08584158 0.065116234
000190 5c 98 e3 3d 54 fc 90 bb ce b1 6b 39 9a 8c 3d 3d
       0.111130446 -0.004424611 0.00022477584 0.046276666
0001a0 d9 6b a5 bb fc cd 70 3d 22 e2 dc bc ec 97 32 3c
       -0.005048257 0.058790192 -0.026963297 0.010900479
0001b0 e1 55 2f bd df 40 6f 3a 2b 63 86 3d 1d ad a4 bd
       -0.04280651 0.0009126793 0.065618835 -0.08040831
0001c0 8a 54 9c bc 65 0d 8d 3d 49 a5 45 bd 6e 31 58 3d
       -0.01908328 0.068873204 -0.04825333 0.052781515
0001d0 ca 64 e1 3c 7b c9 99 ba 33 5a 75 bd be 23 18 bd
       0.02751388 -0.001173302 -0.059900474 -0.03714346
0001e0 c6 ef fe bc 77 b7 a9 3c 4d 1f 20 bd d9 a6 b8 3d
       -0.031120192 0.020717366 -0.03909235 0.09016199
0001f0 08 e4 a6 3d 57 ed fd bd f6 2b 68 bd f1 c6 1e bd
       0.08148962 -0.123987846 -0.05668255 -0.038763944
000200 ce ab a4 3c c3 2a fc bb 19 8c ed 3b b9 71 a6 3c
       0.020101454 -0.0076955273 0.007249367 0.020317899
000210 b7 b9 8b bd b2 bb 42 bd 11 f2 53 3d b9 0d 00 3d
       -0.06822532 -0.04754228 0.051744524 0.031263087
000220 44 00 50 3c 74 e8 5c 3c 2f fe 33 3d 23 2e 60 bd
       0.012695376 0.0134831555 0.04394358 -0.0547315
000230 cb 23 82 b9 1e 48 9e bc 6f 8d 4c bd 93 ad 94 3d
       -0.000248222 -0.019321498 -0.04993957 0.07259669
000240 8b 94 9c 3d 75 ce b7 3c d6 d5 8b bc 25 f4 d9 3c
       0.0764552 0.022437314 -0.017069738 0.026605675
000250 6a 10 47 3d 22 0d 81 bb e2 4f 84 bc 8f 83 de bc
       0.048599638 -0.003938333 -0.016151372 -0.027162341
000260 a9 d6 90 bd 79 7d 86 3d 15 bd 9a bd 31 c7 d6 bd
       -0.07072193 0.06566901 -0.07555596 -0.104872115
000270 56 84 aa bd 0a 73 94 bd 56 c5 b0 bd 48 95 9a bd
       -0.08326022 -0.072485045 -0.08631389 -0.075480044
000280 9a ad 1a 3d 83 7f b1 3d 40 c1 99 3d 6b 6c cf 3c
       0.037763216 0.08666899 0.07507563 0.025320252
000290 10 3e 97 3d 9f 28 9d bd ec 87 9b bd 9c 37 00 bd
       0.07384884 -0.076737635 -0.075942844 -0.031303033
0002a0 87 63 e4 bc d7 69 6d 3d 0e 73 e1 3c 31 61 19 3d
       -0.02787949 0.057962265 0.027520683 0.037446205
0002b0 d1 a4 de 3c d4 df 4e 3d 79 e0 97 3b 8e ac b1 3c
       0.0271782 0.050506428 0.0046349135 0.021688726
0002c0 ee 4e 4f bd 8b 98 48 bd cb 73 4c 3d 6d 06 a7 3d
       -0.050612383 -0.0489736 0.049915116 0.081555225
0002d0 ad 12 8c bd de 53 8e 3d 3c cd 42 bd 42 f8 7c bd
       -0.068394996 0.0694959 -0.047559008 -0.061760195
0002e0 42 41 19 3c 59 b0 14 bc 58 e9 0b bd d2 5e 9d bc
       0.009353938 -0.009075248 -0.03415808 -0.019210253
0002f0 60 dc 29 bd d5 94 04 bd c7 bb 30 3d 81 fc d2 3c
       -0.04146993 -0.0323685 0.04314783 0.025755169
000300 f9 49 8e 3d 19 9b 78 bd 2e 24 1a 3c a1 4b 90 3d
       0.06947703 -0.060694788 0.00940804 0.07045675
000310 00 bb 9c 3d 45 3a b1 bc e0 d4 31 bd ad 2a 4c bd
       0.07652855 -0.02163423 -0.043415904 -0.049845386
000320 63 89 4d 3d 01 e5 4a bd 43 ea db bc c5 5d aa bc
       0.05017985 -0.0495348 -0.026845103 -0.020796666
000330 9b ba a4 bc 0c 36 6e 3d 3a ee 80 3c 76 53 e6 bc
       -0.020108512 0.058157012 0.015738595 -0.02811597
000340 a7 98 75 bd 13 cc 07 3d cc 47 82 bd 77 66 39 bd
       -0.059960034 0.033153605 -0.063613504 -0.045263734
000350 a3 38 3f 3d 75 27 53 3d a0 d0 52 bd 68 74 9c 3d
       0.046684872 0.0515513 -0.05146849 0.0763939
000360 aa 71 e3 3c b7 2e 6d bc c1 4a 9c 3d 10 32 4d 3c
       0.02776416 -0.01447647 0.07631446 0.012524143
000370 f6 82 82 3d 1d 26 52 bd 6f ca 11 3d 0e 2d 89 3d
       0.06372635 -0.05130588 0.035593446 0.066980466
000380 2e 9d ef 3c 3b 6a 93 3c c6 a8 bb 3d fb f2 1e bd
       0.029249754 0.01799499 0.0916305 -0.038805943
000390 1e f9 66 bd a1 16 0c bd 12 5a e9 3c 05 d0 68 3d
       -0.05638992 -0.034201268 0.028485332 0.056839008
0003a0 22 01 36 bd df 79 03 3c ab 7f e8 bc fa 91 b9 bc
       -0.044434674 0.008024662 -0.02838119 -0.022652615
0003b0 7a 7e b6 3d 38 de bf 3d 48 94 ea bb af 62 cd 3d
       0.08910842 0.09368557 -0.00715879 0.10028588
0003c0 b3 f3 75 3d 6f dd 1d bd 24 7c 59 bd bc 93 5e bc
       0.060046863 -0.038541254 -0.053096905 -0.013585027
0003d0 5f e7 7f bd ad ca 33 bc 70 66 a1 3d 21 31 b4 3d
       -0.062476512 -0.010973615 0.078808665 0.08798433
0003e0 ae 89 ab 3d b8 47 9e 3d 22 8d 1a bd 5d 5d 80 3d
       0.0837587 0.07728523 -0.03773225 0.06267808
0003f0 9b 0b f7 bc d2 7f 26 3d 93 85 da 3c 00 5d ca bc
       -0.030156901 0.040649243 0.026675021 -0.024702549

encoder.conv2.bias f4 [64]
000000 23 87 cf b5 8e e3 73 b5 82 fe 4f b7 ab c4 fd 36
       -1.5462032e-06 -9.085569e-07 -1.2397419e-05 7.5628827e-06
000010 d5 03 9c b8 c3 1c 75 b7 35 34 1e b8 75 2f d4 36
       -7.4393734e-05 -1.4609835e-05 -3.7718757e-05 6.323617e-06
000020 42 20 c9 37 2b af 22 b7 3e f2 f6 b7 c0 1a 1a 36
       2.3976088e-05 -9.696737e-06 -2.9438288e-05 2.2963359e-06
000030 9c f0 4a 37 5a 0e 83 36 b2 d1 ce 37 0f 2a 07 b7
       1.20961595e-05 3.905775e-06 2.465476e-05 -8.05642e-06
000040 45 28 56 37 70 64 0c 37 f4 7a 9d 37 2a 60 06 b7
       1.276477e-05 8.368035e-06 1.8773113e-05 -8.009412e-06
000050 e1 6b 8f b7 2f b1 29 b8 85 1a 11 37 0d be 7a 37
       -1.7097163e-05 -4.0457755e-05 8.648848e-06 1.4945411e-05
000060 22 55 71 b8 38 41 37 b8 95 d9 0d 38 c0 fe 59 b6
       -5.7538164e-05 -4.369134e-05 3.381966e-05 -3.2483804e-06
000070 e9 ed 9a b6 12 ef 20 38 0c 93 de 36 2d 05 8a b8
       -4.617254e-06 3.8369624e-05 6.633234e-06 -6.581317e-05
000080 54 52 51 b7 c2 f7 0b b6 ec dd c1 36 b4 fe 0c 38
       -1.2476539e-05 -2.0856828e-06 5.7776833e-06 3.3615812e-05
000090 6e 00 85 b6 0e 16 a6 b7 98 bf d3 b5 88 7d 81 37
       -3.963759e-06 -1.9799012e-05 -1.5776486e-06 1.5436453e-05
0000a0 bc 43 1a b8 16 7d 8c 36 36 e8 f4 37 d4 af 1c b7
       -3.6779544e-05 4.186887e-06 2.9195198e-05 -9.339263e-06
0000b0 c5 3e e3 37 9c 56 8e b7 d4 75 73 b7 f7 3e 96 b7
       2.7089738e-05 -1.696805e-05 -1.4511363e-05 -1.7910714e-05
0000c0 ca 56 26 37 f2 ab 3e b8 9a 90 c4 38 41 c0 3d 37
       9.914578e-06 -4.5459667e-05 9.3729424e-05 1.13100405e-05
0000d0 2a 79 8a 38 73 5d 43 b8 c8 f9 32 37 2b a5 2a 38
       6.602921e-05 -4.6578654e-05 1.06677835e-05 4.0684983e-05
0000e0 d0 0e 0f 38 0c 1a 90 b7 29 20 ad 37 d4 0d 53 b8
       3.4107652e-05 -1.7178267e-05 2.0638183e-05 -5.03192e-05
0000f0 2e 00 77 b6 e2 16 16 b7 cc 57 45 b7 0f 91 1b 37
       -3.6805973e-06 -8.9460245e-06 -1.1762557e-05 9.272494e-06

encoder.bn2.weight f4 [64]
000000 f8 01 70 3f ef 4c 6f 3f 96 98 7e 3f 21 4d 76 3f
       0.93753004 0.93476766 0.9945158 0.9621144
000010 0c 10 7d 3f 4e 21 81 3f ad 47 7a 3f 09 b4 7c 3f
       0.9885261 1.0088289 0.9776562 0.9871221
000020 0b e2 80 3f 08 f9 72 3f 74 3f 7f 3f e2 55 7a 3f
       1.0068983 0.9491124 0.99706197 0.97787297
000030 bf 54 6f 3f e8 f8 7e 3f ed de 7e 3f 3b 84 6d 3f
       0.9348869 0.9959855 0.9955891 0.9277989
000040 2d 71 70 3f 68 b2 82 3f 88 b1 75 3f a4 ed 70 3f
       0.9392269 1.0210695 0.95974016 0.9411261
000050 98 44 77 3f 98 10 80 3f 25 f5 72 3f 4d 3a 68 3f
       0.9658904 1.0005064 0.9490531 0.9071396
000060 a7 76 84 3f 6d ab 80 3f 20 03 78 3f 35 91 77 3f
       1.034871 1.0052315 0.9687977 0.96705943
000070 a3 49 78 3f ef 9e 77 3f df bc 72 3f 09 6b 80 3f
       0.9698736 0.9672689 0.94819444 1.0032665
000080 36 f6 6f 3f 77 e9 76 3f 9c 03 62 3f e0 64 7c 3f
       0.93735063 0.9644999 0.8828676 0.98591423
000090 f4 60 76 3f be 34 74 3f a5 1a 77 3f 90 61 81 3f
       0.9624169 0.9539298 0.9652503 1.0107899
0000a0 40 64 82 3f 26 99 7b 3f 1c b5 7a 3f 78 c3 77 3f
       1.0186844 0.9828056 0.979326 0.96782637
0000b0 77 96 81 3f 29 82 78 3f ac 79 70 3f c3 13 7a 3f
       1.0124043 0.9707361 0.93935657 0.97686404
0000c0 02 ca 7d 3f 78 0d 82 3f 78 05 82 3f 08 8b 71 3f
       0.99136364 1.016036 1.0157919 0.9435277
0000d0 6f 04 72 3f 67 58 79 3f 04 94 75 3f 0b e1 79 3f
       0.94538015 0.97400516 0.9592898 0.97609013
0000e0 32 75 7c 3f ec 97 80 3f 2a d8 6b 3f 2a 3d 7b 3f
       0.98616326 1.0046363 0.92126715 0.98140204
0000f0 73 61 7f 3f 16 2d 74 3f ed ff 76 3f 42 5b 7e 3f
       0.9975807 0.95381296 0.9648426 0.99358

encoder.bn2.bias f4 [64]
000000 bd 53 01 bb 3b 91 87 bd b0 8c 44 3b f4 b6 f8 bc
       -0.001973375 -0.066194974 0.0029991083 -0.030360676
000010 8e e3 e9 bc ff a8 36 bb 1e 89 db bc 30 d1 7c 3c
       -0.02855089 -0.0027871726 -0.026798781 0.015430734
000020 66 5e df bc 37 c1 02 bd ac 88 af bc dd ff 8a bc
       -0.027266692 -0.031922545 -0.021427475 -0.016967708
000030 e6 0a 50 bc fa d8 42 bd 87 21 2e bc a9 fd 3a bc
       -0.012697911 -0.047570206 -0.010628111 -0.011413016
000040 9a dd 46 bd 4f b8 cb bc 7e f6 15 bd 1f 77 82 bd
       -0.04855118 -0.024868159 -0.036612026 -0.06370377
000050 cb 7a a8 bc 83 49 80 bc 30 e1 41 bd 3b 77 89 bd
       -0.020566365 -0.015660053 -0.047333896 -0.067121945
000060 7a 0b 35 3a 9b fe fe bc 62 e1 ab 3c 4a fd 0b bd
       0.0006906312 -0.031127265 0.020981494 -0.034177102
000070 54 fc 02 bd 4a 44 80 bc 1d e6 ae bb 23 5d 2e bd
       -0.03197892 -0.015657563 -0.0053374902 -0.04256929
000080 ba 5a fd bb d2 e8 d6 bc 8f 93 01 be 21 0e 77 bd
       -0.0077317627 -0.026234064 -0.12653945 -0.06031621
000090 c6 47 80 bd 3b 04 f2 bb 9e 4f c0 bc ce dc cf bc
       -0.0626369 -0.007385758 -0.023475464 -0.025373843
0000a0 c4 0f e1 3b f4 05 44 bd 72 6e 53 bc b8 cb 23 bc
       0.0068683345 -0.04785724 -0.01290475 -0.009997301
0000b0 b8 6a 2c bc 50 cc 43 bd 58 6c 19 bd 2d 1d 83 bc
       -0.010523491 -0.04780227 -0.03745684 -0.016005123
0000c0 ee 2b 21 bc 69 80 e8 bc 90 0a fd 3c a6 5c 35 bd
       -0.009837134 -0.028381543 0.030888826 -0.04427781
0000d0 a2 f4 3f bd 4e 66 2d bc 72 d1 01 bd ed e0 a2 bd
       -0.04686416 -0.010583473 -0.031693883 -0.079530574
0000e0 cf f1 d2 bc b0 01 0d bc 27 90 17 bd 20 d2 5d bd
       -0.025750069 -0.008606359 -0.03700271 -0.05415547
0000f0 b1 61 32 bc 69 e6 f0 bc f2 1c 89 bd 9f f7 e3 bc
       -0.010887549 -0.029406743 -0.06694974 -0.027828036

encoder.bn2.running_mean f4 [64]
000000 91 d6 56 be 18 4a 01 3e f6 82 2c be 59 31 40 bf
       -0.20980288 0.12625921 -0.16846833 -0.750753
000010 2a 5f 2f 3f b1 21 5f 3d 78 3b f8 3e f4 01 d0 be
       0.68504584 0.05447549 0.4848287 -0.4062649
000020 91 dc af bd 92 cb 67 3b d2 a6 2b 3f 2d 70 40 bf
       -0.085869916 0.003536914 0.6705142 -0.75171167
000030 a0 36 23 bd e3 d3 1b 3f 41 78 b7 3e 8c 8d 1a bf
       -0.039847016 0.6087019 0.35833934 -0.60372233
000040 22 d7 94 3b 62 06 7a 3e b7 3b c4 3d 43 0e 4a 3f
       0.0045422474 0.24416497 0.09581702 0.7892801
000050 1e ee 1d 3f 00 d4 be 3e 28 b6 75 3f 8f c0 62 bd
       0.61691463 0.37271118 0.95981073 -0.05535942
000060 73 0b 79 be 85 12 b3 bc 6c 2e 3a bf d2 4f cb 3e
       -0.24320774 -0.021859417 -0.72727084 0.39709336
000070 ef e9 28 bf 80 ee 2d bf d3 ce 00 3e f8 d9 29 be
       -0.65981954 -0.6794205 0.12578897 -0.16587055
000080 40 9a 8b 3f b2 77 e7 bd c8 3e 70 3f 16 48 9b bd
       1.0906448 -0.11302127 0.93845797 -0.07582109
000090 c0 f7 b7 bd 15 30 62 3d 3a 1c e1 be 6b 28 3b be
       -0.089828014 0.055221636 -0.43966848 -0.18277137
0000a0 0e 59 78 3c 41 12 94 be d5 74 03 3f 71 b4 b8 3e
       0.015157951 -0.28920177 0.51350147 0.36075166
0000b0 54 35 6c bd d6 da 72 3d c4 64 ef be 8f 92 61 3e
       -0.057668045 0.05929073 -0.46756566 0.22028564
0000c0 30 35 da be cd e9 39 be cd b7 e3 3e c3 e5 b8 3d
       -0.42618704 -0.18155594 0.44476166 0.090281986
0000d0 03 49 f4 3e 53 d5 64 be c7 d2 df be 73 06 a0 3d
       0.47711954 -0.22347002 -0.43715498 0.0781373
0000e0 ec b0 4c 3e 03 a3 ae be b7 3a f7 3d 79 a8 d7 bd
       0.19989365 -0.34108743 0.12071746 -0.105301805
0000f0 2a 04 8f be aa 4f 19 bf 52 62 90 be 7e da 35 3e
       -0.27932864 -0.5988718 -0.28200012 0.1775913

encoder.bn2.running_var f4 [64]
000000 62 66 28 3e e9 fb b0 3d a5 dc 4b 3e 98 d5 32 3e
       0.16445306 0.08641798 0.19908388 0.17464292
000010 1a 9e 21 3e e5 49 c4 3d 4c 93 dd 3d 26 69 1f 3e
       0.15782967 0.09584407 0.1081911 0.15567455
000020 aa 73 09 3e 74 e5 28 3e a6 40 0e 3e 9a 48 6b 3e
       0.13423029 0.1649378 0.13891849 0.22976914
000030 d3 97 e7 3d 40 93 16 3e 52 cc 55 3e c0 17 81 3e
       0.11308255 0.14704609 0.20878723 0.25213432
000040 3c 80 46 3e 06 00 4d 3e 5d 0e 41 3e 97 ae 5e 3e
       0.19384855 0.2001954 0.18853135 0.21746288
000050 0d e7 fe 3d 3e 58 ac 3d 2b ce 53 3e 92 7a c7 3d
       0.12446413 0.08415268 0.20684116 0.09740175
000060 02 0d 0a 3e 0b 21 21 3e 18 ee ab 3e 80 31 13 3e
       0.13481525 0.15735261 0.3358009 0.14374352
000070 5b 80 8b 3e c8 8d 68 3e 17 de c8 3e 92 f6 8e 3d
       0.27246365 0.22710335 0.3923194 0.06980623
000080 c3 a3 07 3f e3 0f 5c 3e 6a d0 6f 3e 0f d5 52 3d
       0.52984256 0.21490435 0.23419347 0.05147272
000090 5b e4 1e 3e 74 60 6f 3e f0 5f 8a 3e 15 60 16 3e
       0.15516798 0.23376638 0.2702632 0.1468509
0000a0 c6 49 ce 3d f2 71 56 3e ad 6f a8 3e 25 31 17 3e
       0.10072665 0.20941904 0.32897702 0.14764841
0000b0 17 87 dc 3d f1 7a ac 3e 86 a7 8a 3d c2 a8 1c 3e
       0.10767954 0.33687547 0.06770234 0.15298751
0000c0 99 28 57 3e 12 94 51 3e ff f0 b0 3d 5a fc 14 3e
       0.2101158 0.2046664 0.08639716 0.1454939
0000d0 6b 37 ec 3d 33 37 37 3e 96 68 97 3e 47 d3 d3 3d
       0.11534008 0.1789215 0.2957198 0.10343032
0000e0 45 4e 2c 3e 83 ac d8 3d fe eb 3a 3e 08 dd d7 3d
       0.16826732 0.10579779 0.18254086 0.10540205
0000f0 0c 23 86 3e d6 68 2a 3e 50 f9 f7 3d 09 5c 88 3e
       0.26198614 0.16641554 0.121080995 0.26632717

encoder.conv3.weight f4 [128, 64, 5]
000000 7f 1a b7 3b 90 e2 46 bc de e8 9c 3c 1d 9e ca bc
       0.0055878754 -0.012138978 0.019154008 -0.024733597
000010 2c 43 aa bc 8f 03 0d bc b9 5c 8b 3c ba 36 1d 3d
       -0.020783983 -0.0086068055 0.017011987 0.03838227
000020 2d 46 67 ba 19 73 05 bd 9a f2 0f bd 7a ff 3d bd
       -0.00088224077 -0.03258047 -0.035143472 -0.04638622
000030 e8 bc 72 3c 8a 77 d3 3c b0 ea 8e 3c 6a 97 27 bd
       0.014815547 0.025813837 0.017445892 -0.040915884
000040 16 4b 57 3b 9a 80 29 bd b4 45 b0 bc 13 3a 16 3d
       0.0032851151 -0.04138241 -0.021517612 0.036676478
000050 65 de 9b 3c 15 38 c4 3c b9 e8 bd 3a 9f 01 ff 3c
       0.019026944 0.023952523 0.0014488912 0.031128703
000060 5f e0 0e 3d 21 a0 5a 3d c4 01 40 3d e4 68 7c 3d
       0.034881946 0.053375367 0.046876684 0.06162347
000070 02 62 fc 3a e3 77 74 3d 8e 66 0b bd f0 b6 34 3b
       0.0019255283 0.059684645 -0.03403335 0.002757486
000080 44 30 2c 3d 3e a4 7d bc 22 84 dc 3c 96 0b e5 bc
       0.042038217 -0.015481053 0.026918475 -0.027959626
000090 f4 5b 42 3d ec 29 c8 b9 dc 69 54 bc 85 67 0a 3d
       0.047450975 -0.00038178207 -0.012964692 0.03379013
0000a0 38 d4 54 bd 50 57 dd bc dd c5 24 bd 59 cf 65 bd
       -0.0519602 -0.027019173 -0.04022776 -0.056105945
0000b0 f6 1f c6 bc 27 2a 72 bd 0f 39 3b bc f7 fa 1d 3d
       -0.024185162 -0.05912223 -0.011427178 0.038569417
0000c0 44 76 14 bd 62 92 3c bd 90 a4 f3 bc 6e 56 35 3d
       -0.0362456 -0.04603804 -0.029741555 0.04427188
0000d0 80 e8 c2 3c 2d 3c 23 3d b6 b6 cc 3c 8a 2a b9 bb
       0.023792505 0.03985231 0.024989467 -0.005650823
0000e0 22 39 57 3c e0 50 03 3b 18 fc 38 3d 13 ef 2a bd
       0.01313618 0.002003722 0.04516229 -0.041731905
0000f0 67 81 4b bd c7 c0 4c 3b f8 e7 fc 3c 79 f9 c4 3c
       -0.049683955 0.0031242834 0.03087233 0.02404474
000100 87 2c 12 3d ce 9d 8a bd 92 39 32 bc 6a cd bd bb
       0.035686996 -0.0676838 -0.010877984 -0.0057923095
000110 3a 22 93 3c 92 96 67 3a 98 57 12 3d 9c 00 dc 3c
       0.017960656 0.00088343874 0.035728067 0.02685576
000120 7f 18 48 bc cc 16 10 3d f3 15 9d 3c d9 1e 24 3d
       -0.012212872 0.03517799 0.019175505 0.04006848
000130 05 a8 9e 3c c2 1f 3f bc 5f 03 15 bd ca 9e 0c 3d
       0.019367227 -0.0116652865 -0.036380168 0.03433112
000140 75 91 36 bc 6d 01 7a bc aa 07 5e 3d e0 19 78 bc
       -0.011143078 -0.015259129 0.054206528 -0.015142888
000150 ad d7 e7 3c c3 71 6b bc 07 6a 34 3c 49 1e 25 bc
       0.028301084 -0.014370385 0.011011607 -0.010078021
000160 1f 27 0c bd ab 81 9e bd 90 eb 0d bd 80 73 b5 bc
       -0.034216996 -0.07739576 -0.034648478 -0.022149801
000170 cd 96 16 bd 7e b5 04 bd 23 3f 43 3d aa 04 f4 3a
       -0.03676491 -0.032399647 0.047667634 0.0018617113
000180 6c dc cb 3a c8 a3 3f bd 7c 89 1c bd 10 ae ed bc
       0.0015553362 -0.046787053 -0.038217053 -0.029013664
000190 25 2f 11 bd a3 88 fa bc 25 d3 97 bc 79 4b b1 bc
       -0.03544535 -0.030582732 -0.018533299 -0.021642433
0001a0 7b 4c 55 bc 2d 2c 3f bd 51 64 bd bb 3a 09 50 3b
       -0.013018723 -0.04667299 -0.005779781 0.003174378
0001b0 dd 89 51 bd 39 2b 40 bd bc 63 07 3d 9b db 5f bd
       -0.051156867 -0.04691622 0.0330541 -0.05465279
0001c0 6d 14 8d 3c 6f 8c 77 bd f9 87 d1 3c 49 b6 f5 bc
       0.017221654 -0.060436662 0.025577532 -0.029994147
0001d0 2b 50 2d 3a e0 df da bc c7 a5 b7 ba fe 44 dd 38
       0.0006611372 -0.02671808 -0.0014011197 0.00010550952
0001e0 99 45 5e bd f4 df 42 bd c0 b0 53 bc 21 02 fb bc
       -0.054265592 -0.04757686 -0.012920558 -0.030640664
0001f0 3a ab 70 bd 8d 2c c0 3c 12 ce a4 ba e2 08 d1 bc
       -0.058757044 0.023458743 -0.0012573621 -0.025516931
000200 33 57 1c 3d c1 a0 04 3c a6 da 44 bc d7 dc 6c bc
       0.038169097 0.008094967 -0.0120150205 -0.014456949
000210 a8 b5 79 bc 1d 80 fd 3c 61 b5 3d 3d 99 5d fd bc
       -0.015241064 0.030944878 0.046315555 -0.03092842
000220 e3 1d 1b bd c3 6e 61 bd 5b a8 a0 3c 60 78 dc 3b
       -0.0378703 -0.05503727 0.019611528 0.006728217
000230 38 92 13 bd fc 03 87 bd f5 84 96 bb d1 22 ee bc
       -0.036028117 -0.06592557 -0.0045934864 -0.029069336
000240 aa 9c 40 bd 88 f8 60 bc 4e 5b cc bc 91 2e c4 bc
       -0.047024406 -0.0137311295 -0.024945881 -0.023947986
000250 d2 93 14 3b a5 d0 46 3c b4 8c 8a bc 4e 71 c5 3c
       0.0022671116 0.012134706 -0.016912796 0.02410188
000260 94 11 94 3c b2 d2 21 bd 9c f8 0f 3b ff 1e 12 3d
       0.018074788 -0.039507575 0.002196825 0.03567409
000270 a5 f8 9a bc a1 b9 27 bd 04 9f 2a 3d 2d 38 0d bd
       -0.018917391 -0.040948514 0.041655555 -0.0344774
000280 c5 75 26 bd f1 11 07 bc 72 bb 1a bc cc 42 34 bd
       -0.040639658 -0.008244024 -0.0094441045 -0.044009015
000290 4e e9 02 3d fb 7c 41 bc bb 27 55 3d 6d 1b 37 bc
       0.031960778 -0.011809583 0.052039843 -0.011175972
0002a0 6d 99 50 bd 84 a7 2a 3c 14 0b f6 3c 8a 15 dc 3a
       -0.05092757 0.010415915 0.03003458 0.0016791087
0002b0 7c ab 89 bc da d1 1a bc b7 99 5c bb 61 53 40 3d
       -0.016805403 -0.009449447 -0.0033660957 0.046954516
0002c0 7b c1 1c bd 23 1e 08 3c 97 4e 99 bc 49 11 73 3b
       -0.038270455 0.008307966 -0.018714232 0.003708916
0002d0 4f be fd bb 85 20 99 3c 5a 53 75 bc 7d 33 8d bc
       -0.007743634 0.018692264 -0.014973486 -0.017236466
0002e0 21 a8 33 bc 32 de ee bc e9 6e 3f bc 6c 0e 89 3c
       -0.010965378 -0.029158685 -0.011684158 0.01673051
0002f0 2f 9e 50 bd 10 93 0b 3d b5 6a c9 3b 03 3d 7c bd
       -0.050932106 0.034075797 0.0061467537 -0.061581623
000300 8e be 65 bc b2 d8 fa bc b5 7a 35 bd 4e f7 43 3d
       -0.014022483 -0.030620907 -0.044306476 0.04784327
000310 39 a0 bb 3d ac 27 7b 3d 90 0e a6 3d 5c 40 ce 3c
       0.091614194 0.06131713 0.08108246 0.025177173
000320 de be 04 bd ae d4 60 ba 36 b0 9b bb 04 60 80 3b
       -0.032408588 -0.00085766136 -0.0047512306 0.003917696
000330 a7 26 fc bc ff 63 0b bd a2 0e fa 3c ce 97 47 3d
       -0.03078015 -0.03403091 0.030524556 0.048728757
000340 d2 b1 36 bd b1 9c be bc 62 51 ae 3c 75 3a 1e 3d
       -0.044603176 -0.023268076 0.02127904 0.038629968
000350 52 e2 ca 3c 6a a2 e0 bc 76 a6 17 3c 6a af 3c 3b
       0.024766121 -0.027421195 0.009255996 0.0028791078
000360 0f d2 04 bc e0 66 ff bc 9d f4 0e bc 0e 79 c7 3b
       -0.0081067225 -0.031176984 -0.008725313 0.006087429
000370 1c cd 4f 3c d0 35 f0 3c 80 d4 6b 3d de 9b 74 3d
       0.012683179 0.029322535 0.057575703 0.05971896
000380 44 e0 81 3d c3 16 e7 3b c1 33 ec bb 1c 54 d0 3a
       0.063416034 0.007052274 -0.007208318 0.0015894207
000390 c2 90 68 3d 5d bf de 3c 51 1e 28 bd 80 f3 e6 3c
       0.056778677 0.027190858 -0.041044537 0.028192282
0003a0 00 fc 44 bc 2c 14 07 bc 6c a1 69 bc cc 21 ec 3c
       -0.012022972 -0.008244555 -0.014259677 0.02882471
0003b0 83 4d 12 3c 86 0f 69 3c d3 1d 0a 3d d0 a2 43 3d
       0.008929613 0.0142248925 0.03371985 0.047762692
0003c0 07 f4 30 3c b0 62 10 3d 18 da 9e bb e8 81 18 bd
       0.010800368 0.035250366 -0.004847776 -0.037233263
0003d0 1d 13 ee 3c 4c 2f 93 bc 51 f8 93 3c 28 27 ac 3c
       0.029061848 -0.017966889 0.018062742 0.021014765
0003e0 e2 c1 a2 3d 61 e7 20 3c 52 30 12 bd 6b fb 5b bd
       0.079471365 0.00982079 -0.035690613 -0.053706568
0003f0 fc ba 90 bc ae 9e 92 bd db cc ab bc 13 01 cc 3c
       -0.017667286 -0.07159172 -0.020971706 0.024902856

encoder.conv3.bias f4 [128]
000000 bf e8 8a 37 ba ac 9d b5 67 2f 15 36 ec c8 93 b5
       1.6559263e-05 -1.1747682e-06 2.2230322e-06 -1.101083e-06
000010 ca 09 d7 b5 4e 46 ac 35 be 40 cb 35 dc 04 e9 35
       -1.6021597e-06 1.283546e-06 1.5143521e-06 1.7361267e-06
000020 ca b1 4f b6 20 64 a3 b5 36 78 6e b6 c4 6e 03 b6
       -3.094889e-06 -1.2173587e-06 -3.5534736e-06 -1.9584995e-06
000030 b0 44 9f 36 32 3e 9d b6 00 ac d7 b5 20 ed 78 36
       4.7465655e-06 -4.686205e-06 -1.6068807e-06 3.7092905e-06
000040 91 26 9c b6 07 0c 84 b7 65 5d ac b6 6c d7 e1 b6
       -4.653652e-06 -1.5741227e-05 -5.136872e-06 -6.730601e-06
000050 f4 fa e4 b6 9f 50 11 b7 63 a6 61 b6 f6 2e d6 b5
       -6.8241443e-06 -8.661445e-06 -3.3624463e-06 -1.595791e-06
000060 5a 1c 2b b6 43 c6 15 36 69 5f 10 36 4b fa 05 b6
       -2.5497488e-06 2.2318134e-06 2.1513208e-06 -1.9964234e-06
000070 20 ee 35 b7 c2 0a f0 35 f1 a1 0e 37 7d 84 82 36
       -1.08438835e-05 1.7884524e-06 8.5015645e-06 3.8897256e-06
000080 20 f9 f5 33 95 6f c5 b5 ae 5f 4e 36 af 87 a4 36
       1.1454017e-07 -1.4710118e-06 3.0752085e-06 4.9033765e-06
000090 46 83 8b 35 4b 39 1c b6 59 03 07 37 b0 2d 40 b6
       1.0394513e-06 -2.327916e-06 8.0474065e-06 -2.8636823e-06
0000a0 9e d8 bf 36 0e 54 0f b6 09 31 1b 37 c3 d0 72 b5
       5.717461e-06 -2.1357587e-06 9.250137e-06 -9.0455814e-07
0000b0 5a b5 a6 b6 08 64 a3 b6 f8 5d f8 b6 4c 21 c9 36
       -4.9682976e-06 -4.8694237e-06 -7.4019154e-06 5.994143e-06
0000c0 13 e1 8c 36 aa c9 1b 35 ac 0a 09 37 4d 3b 24 36
       4.198527e-06 5.803546e-07 8.168321e-06 2.4472422e-06
0000d0 72 bf 34 b6 6e 3b e1 b5 16 71 f9 35 40 50 5e 36
       -2.6933526e-06 -1.6781103e-06 1.8584858e-06 3.312729e-06
0000e0 da 2d 89 36 a0 f1 cd 33 da e6 4f 36 97 20 f5 36
       4.088256e-06 9.590008e-08 3.0979777e-06 7.305363e-06
0000f0 b3 be 5d 36 8c fc 02 b6 ac c7 0f b5 f0 53 cb b5
       3.3042568e-06 -1.9518511e-06 -5.356221e-07 -1.5149108e-06
000100 73 fe 28 b6 a8 94 d6 35 74 c1 16 b4 c4 76 f5 b6
       -2.518206e-06 1.5987507e-06 -1.4040216e-07 -7.315395e-06
000110 6b 15 11 b5 90 e2 50 b6 4a 23 3f 37 78 d6 a5 36
       -5.4047877e-07 -3.1126292e-06 1.13927035e-05 4.9423506e-06
000120 fc 51 22 b4 4c 44 c4 b5 8e bd 19 36 00 3b 2c b6
       -1.5117251e-07 -1.4623015e-06 2.2909112e-06 -2.566434e-06
000130 71 49 38 b5 68 61 42 34 5e 6e dd 34 8b 6b bc 36
       -6.865221e-07 1.8103094e-07 4.124476e-07 5.6153563e-06
000140 5b a4 fe b6 86 15 24 b5 fa d8 cb b6 d7 56 98 b5
       -7.5889234e-06 -6.112608e-07 -6.075131e-06 -1.1350156e-06
000150 f7 f9 49 b6 3c a1 f9 b6 d7 5d b1 b6 d0 e4 91 b5
       -3.0096833e-06 -7.4395484e-06 -5.2859355e-06 -1.0869935e-06
000160 9f a4 81 36 c1 8b 52 b6 da ce 2d b6 80 b8 9b b7
       3.863664e-06 -3.1373786e-06 -2.5899412e-06 -1.8563354e-05
000170 5a 4f 5b b7 33 15 bb b3 75 51 0c b6 70 6e 43 36
       -1.3071893e-05 -8.711722e-08 -2.090904e-06 2.9121547e-06
000180 ad 58 58 35 c0 79 93 36 a9 d8 92 b6 56 6c 82 b6
       8.059531e-07 4.395115e-06 -4.3763616e-06 -3.886914e-06
000190 66 c6 9d 34 ac 6d df b6 06 f4 a6 b5 1f 5d b8 b6
       2.9387883e-07 -6.6586854e-06 -1.2438984e-06 -5.494468e-06
0001a0 0a d8 36 36 51 90 7c 36 cd ef ee 36 f0 99 56 37
       2.7245865e-06 3.763493e-06 7.120869e-06 1.2791235e-05
0001b0 9f 79 71 36 d4 f9 bf b5 f7 b9 25 37 b7 02 58 b6
       3.5982591e-06 -1.4303318e-06 9.878065e-06 -3.2188088e-06
0001c0 26 b9 2d b6 b0 79 c4 36 ca 65 34 b7 cc d6 09 37
       -2.588678e-06 5.8554215e-06 -1.0752536e-05 8.215848e-06
0001d0 45 39 d8 35 4e 32 89 36 ac bb 6a 37 f7 b9 1e b6
       1.6109922e-06 4.0887744e-06 1.3991183e-05 -2.365208e-06
0001e0 77 6b cb b5 fb 43 c8 b5 93 ac 33 b7 3e ca 04 36
       -1.5155955e-06 -1.4920946e-06 -1.0709412e-05 1.9787253e-06
0001f0 44 9d 59 b5 a7 52 7d b6 08 9c e7 b6 d3 9d 12 36
       -8.106765e-07 -3.7748048e-06 -6.902501e-06 2.184756e-06

encoder.bn3.weight f4 [128]
000000 6a 06 90 3f 87 08 8e 3f 58 c4 8d 3f 30 65 8e 3f
       1.1251957 1.1096352 1.1075544 1.112463
000010 10 30 8b 3f 11 f0 90 3f 43 db 85 3f 6f dc 86 3f
       1.0874043 1.1323262 1.0457538 1.0536021
000020 a4 83 85 3f ae f6 89 3f 4e 56 8a 3f 3c 88 89 3f
       1.0430799 1.0778406 1.0807588 1.07447
000030 7f 26 8b 3f 37 18 86 3f 54 9c 8b 3f ff 78 8a 3f
       1.0871123 1.047614 1.0907083 1.0818175
000040 65 40 8b 3f fe ac 8b 3f 47 43 8a 3f a1 3c 8d 3f
       1.0879027 1.0912168 1.0801781 1.1034127
000050 ed 76 89 3f 93 de 8c 3f 24 1e 86 3f a4 f1 88 3f
       1.0739418 1.1005424 1.0477948 1.0698743
000060 99 ed 92 3f b8 8f 8b 3f ae 72 8c 3f cd 4a 7f 3f
       1.1478759 1.0903234 1.0972497 0.9972351
000070 b5 78 89 3f 4b d7 8b 3f 10 9b 86 3f c4 10 8f 3f
       1.0739962 1.0925077 1.0516071 1.1176991
000080 13 74 87 3f fb 6d 8c 3f 25 93 86 3f 56 23 8a 3f
       1.0582298 1.0971063 1.0513655 1.0792034
000090 15 f4 82 3f 09 74 8c 3f c3 bc 8a 3f 69 19 87 3f
       1.0230738 1.0972911 1.0838856 1.055463
0000a0 d0 4d 8c 3f 0b 81 8b 3f 42 d9 82 3f 7e 47 81 3f
       1.0961246 1.0898756 1.0222552 1.0099943
0000b0 1a 88 87 3f c3 40 8b 3f 75 dc 8c 3f e3 d7 89 3f
       1.058841 1.0879139 1.1004778 1.0769008
0000c0 f7 03 88 3f 65 1c 8b 3f b8 6e 88 3f 4a d0 86 3f
       1.062621 1.086804 1.0658789 1.0532315
0000d0 0b c7 8e 3f 04 4b 84 3f 69 84 90 3f 83 40 8f 3f
       1.1154493 1.0335393 1.1290408 1.1191562
0000e0 db dc 85 3f 63 bf 8e 3f ec 2d 8e 3f 47 ba 8a 3f
       1.0458025 1.1152157 1.1107764 1.0838097
0000f0 22 b1 88 3f 67 23 84 3f e7 29 8a 3f 74 fc 92 3f
       1.0679057 1.0323304 1.0794038 1.1483293
000100 c9 ec 8b 3f d4 19 8d 3f d9 b9 85 3f 5c 16 8a 3f
       1.0931636 1.1023507 1.0447341 1.0788074
000110 ac b0 87 3f 3e 5b 88 3f 5e 4a 8c 3f c3 89 8c 3f
       1.0600791 1.0652845 1.0960195 1.0979542
000120 ee b8 7f 3f bd 5b 89 3f c7 ad 83 3f 09 73 82 3f
       0.99891555 1.0731121 1.0287408 1.0191356
000130 e8 ec 8e 3f e1 c1 85 3f 5b 5a 8a 3f 71 72 90 3f
       1.1166048 1.0449792 1.0808824 1.1284925
000140 21 f7 8c 3f f9 cb 89 3f 99 6b 8f 3f e3 3e 88 3f
       1.1012918 1.0765373 1.1204711 1.0644192
000150 4c d3 8e 3f 59 28 8b 3f 16 61 89 3f b6 60 8b 3f
       1.1158233 1.0871688 1.0732753 1.0888889
000160 ee 9f 87 3f a5 10 8e 3f 94 38 8c 3f 8b c5 87 3f
       1.0595682 1.109883 1.0954766 1.060716
000170 6f 43 88 3f c6 32 87 3f 5f f4 86 3f 5f 8c 89 3f
       1.0645579 1.056237 1.0543326 1.0745963
000180 0e 97 8a 3f 90 96 8a 3f dc e3 84 3f e3 3d 81 3f
       1.0827348 1.0827198 1.0382037 1.0097011
000190 a9 58 8a 3f 8b 8c 89 3f b8 a2 86 3f 85 a1 82 3f
       1.0808307 1.0746015 1.0518408 1.0205542
0001a0 69 2a 78 3f b7 6c 8d 3f 27 7a 85 3f f3 9b 8f 3f
       0.9693971 1.1048802 1.0427903 1.1219467
0001b0 b7 f7 89 3f fd be 8a 3f 9a 38 8d 3f 6a 4d 88 3f
       1.0778722 1.0839535 1.1032898 1.0648625
0001c0 00 09 83 3f 25 c8 96 3f 59 e8 8a 3f cd dc 89 3f
       1.0237122 1.1779829 1.0852157 1.0770508
0001d0 64 ad 87 3f cf d6 89 3f cf 01 88 3f 9b 31 8d 3f
       1.059979 1.0768679 1.0625552 1.1030763
0001e0 b3 1d 88 3f 9b 8c 88 3f 14 4e 8c 3f d9 3c 89 3f
       1.0634063 1.0667909 1.0961328 1.0721694
0001f0 58 ab 89 3f 4c aa 8f 3f 85 65 8a 3f 2b c0 8a 3f
       1.0755415 1.1223845 1.0812231 1.0839895

encoder.bn3.bias f4 [128]
000000 a3 5b 00 3e 58 4c ba 3d 06 95 d4 3d 9e 85 0c 3e
       0.12534957 0.09096593 0.103799865 0.13722846
000010 c2 2d b8 3d 90 8c e2 3d 29 5f f7 3d 89 69 48 3d
       0.089931026 0.110619664 0.12078697 0.04892877
000020 b8 76 0b 3d d3 ae c0 3d fe c9 b6 3d d4 cf 81 3d
       0.034048766 0.09408345 0.08925246 0.06338468
000030 ec 07 85 3d 82 20 88 3d ac 96 13 3e 65 3f 58 3d
       0.064956516 0.066468254 0.14412946 0.052794833
000040 0a 54 cd 3d 12 a3 fb 3d 49 a8 8d 3d 6a 50 d2 3d
       0.10025795 0.122869626 0.069168635 0.10269244
000050 28 d1 a1 3d f9 fb 99 3d a2 7a 77 3d e4 ca 9c 3d
       0.079012215 0.07518763 0.060419686 0.07655886
000060 a2 62 88 3d ec 30 af 3d 25 22 81 3d dc 8f 80 3d
       0.06659438 0.08554253 0.06305341 0.06277439
000070 94 0a b5 3d df 60 fd 3d 92 1c 3c 3d 72 4a a0 3d
       0.08839908 0.12371992 0.045925684 0.07826699
000080 08 03 7d 3d ef 69 23 3d 54 c1 59 3d 1e fe 74 3d
       0.06177047 0.039895948 0.053162888 0.059812658
000090 94 82 6d 3d 3b 46 04 3e fb 89 9d 3d db 96 06 3d
       0.057985857 0.12917416 0.07692333 0.03285871
0000a0 c5 34 63 3d 19 28 c8 3d a5 3a 50 3d bb 2b b7 3c
       0.055470247 0.09773273 0.050837178 0.02235972
0000b0 68 e3 87 3d 2e 37 bd 3d 87 7d 9b 3d d5 ce 94 3d
       0.06635171 0.0923904 0.07592302 0.072660126
0000c0 d3 b6 5f 3d 80 c9 12 3d 14 70 af 3d 8d 6d 74 3d
       0.054617714 0.035836697 0.08566299 0.05967479
0000d0 84 97 e0 3d 85 e5 56 3d 96 74 b1 3d b3 9e a3 3d
       0.10966399 0.05246498 0.08664815 0.07989254
0000e0 d1 3a ed 3d a7 1d 03 3e 51 b8 a2 3d ac 99 f3 3d
       0.11583484 0.1280428 0.07945312 0.11894545
0000f0 91 59 7a 3d 13 dc 35 3d 3e 97 bc 3c 9e ff e2 3d
       0.061120573 0.044399332 0.023021337 0.11083911
000100 2c 82 a4 3d ce b9 dc 3d f5 57 8b 3d 04 0b a7 3d
       0.08032641 0.10777627 0.06803886 0.08156398
000110 d1 92 d9 3d 9f 0a 43 3d ff df 96 3d f5 07 b9 3d
       0.10623706 0.04761755 0.073669426 0.09034721
000120 7a 9b 5d 3d 3f de d4 3d 64 71 b6 3d d3 c6 db 3c
       0.054103352 0.103939526 0.08908346 0.026828205
000130 5b 42 e5 3d ec 75 b3 3d bc 95 8d 3d 77 a4 98 3d
       0.11194297 0.08762726 0.06913325 0.07453244
000140 c0 3c ca 3d 63 cf c2 3d 26 b7 a8 3d 2a a8 74 3d
       0.098748684 0.09512212 0.08238058 0.059730686
000150 d1 91 eb 3d 34 1f 70 3d a3 10 96 3d be fb ba 3d
       0.11502422 0.058623508 0.07327392 0.09130047
000160 9c 31 6b 3d e3 bf f8 3d f7 5b c8 3d 04 62 f1 3c
       0.057420358 0.121459745 0.09783166 0.029465683
000170 16 58 56 3d fc 2d 95 3d 81 44 ac 3d 37 81 15 3e
       0.0523301 0.072841614 0.084115036 0.14600073
000180 d0 1b 61 3d a1 4e dd 3d 8e 2c 73 3d d3 43 9d 3d
       0.054958165 0.10806013 0.059368663 0.07678952
000190 52 69 a2 3d 5b 10 d2 3d 8c 00 ea 3d c1 e4 7b 3d
       0.079302445 0.10257026 0.114258856 0.061497454
0001a0 1f 33 ad 3d 7b 05 0b 3e 19 62 77 3d 78 f0 6f 3d
       0.08457016 0.1357631 0.060396288 0.05857894
0001b0 ea f8 c7 3d c9 b6 7d 3d 59 4f 22 3e 52 bb df 3d
       0.097642735 0.061941896 0.15850581 0.109244004
0001c0 7e a5 29 3d 97 f0 e7 3d 9d a9 df 3d 9f 07 40 3d
       0.04141759 0.11325186 0.10921023 0.046882268
0001d0 5f 6f db 3d 96 16 7c 3d b5 0d e6 3c 2a cc 97 3d
       0.10714602 0.061544977 0.028082708 0.07411988
0001e0 df 9a 81 3d 16 75 65 3d 2c 63 e2 3d 10 f8 e1 3d
       0.063283674 0.056019865 0.11054072 0.11033642
0001f0 50 d5 0e 3e ef 79 e9 3d fc a2 54 3d 4e 8b 60 3d
       0.1394856 0.1140021 0.051913247 0.05482035

encoder.bn3.running_mean f4 [128]
000000 b7 eb 90 be 4a 61 9b be ec b3 62 3e f4 5f cc bd
       -0.28304836 -0.30347663 0.22138947 -0.09979239
000010 0f 05 94 be 18 d1 92 3d c3 00 1c bb f5 83 c3 bd
       -0.2891011 0.07168788 -0.0023804165 -0.09546653
000020 08 7e 65 be b8 8d bd be dc f7 2d bd 19 f0 83 3e
       -0.22411358 -0.37022185 -0.042472705 0.25769117
000030 02 2c d7 bd b1 47 6e 3e bf e4 e1 3d e3 ff 69 bc
       -0.10506441 0.23269536 0.11029958 -0.0142822
000040 40 cf 99 be ca 44 92 be ec 19 43 be 77 e7 21 be
       -0.30040932 -0.28568107 -0.19052857 -0.15810953
000050 65 f7 60 3d b1 ee 22 3d f6 5e 17 bf e7 0f 92 3e
       0.054923434 0.039778415 -0.59129274 0.28527758
000060 14 8d b0 3e 69 dd a0 3d ca 96 c9 bd 0f 80 a3 3d
       0.34482634 0.07854731 -0.09843214 0.079834096
000070 af ac a7 be 8d 2d 46 be 86 25 86 bb a3 94 0c 3c
       -0.32748935 -0.19353314 -0.0040938286 0.00858036
000080 80 e6 60 be 25 d0 92 bd 64 ef f4 3e 6f 0b 12 3d
       -0.21962929 -0.07168607 0.4783889 0.035655435
000090 ac 97 8d bd fa 97 86 bd 35 73 a1 3e 0f 8a 16 be
       -0.06913695 -0.06571956 0.31533208 -0.14701103
0000a0 74 93 b8 3d a5 e6 92 be cf 79 b6 bc 7e 76 7a 3e
       0.090124995 -0.28691593 -0.02227488 0.24459264
0000b0 60 e3 42 be 2f 4c 6d bd 51 09 68 be 5d c8 f4 3e
       -0.19032049 -0.057933982 -0.22659804 0.47809115
0000c0 65 2a a5 be 9d ba 93 be c2 91 94 be 45 52 0d 3e
       -0.32258907 -0.28853312 -0.29017454 0.13800915
0000d0 60 d1 46 bd 47 9f a9 3e ed ef 90 be ff 78 39 3e
       -0.04853952 0.3312933 -0.2830805 0.18112563
0000e0 fe a4 bf bc 95 df c4 3c 19 f8 4a bd f5 c0 3f bd
       -0.023394104 0.024032393 -0.04955301 -0.046814878
0000f0 ef 78 c9 be b9 a8 0c bd 63 18 f9 3d bf e3 1b bd
       -0.39350078 -0.034340594 0.121628545 -0.038058992
000100 2c 78 c2 3e 23 01 13 bd b8 23 09 be 97 57 2e be
       0.3798231 -0.035889756 -0.13392532 -0.170256
000110 f7 52 53 be 1a ba 58 be 57 c3 2a be 8d 07 25 bc
       -0.20637117 -0.21164742 -0.16676079 -0.010072601
000120 86 59 61 be e0 97 f9 be 68 e3 91 be 74 fd fd 3e
       -0.22006807 -0.48748684 -0.2849381 0.49607432
000130 1a 18 05 be c9 5e 05 3f f0 72 91 be 63 c2 86 be
       -0.12997475 0.52097756 -0.28408003 -0.2632018
000140 36 f0 9b be 04 19 d6 bd 23 51 17 bf 25 f9 cd be
       -0.30456704 -0.1045399 -0.5910818 -0.40229145
000150 1e 2f 9d bd be 46 bd bd e4 c6 57 3c a6 4d 4f 3e
       -0.076750025 -0.092420086 0.013169978 0.20244464
000160 9f 79 1f 3e c7 69 06 be e0 5c c3 be 72 6e b5 3e
       0.15573739 -0.13126288 -0.38156796 0.35435826
000170 97 c4 d4 3e b2 82 a0 bd aa 9f 21 be 7a 9e d0 bd
       0.41556236 -0.07837428 -0.15783563 -0.10186477
000180 4a 65 b1 3e c5 69 a8 be 0c a4 34 3f 3d 4d c8 bd
       0.3464759 -0.32893196 0.70562816 -0.09780357
000190 10 e5 36 be 87 3e ce bd 29 4b 91 be 57 ba a8 3e
       -0.17860818 -0.1007052 -0.28377655 0.32954666
0001a0 7a a8 a7 be 70 d9 70 be 4b 5d 29 3e a9 a2 1f be
       -0.32745725 -0.23520446 0.16539495 -0.15589394
0001b0 4b 95 fa be 00 f5 70 3e 78 02 39 be 6e 89 f9 be
       -0.48942026 0.2353096 -0.18067348 -0.48737663
0001c0 6b 93 09 3f b6 17 e9 bd 7d 93 c5 3d 46 37 e7 bc
       0.53740567 -0.113814756 0.09647272 -0.028224599
0001d0 5e 89 9c be 46 55 8f 3c d7 b9 36 bd 96 87 e9 bd
       -0.30573553 0.017496716 -0.044610824 -0.11402814
0001e0 93 80 ef 3e 40 52 43 be 5d b4 a0 be 00 7f ab be
       0.46777782 -0.19074345 -0.31387606 -0.3349533
0001f0 ab 54 7a 3d 71 cf a6 bd 81 43 0a bd 1a 0e 82 3e
       0.061115902 -0.08145035 -0.033755783 0.25401384
