wesad_baseline/src/checkpoints/baseline_cnn_10s.pt (torch, 665228 bytes, 48 tensors)

encoder.conv1.weight f4 [32, 8, 7]
000000 5c 2d f7 bc 81 84 9d bd 03 ad 46 3c a5 6f 75 3d
       -0.030172996 -0.07691289 0.01212621 0.059920926
000010 b2 3f 0e be d4 8b 87 3d 8c 09 39 38 02 9b 29 3d
       -0.13891485 0.06618467 4.411633e-05 0.041407593
000020 43 5e 64 bd f3 50 0b bc d6 83 c1 bc 67 fe 30 bd
       -0.055753957 -0.0085031865 -0.023622435 -0.043211367
000030 cf 25 d0 3b 01 cc ca 3d c5 17 c4 3d 06 b2 e3 bd
       0.0063521634 0.09902192 0.09574846 -0.1111794
000040 82 6e a4 bd 74 ba 83 3d f0 29 e3 bd 91 68 e9 3d
       -0.0802889 0.064320475 -0.11091983 0.113968976
000050 83 c1 ae 3d 1e 8f 91 bd 3f 16 dc bd a1 42 80 3c
       0.08533003 -0.071073756 -0.107464306 0.015656771
000060 4e 2c af 3d 7e f6 e5 bd 78 d5 74 3d 7d 29 9a bd
       0.08553372 -0.11228655 0.059773892 -0.075274445
000070 7d 28 9a 3d a1 0c bc bd e5 54 ba 3d e1 0d 36 3c
       0.07527254 -0.09182096 0.090982236 0.011111707
000080 07 8e 40 3d e0 61 94 bc 2d 3e 73 bd b7 3f eb bd
       0.047010448 -0.018113077 -0.059385467 -0.11486762
000090 38 32 be 3c 72 c9 82 3d e3 f6 42 bd 01 c5 36 3d
       0.023217306 0.06386079 -0.04759873 0.04462147
0000a0 4a 1c a0 3d 3a a7 29 3d 63 13 1a be be b0 93 bd
       0.07817896 0.041419245 -0.15046458 -0.07211445
0000b0 4c d8 74 3d 56 8d d5 bd 72 db fe bd dc 8a bb bd
       0.05977659 -0.10427348 -0.124441996 -0.09157345
0000c0 cc 47 fb bd 46 fb f6 bc 63 6a 1b 3d 6b 1a 88 bd
       -0.122695535 -0.030149113 0.037943255 -0.06645664
0000d0 2a 15 c2 bd 74 14 53 bd d3 72 c1 bc 32 df bf bd
       -0.09476693 -0.051533177 -0.023614323 -0.09368743
0000e0 be 0a 5e 3c 7c 3f aa bc 3c 6a e8 3d 2d a8 bd bc
       0.013552366 -0.020782225 0.113483876 -0.023151482
0000f0 22 8d 25 3d 9b 49 93 3c da 75 a6 3d 6c a6 1c bd
       0.040417798 0.017979434 0.08127947 -0.03824465
000100 2f 09 b7 bb dd 60 bb bd 1f 1c cc bc 89 39 c5 bd
       -0.0055858116 -0.091493346 -0.024915753 -0.096301146
000110 58 be 81 3d 0d f5 bc 3d 08 af 14 3c 78 94 dc 3d
       0.06335133 0.09226427 0.009074934 0.10770506
000120 f5 4c d1 3d 52 d1 b4 3c c1 c9 37 3d ba d9 50 b8
       0.102197565 0.022072468 0.044870142 -4.9793838e-05
000130 70 f3 82 3d ac b6 f3 bc a7 5b 6d bd a4 28 c2 3d
       0.06394088 -0.02975019 -0.057948735 0.09480408
000140 6e 6c 84 3d 39 e2 79 3d d5 62 dc bd 1d 43 0d bd
       0.06465994 0.06100676 -0.10761038 -0.034487832
000150 c1 45 40 3c ff 55 ec bd 8b 74 53 3d 68 9b 65 bd
       0.011735381 -0.1153984 0.051624816 -0.05605641
000160 b9 d2 22 bb 88 43 a8 bd 25 9c a6 3c a5 e7 a6 bd
       -0.0024844839 -0.082160056 0.020338127 -0.081496514
000170 98 40 1c bd 33 a4 aa 3d 78 64 06 3e a8 bc 3c 3c
       -0.03814754 0.083321 0.13124263 0.0115195885
000180 7a 73 fd 3d 42 85 00 be 4d f9 e8 bd 78 11 e9 3d
       0.12375541 -0.12550834 -0.11375675 0.11380285
000190 eb 3a 20 bd cd 8c 0d be 3a f1 72 3c 22 6d 09 bd
       -0.03911869 -0.13823242 0.014828021 -0.033551343
0001a0 36 c8 83 bd 82 14 7e bd fb 19 de bd a8 9e 9e 3d
       -0.064346716 -0.062031277 -0.10844799 0.07745105
0001b0 02 b6 78 3d 90 e2 03 3e b6 30 46 bc 2b 44 7c bd
       0.06072045 0.12879395 -0.0120965745 -0.061588448
0001c0 02 7e da 3c 8d 04 3d bd b8 4f 6e bd bc fc 02 be
       0.026671413 -0.046146918 -0.058181494 -0.12791723
0001d0 52 2c eb bd 90 18 43 3d 86 2e fc 3d bb c6 f3 3d
       -0.11483063 0.047630847 0.12313561 0.11903139
0001e0 35 7a f0 3d 74 15 e4 bd d7 8f c5 bd d7 74 af 3d
       0.11742059 -0.11136904 -0.09646576 0.08567207
0001f0 07 c6 94 bd 94 d1 f1 3d 8a f5 cd 3c e4 00 91 3d
       -0.07264333 0.11807552 0.025141496 0.07080248
000200 e8 32 c4 bc 6e 74 8c 3d 20 23 b9 bd b0 29 95 bc
       -0.023950055 0.06858145 -0.09039903 -0.018208355
000210 7e 66 0a 3d 31 f3 8b 3d 31 16 c2 3d 14 49 4d bc
       0.03378915 0.068334945 0.09476889 -0.01252963
000220 28 99 e6 bd c0 f1 39 bd 1c 5f 86 bc 3e 5c 58 bd
       -0.11259681 -0.045396566 -0.016402774 -0.052822344
000230 1e a1 76 bd 0b c7 7b 3d 0e c9 e9 bc f9 b6 94 bd
       -0.060212247 0.06146912 -0.028538253 -0.07261462
000240 dc da 97 bd 47 fa 8b bd 94 5e 9b bd ae 9d 72 bd
       -0.07414791 -0.06834846 -0.07586399 -0.059232406
000250 77 8f 4b bd 6d c0 bd bd 53 15 1f 3d 02 55 b8 bd
       -0.049697366 -0.09265218 0.038838696 -0.09000589
000260 c2 32 c5 bd 15 07 fb bd 2a e7 9b bd ad 8f 79 bd
       -0.09628822 -0.1225721 -0.076124504 -0.060928036
000270 56 67 7d bd 4d d2 e0 bd aa 96 e7 3c a2 2d d8 3d
       -0.061866127 -0.10977612 0.028270084 0.10555579
000280 64 c1 97 3d 32 6d a2 bd 08 6f 70 3d 87 7e 16 3d
       0.07409933 -0.079309836 0.058699638 0.03674176
000290 50 c0 94 3c d4 39 d3 bd e1 4e d1 bc 20 49 97 3d
       0.018158108 -0.10313764 -0.025550308 0.07386994
0002a0 57 d9 a5 3d 78 c9 04 3d ac bf 15 bd db 21 21 3d
       0.08098095 0.032418698 -0.036559746 0.039338928
0002b0 22 5a 8c 3d 46 2c d9 bd 58 85 06 3e 79 bc 54 3d
       0.06853129 -0.106041476 0.13136804 0.051937554
0002c0 64 57 29 bd 88 07 98 bd df fe a9 3d 02 97 39 bd
       -0.041343108 -0.074233115 0.08300566 -0.045310028
0002d0 07 86 d3 bd 58 f5 03 bd 56 4d 67 bd ff fd ef 3b
       -0.10328298 -0.0322164 -0.056470238 0.00732398
0002e0 5b e5 77 3d cf 3d d8 bc 54 b7 9d bd e2 32 85 3d
       0.060521465 -0.02639666 -0.07700983 0.06503846
0002f0 7c 6b 0e 3e 72 f9 bb bc 29 39 8c 3d 2e e2 64 3d
       0.1390819 -0.022946093 0.0684684 0.055879764
000300 cf 1c 72 bd b7 8e 37 bd 05 d2 83 bc 76 97 10 bd
       -0.059109505 -0.044813838 -0.016091356 -0.035300694
000310 e7 5f 7c 3b f4 22 b2 3d 26 6d 83 bb ff e7 7a bc
       0.003850931 0.08698073 -0.0040108142 -0.015314101
000320 95 17 be bb ec e0 6b bc e9 fe f9 3b ff 79 7e 3c
       -0.005801151 -0.014396887 0.0076292646 0.015532016
000330 c0 d8 e8 3d 5e 36 3b 3c a1 6f ab bd b0 2b a1 bd
       0.11369467 0.011426536 -0.08370901 -0.07869661
000340 2a 93 86 bd e8 7c 11 be 4d 32 bf bc 7c a1 c4 bd
       -0.06571038 -0.14207804 -0.023339415 -0.09601113
000350 74 f8 ff 3c 0b ea 00 bd f9 9b 8c 3d 63 99 9e 3d
       0.031246401 -0.0314732 0.06865687 0.077441
000360 66 6e a9 bd 5a 93 e4 3d ff 81 77 3d d3 0f 16 bd
       -0.0827301 0.111609176 0.06042671 -0.036636185
000370 32 9e 6b 3d af d6 8c bd 5e e7 0c be 2c 5b cb bb
       0.057523914 -0.06876885 -0.13760135 -0.006205937
000380 10 65 96 3d 58 31 86 bd 28 8d ff 3c 30 d5 ad 3d
       0.07343495 -0.0655238 0.031195238 0.08487928
000390 07 95 2c bd 2e ea 9f bd 2b c8 84 3d 36 85 98 bc
       -0.04213431 -0.07808338 0.064834915 -0.018618207
0003a0 5d 66 03 3e 1f 54 c5 bb 05 e0 90 bd c1 07 09 3e
       0.12832017 -0.006021991 -0.07073978 0.13381864
0003b0 6b e7 0c 3d 7d 7c ba bc a6 41 99 3d 30 0f a9 bd
       0.034400385 -0.022764439 0.074832246 -0.0825485
0003c0 53 95 b4 3d bb 53 fc bd 5c e6 c3 bd 5a 9b e4 bb
       0.08817544 -0.12320658 -0.09565422 -0.006976527
0003d0 90 0e c2 3d d2 25 9f 3d 41 52 6d 3d 55 e4 41 3d
       0.09475434 0.077708855 0.05793977 0.047336895
0003e0 fe fb 6d bd 92 5e 29 3d a2 a4 19 3d 29 a5 d8 3d
       -0.058101647 0.041349955 0.03751052 0.10578377
0003f0 a1 d4 a6 bd cb 41 cc 3c d5 02 a2 bc b2 7f 3a 3d
       -0.081460245 0.024933716 -0.019776741 0.045531936

encoder.conv1.bias f4 [32]
000000 12 23 c3 b7 69 af 37 3c c7 55 64 3d 63 22 23 3c
       -2.3262142e-05 0.011211255 0.055745866 0.009956929
000010 58 24 15 bd 07 4d 77 3d 90 99 38 bc 57 fd 6c bd
       -0.036411613 0.060376193 -0.011267081 -0.05785879
000020 bc 27 e6 bc 00 91 38 bd 49 67 01 ba 35 4c ba bc
       -0.028095119 -0.045060158 -0.000493635 -0.022741416
000030 22 a2 73 bd 5e 6c 91 ba eb b9 81 bc 1a 39 26 bd
       -0.059480794 -0.0011094918 -0.015835723 -0.0405818
000040 57 aa 5a 39 a2 6c 0d 3c ff ae 27 3d 9f a9 33 3d
       0.00020853557 0.008631857 0.040938374 0.043862935
000050 ff 73 5f 3a d4 af e7 b6 07 87 14 3c e5 53 28 bd
       0.00085240597 -6.9048056e-06 0.009065396 -0.041095633
000060 71 c0 9c 39 c2 e9 9e b7 20 d5 f1 3b 6e 26 67 bd
       0.0002989802 -1.894392e-05 0.007380143 -0.056433134
000070 62 dd 42 3d b3 21 50 bc 27 da ec b6 02 9a 66 bd
       0.04757441 -0.012703347 -7.0587444e-06 -0.056299217

encoder.bn1.weight f4 [32]
000000 b3 1e 7d 3f ed ae 7f 3f 28 95 81 3f 2c 1b 7e 3f
       0.9887497 0.9987629 1.0123644 0.9926021
000010 ca e7 7f 3f f4 f5 80 3f fc 11 80 3f 9b de 7a 3f
       0.9996306 1.0075059 1.0005488 0.9799592
000020 f0 12 7d 3f 50 66 7f 3f 59 ea 80 3f 3c f9 78 3f
       0.9885702 0.9976549 1.0071517 0.972553
000030 50 77 7b 3f e5 60 7e 3f 09 b0 7f 3f 78 8e 81 3f
       0.9822893 0.993666 0.99877983 1.0121603
000040 04 c3 7f 3f 4e 3e 7f 3f a9 e8 80 3f e6 a7 7f 3f
       0.99906945 0.99704444 1.0071002 0.9986557
000050 0d 18 80 3f e5 1f 81 3f d7 2b 7b 3f f6 02 82 3f
       1.000734 1.0087858 0.9811377 1.0157154
000060 d8 3c 7e 3f b7 a0 7f 3f a5 90 80 3f 65 b4 80 3f
       0.9931159 0.99854606 1.0044142 1.0055052
000070 c1 15 83 3f 29 9f 7e 3f de 31 7a 3f cc 25 80 3f
       1.0241014 0.9946161 0.9773234 1.0011535

encoder.bn1.bias f4 [32]
000000 e0 5c 1c 3c e2 3d cd 3a 36 1c b1 3c 90 35 a1 3c
       0.0095436275 0.0015658701 0.021619897 0.01967886
000010 f2 70 20 bb 0c 2f b6 3b b3 ca c7 3b 92 1a da 3b
       -0.0024481383 0.0055598076 0.0060971617 0.0066559995
000020 3e 78 ab bb b7 65 14 3c 15 2c 24 3c f3 8a 55 3c
       -0.00523284 0.009057454 0.010020276 0.013033616
000030 60 a8 31 bc 23 fc 04 3b 30 26 6a bc b5 cc b2 3b
       -0.010843366 0.0020291887 -0.014291331 0.005456532
000040 78 17 bd 3b b3 2f da bb 7f ed 87 3c 06 bf 98 3a
       0.00577062 -0.006658518 0.01659274 0.0011653609
000050 59 d5 2c bc ae 52 ae 3b 11 f0 07 bb 5e 27 c7 3b
       -0.010548913 0.005319915 -0.0020742456 0.006077691
000060 df da 1b 3c f0 6e 04 bb aa 6c 86 bc fd 85 70 bc
       0.009512632 -0.0020207725 -0.016409237 -0.014680383
000070 d9 a4 10 3c b2 96 a3 b8 c2 f0 40 bc ca e5 bf bc
       0.008828365 -7.800515e-05 -0.011776151 -0.023425002

encoder.bn1.running_mean f4 [32]
000000 d8 66 81 bd 24 e4 f7 bc eb 36 5f 3d 09 30 b9 bc
       -0.06318444 -0.030260153 0.054495733 -0.022605913
000010 d1 bc e7 3c 2c d3 22 3d f4 e1 21 bd 79 9f f6 bd
       0.028288277 0.03975217 -0.039522126 -0.12042136
000020 ea 39 54 bd 68 fc fe bc c2 7e 96 bc 85 3a a3 bc
       -0.051813044 -0.031126216 -0.01837099 -0.019925365
000030 a6 ee b7 bd 3b 39 66 3a f9 8d 90 bd 2f 1d c9 bc
       -0.089810655 0.0008782332 -0.07058329 -0.024550049
000040 22 5c 16 bc a6 85 05 3d c6 96 34 3d e1 a5 4c 3c
       -0.00917724 0.03259816 0.0440891 0.0124907205
000050 62 c0 22 3c 73 59 2b 3d 90 ff af 3b c5 62 97 3c
       0.009933563 0.041833352 0.0053710416 0.018479714
000060 65 15 ec bc da 9b 7b bd bb af 5d bc 59 26 f0 bd
       -0.028818795 -0.06142793 -0.013530667 -0.11726064
000070 91 7f 3b 3c d1 b6 95 3c e0 d4 8b bd 99 fd 07 be
       0.011443988 0.01827565 -0.06827712 -0.13280334

encoder.bn1.running_var f4 [32]
000000 00 71 c0 3e 11 11 b4 3e ee 0e 86 3e e0 95 03 3e
       0.37586212 0.3516927 0.26183265 0.12850142
000010 76 13 88 3e 21 b5 a8 3e d0 ea e2 3e 2b c0 89 3e
       0.26577348 0.3295069 0.44319773 0.26904425
000020 3e 1e 50 3e 3d 54 92 3d 5e 66 29 3e 21 04 8c 3e
       0.20324036 0.071449734 0.16542956 0.273469
000030 7a 18 98 3e 3d 7b bf 3e 69 59 5f 3e dd 7b 36 3e
       0.29706174 0.3739871 0.21811451 0.17820688
000040 6a 51 b4 3e db 01 4b 3e e9 d9 f9 3d c7 7c 66 3e
       0.35218364 0.19824927 0.12199766 0.22508536
000050 1f db ee 3e 29 37 85 3e 75 53 d7 3e 69 b1 45 3e
       0.4665155 0.26018646 0.4205586 0.19305958
000060 2c a6 e2 3d 9d b5 22 3e b3 0f 0b 3e ba ea 96 3e
       0.11066851 0.15889592 0.13580208 0.29475957
000070 80 df af 3e e2 54 af 3e 3d 81 97 3e ae 55 ab 3e
       0.34350204 0.34244448 0.29590788 0.33463806

encoder.conv2.weight f4 [64, 32, 5]
000000 83 c6 27 bd 79 07 ba ba b1 a6 88 3d 74 1e f2 3c
       -0.0409608 -0.0014192901 0.06672419 0.029555537
000010 51 3b 30 bc 34 bd b3 bc 11 2b 7e bd 67 e9 20 3c
       -0.01075633 -0.021940805 -0.06205279 0.009821272
000020 fb 59 24 bd f1 55 10 3d f5 75 86 bd 0a a8 88 3d
       -0.040124875 0.03523821 -0.06565467 0.06672676
000030 0d 31 2f bc 3a 38 8d 3c 5a 5e ae 3c 31 a2 76 bc
       -0.010692847 0.017238725 0.021285225 -0.015053318
000040 f4 a8 2c bd 26 1e 7b bd cc 08 80 3d 5d 98 07 bd
       -0.042153314 -0.06130805 0.06251678 -0.03310429
000050 f6 3a 06 bd fd 18 3e bc 3a cc 8a bc 13 49 46 bd
       -0.032771073 -0.011602637 -0.016943086 -0.048409533
000060 a5 c2 ca 3b 11 27 20 bb 2f 1d c9 3b 47 01 a7 3d
       0.006187754 -0.0024437348 0.006137512 0.081545405
000070 0e ad 8b bd 9b 8a 54 bc 57 76 56 ba 41 52 87 bd
       -0.06820117 -0.012972499 -0.0008181086 -0.066074856
000080 79 db 85 3b 56 ee b4 3c d1 81 a2 bd ad 31 09 3d
       0.004085001 0.022086304 -0.07934917 0.03349464
000090 03 ad c2 bb 49 29 25 3a db 04 c7 bc 5d 75 7c 3c
       -0.0059410348 0.00063004025 -0.024294307 0.015408841
0000a0 00 20 10 bc bd 77 70 bd cc 2d 8f 3d 1e 9c 0e 3d
       -0.008796692 -0.05870794 0.06991157 0.034816854
0000b0 3e 29 2f bc ee f9 03 3d 47 1d e8 3c 0a 06 51 bd
       -0.010690985 0.032220773 0.028334273 -0.05103115
0000c0 97 94 3f 3d 7e 72 60 3d 87 c6 4b bd 4c d2 7f bd
       0.046772566 0.05479669 -0.049749877 -0.062456414
0000d0 32 30 2b 3d cb 55 8d 3d 31 fb 36 bd 2d da 0a 3d
       0.04179401 0.06901129 -0.04467315 0.033899475
0000e0 88 87 69 bd 88 6c 37 3d 7a 2c 5f bd 68 9f 17 bd
       -0.05701402 0.044781238 -0.054485776 -0.037017256
0000f0 52 57 4a bd 13 b0 fd 3c 72 80 e6 bc 2b 99 8d 3d
       -0.04939968 0.030967748 -0.02813742 0.0691398
000100 67 a6 83 bd cb 9d a2 3c 6c aa 98 3d a9 97 8a bd
       -0.06428223 0.019850632 0.074543804 -0.06767208
000110 dd 25 2c bd d8 30 14 3d 89 e2 53 3d 99 ae be 3c
       -0.042028297 0.036179394 0.051729713 0.023276614
000120 22 d1 44 3d e5 32 5b bc 61 15 46 bd e9 ed 00 bd
       0.048051007 -0.013378833 -0.048360232 -0.03147689
000130 23 af c3 bd 07 59 19 3d 18 36 75 3c b9 c5 b1 bd
       -0.09554889 0.03743842 0.01496651 -0.08680291
000140 72 b3 03 bc 2b 26 71 bd 45 42 9e bd 0a 5d 34 bd
       -0.008038389 -0.05887429 -0.07727484 -0.04403404
000150 b9 be d3 bc ff 4a 65 3d e5 b5 a6 bc 3f 49 29 3d
       -0.02584778 0.055979725 -0.020350406 0.04132962
000160 35 5f 41 bd d7 31 a4 3a 95 0d 5f bd 77 9a c2 3b
       -0.047209937 0.001252706 -0.054456312 0.005938824
000170 7c 53 55 bd 93 d0 b7 bc 28 65 2e bd 0d 8a cf bc
       -0.05208157 -0.022438323 -0.04257694 -0.025334382
000180 5f 3d f9 3c 0e 7e 17 3d 8a c0 da 3b b0 f9 4d 3c
       0.030424772 0.03698545 0.0066757845 0.012571737
000190 80 2d 98 bd 7c 40 81 bd b9 1c 8e bb c9 41 ac 3c
       -0.074305534 -0.063111275 -0.00433692 0.021027463
0001a0 a6 c6 e6 3c 2e 69 eb bc 9b 55 66 bd 8f ff 74 bd
       0.028170895 -0.028736677 -0.056233983 -0.059814032
0001b0 ee cd 20 bd 93 1e af bc 50 f9 66 3d b4 46 86 3d
       -0.03925889 -0.021376884 0.056390107 0.06556454
0001c0 0a 0f 77 bd 7c 4e b0 bd a6 2f 1f 3d f0 61 79 bd
       -0.060317077 -0.0860872 0.0388638 -0.060884416
0001d0 70 bc 9b 3b 30 36 6a 3d 68 01 30 bd 07 3c b6 bd
       0.004752688 0.057180583 -0.04297009 -0.08898168
0001e0 b2 bb 80 3b c0 a4 00 3b 6c 32 8b bd 86 6d 7b 3c
       0.003928625 0.0019629449 -0.067967266 0.015345937
0001f0 26 8f 82 3d bf 9a 26 3d f9 7e 99 3b ca 3c 0e bd
       0.0637496 0.04067492 0.004684326 -0.03472594
000200 e8 78 18 bd b7 5e 36 3c e4 cb 7b bd db 97 27 3c
       -0.03722468 0.01113098 -0.061473742 0.010229076
000210 8f 2a 3b bd 62 1c 5b 3c 78 34 65 bd 55 39 4a ba
       -0.045694884 0.013373466 -0.05595824 -0.00077142316
000220 c2 91 32 bd 99 91 83 bd 6e ad 95 3d be 33 83 bd
       -0.043596037 -0.06424255 0.0730847 -0.064063534
000230 1c 26 90 bd 58 d3 a9 bc cc 8c e2 3b f0 37 ac bc
       -0.07038519 -0.02073066 0.006913757 -0.021022767
000240 a8 fe 70 bc 3b b4 66 3d 35 ce c4 bc 99 b6 55 3d
       -0.014709152 0.056324225 -0.024024108 0.05217609
000250 00 83 45 bc 08 4e a1 3d 8d 5a 32 bc 37 88 3a bd
       -0.012055159 0.078762114 -0.010885847 -0.04554006
000260 68 3e 38 bd d4 60 1e bb 65 ad a6 bc cf 23 a8 3c
       -0.04498139 -0.00241666 -0.020346353 0.020524887
000270 5c eb 87 3d bc ba 03 bd 7c c6 37 bd 1d 7f 3d 3d
       0.06636688 -0.032160506 -0.044867024 0.046263803
000280 06 b4 d9 3c 39 98 98 3c c1 36 b6 3c 4d 83 8c bc
       0.0265751 0.018627273 0.022242906 -0.017152453
000290 9d 93 88 bd f7 3b 54 3d 5c 1b 2e 3d f9 e8 d7 bc
       -0.0666878 0.051815 0.04250656 -0.026356207
0002a0 3e 5a 6c 3d 32 da 57 bd c4 ed 4f 3d cb b9 98 3d
       0.05770325 -0.05269832 0.05076386 0.07457312
0002b0 f7 1e 5f bd 92 81 ad bc 63 c3 15 3d 08 7c 7a bb
       -0.05447289 -0.021179948 0.03656329 -0.00382209
0002c0 1a ca 81 bd 1e 0d 1f bd b9 24 d6 3c 2f 30 76 3d
       -0.06337376 -0.03883087 0.026140558 0.060104545
0002d0 47 5d 63 3d 34 c7 42 bd 66 c4 55 bd f7 cc 02 3d
       0.055508878 -0.047553256 -0.052189253 0.03193375
0002e0 18 a3 9e 3d c3 61 75 bd c1 a8 d5 bc f0 8f 36 3d
       0.077459514 -0.059907686 -0.026081445 0.044570863
0002f0 91 63 9a bd 06 53 19 3d 18 00 37 bd 3c f6 9f 3c
       -0.07538522 0.037432693 -0.044677824 0.019526593
000300 06 d2 7a 3d a1 e2 b9 3d 8a 42 47 bd dd eb a1 bd
       0.06123545 0.09076429 -0.04864744 -0.079063155
000310 81 47 05 3d 01 1c 42 bd 37 e5 4c 3d 59 0e 8f 3d
       0.032538895 -0.047389988 0.050023284 0.069851585
000320 f3 88 d8 bc cf dd 6e 3d 0a 9c ac bc bb 1f a4 39
       -0.02643249 0.058317002 -0.021070499 0.0003130416
000330 fd e0 a1 bb a3 65 34 bd 53 52 36 3d 07 2b 90 bc
       -0.004940151 -0.04404224 0.044512104 -0.017598642
000340 51 de 58 3d 72 26 b4 3c 16 75 8d bd b5 89 ec 3a
       0.052946392 0.021990988 -0.06907098 0.0018046411
000350 c3 3a 49 3d f6 65 f9 bc da 06 36 3c 49 1c 0d 3d
       0.049128305 -0.030444127 0.011110032 0.034450803
000360 5b 41 88 bd b6 f4 a7 bd 4f 8d 6b 3d b1 f2 a4 bc
       -0.066530906 -0.08200972 0.05750781 -0.020135256
000370 96 42 12 bc f8 11 9e bd 17 5c 6c 3d 5a 09 a7 bd
       -0.008927008 -0.07718271 0.05770501 -0.081560805
000380 fd 0e 7e bd de 23 cb bb 1d 65 76 bd 70 39 19 bd
       -0.062026013 -0.006199344 -0.060155023 -0.037408292
000390 7a 9c e5 3c b9 14 8c 3d ad d8 ee 3c ab 5f 11 bd
       0.028028715 0.0683989 0.029156053 -0.035491627
0003a0 b0 76 98 3d 0a 56 86 3d 15 d5 fa 3c 32 cb 89 3d
       0.07444513 0.065593794 0.030619184 0.067282096
0003b0 72 38 a3 bd 0e cf 7d 3d 88 22 0b bd 31 7d 8b 3c
       -0.079697505 0.06196504 -0.03396848 0.01702747
0003c0 3d fe 7a 3d e3 d4 50 3c c5 56 15 3d 15 7b ef 3a
       0.061277617 0.012746069 0.036459703 0.0018270934
0003d0 ed d1 70 3d 7e ce 2b 3d c3 af 89 bc ff d6 71 3d
       0.05879395 0.041944973 -0.016807443 0.059042927
0003e0 a5 63 5e 3c 0b 5d 0a bc 78 d8 29 bd 29 ba 34 bd
       0.013573562 -0.008445035 -0.041466206 -0.04412285
0003f0 1b 6f 5e 3d fe 05 56 3d 57 1c 78 3d dd a8 99 bd
       0.054305177 0.05225181 0.060573902 -0.07502911

encoder.conv2.bias f4 [64]
000000 48 73 39 3b 1a 5e 63 b8 8e 47 db 37 a6 c9 19 b6
       0.0028297473 -5.4208656e-05 2.6140155e-05 -2.2916151e-06
000010 fd b2 b3 3b 30 09 98 35 af 5a 1b bc 56 8b 80 b6
       0.0054839836 1.1327556e-06 -0.00948207 -3.830918e-06
000020 51 6e f1 35 e4 fe 37 3c a9 c9 31 3c 14 71 54 b6
       1.7988006e-06 0.011230204 0.010851302 -3.1656282e-06
000030 6a 76 fc 35 76 26 79 bc 1a 00 1f 3c f0 bb 84 bb
       1.8809926e-06 -0.015206924 0.009704614 -0.004050724
000040 ae d0 0e 3c fe 99 c2 3a 7b b3 9e bb ba 3d be 36
       0.008716745 0.0014846919 -0.004843173 5.669627e-06
000050 9e 75 de 38 02 09 c8 3b 73 7b a7 bb d2 12 60 bb
       0.00010607693 0.0061045894 -0.005111152 -0.0034190905
000060 f1 50 82 bc 2c 60 f6 b6 f4 fc ba bb 49 17 2b 3b
       -0.015907736 -7.342567e-06 -0.005706424 0.0026106408
000070 44 54 00 b6 2d b1 16 3a 66 7e 08 3c 90 4e 01 bc
       -1.9122535e-06 0.0005748447 0.008330917 -0.007892266
000080 21 e9 87 37 33 2a fc 38 fc 95 78 37 f4 71 93 35
       1.6201813e-05 0.000120241566 1.4816873e-05 1.0985518e-06
000090 35 7b 9d 3b 33 f8 27 3b fa e9 03 bc 8a 5a 59 3c
       0.004805947 0.0025630116 -0.00805139 0.013266215
0000a0 fb 59 8e 38 8c 88 5b 36 0c 9b 9e b5 dd b2 5b b7
       6.787848e-05 3.2713024e-06 -1.1817042e-06 -1.3095062e-05
0000b0 ff 4e ed b7 7e c6 c4 3b 1b 93 53 b7 b0 8b 79 3b
       -2.8289387e-05 0.0060051074 -1.2610831e-05 0.0038077645
0000c0 cf 4c 78 3c df a5 29 3c 3b 86 50 35 8b 52 63 bb
       0.015155031 0.010354488 7.768137e-07 -0.003468665
0000d0 c1 f5 8f b7 c1 93 d6 bb df bd 60 37 3c e0 17 3c
       -1.7161366e-05 -0.0065483754 1.3395648e-05 0.00926977
0000e0 d9 bd 1c bb 0a e8 8a bb ae 10 a2 b7 90 af 84 37
       -0.002391687 -0.004239087 -1.9319672e-05 1.5817379e-05
0000f0 cd 86 a2 bb e2 30 af 38 23 df 72 3c ad 84 0a 37
       -0.004959917 8.3537554e-05 0.014823708 8.256332e-06

encoder.bn2.weight f4 [64]
000000 59 24 81 3f 9c 1e 7d 3f 44 db 7d 3f 5f ec 81 3f
       1.0089217 0.9887483 0.991627 1.015026
000010 df ad 7e 3f 59 d7 7f 3f 86 7e 80 3f 81 cd 7a 3f
       0.99484056 0.9993797 1.0038612 0.97969824
000020 28 46 7c 3f b4 34 7b 3f 97 43 7c 3f f8 4f 7d 3f
       0.9854455 0.98127294 0.98540634 0.9895015
000030 67 ea 7c 3f 1e a2 79 3f 77 44 7d 3f 03 93 81 3f
       0.9879517 0.97512996 0.98932594 1.012299
000040 50 69 81 3f fe d5 81 3f e2 27 7d 3f 39 fd 7d 3f
       1.0110264 1.014343 0.9888898 0.9921451
000050 cd 16 82 3f 32 29 81 3f 55 4a 7e 3f 61 b2 7e 3f
       1.0163208 1.0090697 0.9933217 0.99490935
000060 80 e0 81 3f 88 ff 7c 3f d4 cf 7f 3f f3 4f 7d 3f
       1.0146637 0.9882741 0.99926496 0.9895012
000070 6c 63 7f 3f f0 64 80 3f 08 fa 7c 3f e4 3b 7c 3f
       0.9976108 1.0030804 0.9881902 0.98528886
000080 7b 6a 7c 3f 82 96 7b 3f e3 68 80 3f 87 5c 80 3f
       0.98599976 0.9827653 1.0032009 1.0028237
000090 50 99 80 3f 11 a4 80 3f c3 ec 7f 3f ec 1e 7f 3f
       1.0046787 1.0050069 0.99970645 0.9965656
0000a0 a7 7b 77 3f 4e 97 80 3f 66 65 80 3f 80 c8 7d 3f
       0.96673054 1.0046175 1.0030944 0.99134064
0000b0 85 bb 80 3f 65 7c 7e 3f 2a 86 80 3f 3f 98 81 3f
       1.0057226 0.9940856 1.0040944 1.0124587
0000c0 c9 12 7b 3f 72 25 81 3f db 16 7c 3f 1f 17 80 3f
       0.9807554 1.0089552 0.98472375 1.0007056
0000d0 c8 3f 7c 3f 88 54 83 3f 29 da 80 3f 3d f3 7b 3f
       0.9853482 1.0260172 1.0066577 0.9841803
0000e0 ed 54 80 3f 11 1e 7e 3f 4d b2 80 3f aa 59 7e 3f
       1.0025917 0.9926463 1.0054413 0.99355567
0000f0 91 d9 7e 3f ca 43 7e 3f 87 7d 7d 3f da 4b 7e 3f
       0.9955073 0.9932219 0.99019665 0.9933449

encoder.bn2.bias f4 [64]
000000 46 a6 8d bc 76 5d 0f bc d5 f9 6e 3a 68 5c 33 bc
       -0.0172912 -0.00875031 0.00091162074 -0.010947324
000010 75 cc 3d bc 72 23 91 3b d7 3f 5d 3b 83 07 40 bb
       -0.011584391 0.0044292742 0.0033759975 -0.0029301352
000020 29 92 9e bb 74 13 8c bc 3f 92 03 bb ae fe 8f bc
       -0.004839201 -0.01709912 -0.0020076183 -0.017577495
000030 fa 51 d4 3a e3 01 d8 3b 4c bf 9a 3a 87 1f 85 3b
       0.0016198747 0.006592022 0.0011806278 0.0040625962
000040 13 b6 8e 39 ee fd 92 bc 39 8a 0c bc 38 5a b6 bb
       0.00027220006 -0.017943349 -0.008577877 -0.005564954
000050 ae ac 20 3a b8 a0 4f b9 84 a3 09 bc 07 03 68 bc
       0.0006129247 -0.00019800931 -0.008400802 -0.014160878
000060 39 f1 9c 3a cf 7c ed bb c0 30 a0 39 53 56 36 ba
       0.0011973745 -0.0072475444 0.000305539 -0.00069556123
000070 45 79 b4 3b 0e 0c e6 ba d9 66 c3 bb 88 38 79 3a
       0.0055076205 -0.00175512 -0.005963188 0.000950702
000080 96 a0 57 bc 52 71 37 bc 1c e2 31 3b d8 6e cf bb
       -0.013160845 -0.011196451 0.0027142828 -0.0063303523
000090 54 cb 49 bb 76 47 6f bb 14 9c 08 bc a5 ff 33 3b
       -0.003079136 -0.00365111 -0.008337993 0.0027465608
0000a0 e7 92 af bc 9b 70 6c bb 33 45 24 bc 52 6a 61 bc
       -0.021432353 -0.003607786 -0.010026264 -0.013758259
0000b0 15 47 84 bc 81 60 92 ba c7 4d ea bb 7d d0 4a bb
       -0.016147176 -0.0011167676 -0.007150385 -0.0030947023
0000c0 49 9d 15 bc f1 b5 7b 3c 0a 0c 83 bb c2 11 79 3b
       -0.009131738 0.015363202 -0.003999238 0.003800497
0000d0 4e e5 17 bc 44 48 bd 3b f2 b3 2c ba f7 3d a0 ba
       -0.009270979 0.005776437 -0.0006588093 -0.0012225498
0000e0 bc 00 16 bc 30 f1 9b bc f7 5e 8f 3b 5f ad e8 bb
       -0.0091554485 -0.019035906 0.0043753344 -0.0071007456
0000f0 0c 99 a2 bb ff 44 ce ba c4 54 53 ba e8 ef 9c ba
       -0.0049620923 -0.0015737115 -0.00080616423 -0.0011973353

encoder.bn2.running_mean f4 [64]
000000 57 a5 09 bf ec 32 62 3e 55 23 aa be de 08 cb 3d
       -0.53767914 0.22089738 -0.3323008 0.09913801
000010 81 41 b4 bd 59 72 01 be bd 1d ac be 10 ba b3 be
       -0.088015564 -0.12641276 -0.33616439 -0.35102892
000020 87 1d 89 3d 46 95 35 3d 42 22 bf be b6 a7 ce 3e
       0.06695085 0.04433181 -0.37330824 0.40362328
000030 da 69 5c be e5 4b 18 3f 24 48 26 bc d4 66 de be
       -0.21524754 0.59490806 -0.010149036 -0.43437827
000040 dd 9e 0c be bc 81 15 be cf 54 ec 3c eb 6c c7 bd
       -0.13732477 -0.14600271 0.028849034 -0.09737571
000050 42 8d 5a 3e e7 4b b9 be 5c 69 db 3e 4b 65 50 be
       0.21342948 -0.3619072 0.4285382 -0.2035114
000060 c3 34 1d bf e5 fa e8 bd fb b9 ba ba 55 9e f3 bd
       -0.61408633 -0.11375979 -0.00142461 -0.11895434
000070 8f f4 bc 3d 8e 58 f0 bc 9d 88 31 be 52 0f ff 3e
       0.09226333 -0.029339101 -0.1733727 0.49816376
000080 f6 d2 5a bf ab 69 f4 bd e6 22 83 be c0 66 95 be
       -0.8547815 -0.11934217 -0.25612563 -0.29179955
000090 78 3e bd be 5c dc 41 3c da 0e 03 3f 78 21 ff be
       -0.36961722 0.011832323 0.51194537 -0.49830222
0000a0 ee 5e 8b 3d 01 0f 04 3e 43 8a 3f be 48 24 88 3e
       0.06805216 0.12896349 -0.18705086 0.2659018
0000b0 ea 50 75 3d 36 76 a3 3e 01 9e 8e be 9f f2 87 bc
       0.05989162 0.31926125 -0.27854922 -0.016595183
0000c0 2b 8e 93 3d ac d7 a0 be df 47 29 bd 3a 39 ea be
       0.07204851 -0.31414545 -0.041328307 -0.45746785
0000d0 ad a6 65 3e 6f 88 8f be 3d fa 8e be be 3a 2f 3b
       0.22426863 -0.28033778 -0.27925292 0.0026737894
0000e0 f5 60 5c be 73 8c 9b 3e 3d fd bd 3c cf 2d 80 be
       -0.21521361 0.30380592 0.023192042 -0.2503495
0000f0 6a 34 fe bb c2 10 0c bf ba 21 43 be e2 7a 1c be
       -0.007757713 -0.5471307 -0.19055834 -0.15281251

encoder.bn2.running_var f4 [64]
000000 03 c5 bb 3d 1b 05 f6 3d ca 4f 56 3e 35 17 ca 3d
       0.091684364 0.120126925 0.20928875 0.09867708
000010 7e 1c db 3d 4c 61 2b 3e b0 82 b2 3d 81 8e a6 3e
       0.10698794 0.16736335 0.08716333 0.32530597
000020 06 73 1c 3e 70 b6 97 3d 3f e8 02 3e 60 61 38 3e
       0.15278253 0.07407844 0.12783907 0.18005896
000030 a9 62 e9 3e 15 b7 13 3e 4e 10 3f 3e 6d ae 61 3d
       0.45583084 0.14425309 0.18658563 0.055097986
000040 44 cb bf 3d 9b 17 e9 3d a1 9a 41 3e ef 06 a5 3d
       0.09364942 0.113814555 0.18906642 0.08057963
000050 40 1f 50 3d 5c f3 f5 3d 68 2d fb 3d 53 ff 4a 3e
       0.050811052 0.12009308 0.1226452 0.19823961
000060 30 5d 55 3e 1a 0f e9 3d 78 a1 62 3d fc 1a 82 3e
       0.2083633 0.113798335 0.05532977 0.25411212
000070 e6 74 90 3e 1e 79 84 3e 74 42 fc 3d bd 3c ca 3d
       0.28214186 0.25873655 0.123173624 0.09874866
000080 f9 92 e4 3e 1e a2 51 3e c7 c0 43 3e 8d ba 15 3e
       0.4464338 0.20471999 0.19116507 0.14621945
000090 65 eb 9b 3d 04 a9 a0 3d 98 61 c0 3d 4c 6b 73 3e
       0.07613257 0.07844737 0.093936145 0.237714
0000a0 37 ed 15 3e 98 73 20 3e c3 16 19 3e e3 5f 68 3d
       0.14641272 0.15669096 0.14950089 0.05673207
0000b0 94 ab ff 3d 17 c0 ed 3d 07 27 fc 3d ae 9a 11 3e
       0.12483898 0.11608904 0.123121314 0.14219162
0000c0 73 dd 3a 3e 1a 69 1a 3e ab ed 9b 3e 6a 88 97 3d
       0.18248539 0.15079156 0.30454764 0.07399066
0000d0 7a fc 0a 3e 8f 8b 90 3d 77 02 ff 3d be ab b0 3d
       0.13572875 0.07057869 0.12451642 0.08626507
0000e0 07 19 90 3d 34 15 ec 3d f5 7d 3d 3e a9 90 e7 3d
       0.070360236 0.11527482 0.1850508 0.113068886
0000f0 a5 31 3f 3e 8c 6a 3c 3e db 78 ba 3d 72 57 72 3e
       0.18671282 0.1840002 0.091050826 0.2366617

encoder.conv3.weight f4 [128, 64, 5]
000000 04 d8 60 3b b7 13 65 bd 45 8a 4b ba df da c6 bc
       0.0034308443 -0.055927005 -0.0007764439 -0.024274288
000010 9b 8c f3 3c 15 bd b5 bc 7c 8b 82 3c 49 3e b2 bc
       0.029730132 -0.022184888 0.015935652 -0.021758216
000020 01 19 bc bc 71 68 dd 3c d7 b4 3a bd 83 14 87 ba
       -0.022961142 0.02702734 -0.04558262 -0.0010305796
000030 8d bd 08 3d c4 a9 ab bc e9 47 fa 3c f2 ea 1b 3d
       0.033383895 -0.020954974 0.030551868 0.03806586
000040 4d f8 ba bc df 61 c0 3c ae 5d 28 bd 02 cf 93 bc
       -0.022823477 0.023484169 -0.041104965 -0.018043045
000050 75 02 1b bd ec 39 27 3c 3d b6 a7 bb e3 00 2f bc
       -0.03784414 0.010206681 -0.00511816 -0.010681364
000060 b8 aa 07 3b 2b a4 1f 3d f5 35 0f bd 8f 4e 48 3d
       0.0020701122 0.038974922 -0.034963567 0.048903044
000070 be 40 65 3a 37 31 35 bd a2 a0 aa 3c 40 99 69 3c
       0.0008745304 -0.044236388 0.020828549 0.014257729
000080 c0 af 6d 3d e4 a4 23 bd 15 8e 8b bc 18 11 26 3d
       0.058028936 -0.039952174 -0.017035523 0.040543646
000090 90 8d 34 bc 99 ed 09 3d 66 e8 67 3d fe c6 12 bd
       -0.011020079 0.033673856 0.056618117 -0.035834305
0000a0 19 4e eb 3c c6 7c 35 3d 1d 89 87 3b 3a 5d 31 bd
       0.028723763 0.044308446 0.004136218 -0.0433018
0000b0 04 03 96 bc 64 87 f0 3c d0 7a 37 3d 2e f8 45 3d
       -0.018311985 0.029361434 0.044794858 0.048332386
0000c0 9c 7d 0a bd 4e 9e 77 3c 59 d2 8d 3c 34 68 9d 3b
       -0.033811197 0.015113426 0.017312216 0.0048036817
0000d0 f9 78 bb bc 97 96 9d bc 1b 26 ce bc 29 e3 b5 3b
       -0.022884833 -0.019236846 -0.025164654 0.0055507612
0000e0 c3 95 69 bd ad 46 53 bd d2 7f 3b bc 14 5e 59 bd
       -0.05702759 -0.051581074 -0.011444049 -0.053068236
0000f0 18 1c 27 3d 0e 80 55 bc d2 8d b9 bc 08 4c 11 bd
       0.040798277 -0.013031019 -0.022650633 -0.0354729
000100 34 25 3b 3d 49 d1 1f 3d ff e3 f4 bb 38 5f 05 3c
       0.045689777 0.03901795 -0.0074734683 0.008140378
000110 e7 6e 8d 3b ec d1 0f bd 91 ae f7 3c c5 4d 46 bc
       0.004316199 -0.035112306 0.030234607 -0.012103503
000120 24 75 1e bd cb be 8c 3c 6e 50 e0 3b 8b d3 b6 3b
       -0.038685933 0.01718082 0.0068455255 0.005579417
000130 b1 ec a7 bc d7 8a 59 bd 1e 04 fa bc 1f 30 56 3c
       -0.020498605 -0.053110924 -0.030519541 0.013072996
000140 d4 95 39 bd 09 49 24 bd a3 63 5d bc 69 fa e1 bc
       -0.045308903 -0.040108714 -0.013512525 -0.027585225
000150 5d 41 d3 bc c5 bf 08 bd ad 83 e0 bc 01 c9 eb bc
       -0.025788004 -0.03338601 -0.027406538 -0.02878237
000160 6e 3b fe 3c ec 82 b2 bc 78 db 06 bd 35 2d 19 3d
       0.031034198 -0.021790944 -0.032924145 0.03739663
000170 0f 01 58 bd 2c 7d c4 3c c6 2e 95 3c 25 ab 40 bd
       -0.052735385 0.023985468 0.01821078 -0.047038216
000180 3e 2a 03 bd 02 28 be 3c ce 55 16 bd a9 30 52 bd
       -0.032022707 0.023212437 -0.036702923 -0.051315937
000190 5c 2c 14 bd 6a eb 95 bb 55 91 d7 3c df 9f 41 bd
       -0.036175117 -0.0045751827 0.026314417 -0.047271606
0001a0 f8 c6 3c bd ac b7 c2 3b 8c 5a 25 bd fb d9 d4 3c
       -0.04608819 0.0059423055 -0.040369555 0.025982847
0001b0 51 7d a7 bb 43 49 ef bb af 34 c5 3c cb 43 bc bb
       -0.0051113744 -0.0073024346 0.024072973 -0.0057453862
0001c0 00 2b 4d 3c 66 fc ef 3b d0 30 2f 3b fd 76 bf bc
       0.012522459 0.0073237894 0.0026731975 -0.023372168
0001d0 a5 8b cd 3a 62 3a 67 3d 4b 4b 29 bc 78 ad 23 3d
       0.0015681876 0.056452163 -0.010332893 0.039960355
0001e0 49 61 6d 3d d6 86 2c bb e7 dc 02 3d 4b 01 31 3d
       0.057954106 -0.0026325486 0.03194895 0.043214124
0001f0 ac 4e b2 3c 44 e9 5f bb d6 0a 04 3d a4 90 4f bd
       0.02176603 -0.0034166137 0.032236896 -0.05067505
000200 9f 3d cd bc 00 fa ad 3c 9e 0d 97 bd 60 49 87 bc
       -0.025053797 0.021237373 -0.07375644 -0.01651448
000210 b5 60 d1 bb 50 79 6d bc 6c c7 ba bc f9 1f 4f bd
       -0.006389702 -0.014494255 -0.02280017 -0.0505676
000220 2d e4 1a bd b7 75 1e bc 8c f8 47 3d d2 ab ef bc
       -0.03781526 -0.00967162 0.048821017 -0.029256735
000230 5c 77 f9 bc 9f f0 13 3c 0d 98 5a 3b 8d ca 45 3d
       -0.030452423 0.0090295365 0.003335479 0.04828887
000240 d2 20 93 3c d8 f3 52 3d 59 91 2d bd 5a eb 9f bc
       0.017959986 0.05150208 -0.042374942 -0.019521404
000250 ec 69 44 bc e9 95 00 3b a7 7c c6 ba d7 2b 52 3c
       -0.011988144 0.0019620603 -0.001514335 0.012827835
000260 99 29 e2 bc e0 32 a5 bc 6e f8 e6 bc a9 a4 fe 3c
       -0.027607726 -0.02016586 -0.028194632 0.031084375
000270 a2 e0 07 bd 8d 30 88 3b 90 1a 33 bd 19 94 9b 3a
       -0.03317321 0.0041561783 -0.043726504 0.0011869698
000280 38 07 4c bc 91 df 40 3d 28 55 7b bb 51 75 9e 3c
       -0.012452893 0.04708821 -0.0038350318 0.01934305
000290 8b b6 34 3c 0b 6b fe bc f9 60 55 bc 4d b4 a3 bc
       0.01102985 -0.031056901 -0.013023608 -0.019983435
0002a0 20 71 1c 3d e4 45 a2 3b 57 82 2d bd eb 7b 2a 3d
       0.038193822 0.0049521793 -0.04236063 0.041622084
0002b0 42 6a db bc 1a 51 5a bd 57 69 b4 bc 44 80 51 3d
       -0.026784066 -0.0533 -0.022022886 0.051147714
0002c0 65 9f 05 bc f6 47 04 3d e7 f3 b4 3c bc 7a b3 bb
       -0.008155678 0.03229519 0.022088958 -0.0054772776
0002d0 1b 3e 82 bd 79 ac 27 3c a9 b1 08 3d 1e ba 1a bd
       -0.06359502 0.010233992 0.033372555 -0.03777515
0002e0 7c db e8 bc eb 87 e4 bc cc 42 62 bc 53 ba 95 bd
       -0.02842497 -0.027896842 -0.013809871 -0.07310929
0002f0 a8 ba 2b bd b0 d4 6b bd b2 1b e9 3c 90 6a 35 3d
       -0.041926056 -0.05757588 0.028455589 0.04429108
000300 c1 cc 27 bd f4 41 c0 3b 7a fb 48 3d 7a b0 6d 3d
       -0.040966753 0.005867237 0.04906795 0.05802963
000310 01 e2 1d bd d6 5d 3c bc d5 83 74 3d 33 02 7c 3d
       -0.038545612 -0.011496982 0.059696037 0.061525535
000320 4f 06 d5 3c 89 3b e6 3c 64 19 55 bd 03 ee ac bb
       0.026003985 0.02810456 -0.052026168 -0.0052773966
000330 3e c1 dd bc 4f 81 a1 3c 80 1c 78 bc e1 70 d7 3b
       -0.027069684 0.01971498 -0.015143514 0.0065747355
000340 ef b6 7b 3b 17 47 49 bd 9b 97 11 bc da c1 2e bd
       0.0038408597 -0.049140062 -0.008886243 -0.04266534
000350 92 57 35 3c e2 df 45 3d 52 f2 de 3c 42 a0 6f 3c
       0.011068242 0.048309214 0.027215157 0.014625611
000360 93 79 ec 3c ff f9 9e bd 55 2f b4 3c 44 db 53 bc
       0.028866565 -0.07762527 0.021995226 -0.012930695
000370 2e e5 d2 3c 45 f3 a1 3b 2d 6a 4f bd c8 8d e4 bc
       0.025744047 0.00494233 -0.050638366 -0.027899638
000380 74 4e d1 3c a3 0e de 3c 6c cd a6 3b 31 d1 f1 3b
       0.025550105 0.027106589 0.005090406 0.007379674
000390 cc e7 76 3c 9b 18 c2 3c 64 dd 7c 3c c3 f8 64 3d
       0.015069913 0.023693373 0.015433643 0.0559013
0003a0 58 78 97 3b 6c 3d 6c 3d 2d d6 2e bd c2 23 90 3d
       0.0046225004 0.057675764 -0.042684723 0.0703807
0003b0 2f 58 d1 bc 6a 48 5f 3d 37 86 02 bc 26 2a e2 bc
       -0.025554745 0.05451242 -0.00796657 -0.027607989
0003c0 17 1d 46 bd 18 97 ec 3c 1e 6a 04 3d 90 94 9d bc
       -0.048367586 0.02888064 0.032327764 -0.01923588
0003d0 2a 1b e4 bc 0b dd 18 3d 3e 12 48 bc 0d a1 41 bd
       -0.027844984 0.037320178 -0.0122113805 -0.04727273
0003e0 08 f4 1d 3b 41 48 16 bc 41 a9 12 bb f2 a5 2b bd
       0.0024101753 -0.0091725 -0.0022378715 -0.041906305
0003f0 c8 e9 a9 bc b8 e8 1c 3d dc dc 24 bd 9b 72 8c 3c
       -0.020741358 0.038307875 -0.04024969 0.017144492

encoder.conv3.bias f4 [128]
000000 86 94 99 37 01 13 98 bb fe b0 67 b6 b0 aa 2b 3a
       1.8308183e-05 -0.0046409373 -3.4524705e-06 0.0006548567
000010 90 e1 13 37 e0 96 b6 35 d9 0a 42 3b 86 d9 33 38
       8.814401e-06 1.3603967e-06 0.0029608516 4.287951e-05
000020 ad 42 be b4 9d ad e3 b8 01 72 0f 3a 32 d5 08 39
       -3.543877e-07 -0.000108565415 0.0005472005 0.00013049392
000030 04 c4 0c b6 fd a9 b1 3a c8 1c 86 b4 03 6b b4 38
       -2.0975722e-06 0.0013554689 -2.4980386e-07 8.603001e-05
000040 03 cf ac 35 14 32 47 b6 4c 10 02 39 19 37 97 b7
       1.2875247e-06 -2.968246e-06 0.00012403837 -1.802626e-05
000050 78 e6 b9 38 41 d1 c9 b9 c8 d2 86 bb 77 70 77 ba
       8.8644156e-05 -0.00038493614 -0.0041144826 -0.0009439061
000060 94 8f 57 3b 1e 4e 25 b6 bb 62 52 39 dd 0c 81 bb
       0.0032891976 -2.4632386e-06 0.0002006394 -0.003938301
000070 08 08 86 b5 9c 20 3f 37 da 1b 81 ba fa 51 bf 36
       -9.986115e-07 1.139208e-05 -0.0009850219 5.701787e-06
000080 d0 1f cf b6 fa d3 2f bb ce 99 52 36 64 19 23 ba
       -6.172784e-06 -0.0026829229 3.1381965e-06 -0.000622174
000090 61 48 bf 35 80 21 ea b5 38 ae 91 b8 d8 0f 55 b6
       1.4251674e-06 -1.7444108e-06 -6.9465896e-05 -3.1748696e-06
0000a0 29 85 1a bb 4a 89 d3 ba 72 d4 51 bb fa f1 9b 34
       -0.0023577905 -0.0016138938 -0.0032017496 2.904706e-07
0000b0 89 74 73 b7 44 28 c6 b6 5a f9 07 36 5d 5d 86 b5
       -1.4511062e-05 -5.9055474e-06 2.026171e-06 -1.001095e-06
0000c0 95 38 e2 38 2d 2a 69 3b 39 6e 8b b7 ba 16 a1 36
       0.00010787059 0.0035578117 -1.6621418e-05 4.8008196e-06
0000d0 5f d1 e1 b6 65 cc 14 3b 59 67 0d 33 9c 21 d6 36
       -6.7298965e-06 0.0022704836 3.2923115e-08 6.3816096e-06
0000e0 53 0e 28 39 a5 0f 36 38 bd b5 93 3b 7a 50 08 b5
       0.00016027065 4.340675e-05 0.004507749 -5.0781057e-07
0000f0 88 05 2f 3b c7 ec c9 3a fa 44 58 3a 78 16 da b8
       0.0026706178 0.0015405648 0.00082500244 -0.00010399235
000100 0c 6f 23 bb f6 f9 6c 35 58 78 3a 36 94 8b 4f b4
       -0.0024938015 8.828059e-07 2.778621e-06 -1.9329156e-07
000110 62 7f 12 35 ba 37 20 ba c2 e3 81 38 e1 e3 37 35
       5.4574605e-07 -0.00061118195 6.1936225e-05 6.850442e-07
000120 a4 2c 86 b9 fc 87 61 ba b2 87 2b b5 f7 30 9d b6
       -0.00025591732 -0.0008603332 -6.3899927e-07 -4.684665e-06
000130 5f 75 07 38 35 20 30 37 47 45 f6 3a 9b be 76 bb
       3.229582e-05 1.0497916e-05 0.0018788957 -0.003765023
000140 f6 74 40 ba 7b 9a 51 b6 a2 c1 1f 36 80 6f b7 b6
       -0.0007341647 -3.1233346e-06 2.3805555e-06 -5.4668053e-06
000150 f8 d5 aa 38 61 37 c1 b6 76 17 2a 3b 89 18 83 bb
       8.1460865e-05 -5.758295e-06 0.0025953925 -0.0040007276
000160 08 ec 51 3a f0 cc cc 34 56 07 18 36 24 7f 7e 3a
       0.00080078887 3.8147073e-07 2.2654035e-06 0.00097082765
000170 99 38 61 3b a3 4c 8f 38 d2 54 18 39 b5 b8 9d 35
       0.003436601 6.833046e-05 0.00014527448 1.1751168e-06
000180 3e 13 fa 35 2d fd 45 37 29 c7 88 b9 3d 82 ac 3a
       1.8632052e-06 1.1801062e-05 -0.00026088327 0.0013161373
000190 d2 2f 9d b9 0b f6 fe ba 54 d5 ed b8 30 a2 63 b7
       -0.00029981002 -0.0019451989 -0.00011340776 -1.3568017e-05
0001a0 25 55 9a b7 8c 72 81 38 84 08 0f 3a d4 e0 17 3b
       -1.839788e-05 6.172535e-05 0.0005456286 0.002317478
0001b0 02 b6 d4 35 bb de 91 ba 02 1b e8 36 c6 9d d3 b8
       1.5848202e-06 -0.0011129001 6.917283e-06 -0.000100906516
0001c0 32 11 90 b4 fc a4 43 b8 7e 08 58 b6 77 2d 18 3b
       -2.68346e-07 -4.6645277e-05 -3.2191451e-06 0.0023220459
0001d0 ea ac ce 39 98 11 06 b7 af de 6f ba 83 04 58 36
       0.00039420213 -7.991119e-06 -0.0009150309 3.2189134e-06
0001e0 3b b7 01 bb 9e af 3a b6 3e f5 00 bb 83 82 93 b6
       -0.0019793052 -2.7818382e-06 -0.0019677426 -4.396135e-06
0001f0 02 12 01 b8 0e b9 f1 33 2f 26 b2 37 b7 2d 8e b5
       -3.0772768e-05 1.1256098e-07 2.1237034e-05 -1.0593129e-06

encoder.bn3.weight f4 [128]
000000 fe 63 83 3f c7 9e 84 3f 5a 01 85 3f 86 73 85 3f
       1.026489 1.0360955 1.0391037 1.042588
000010 79 94 85 3f 21 9c 83 3f c1 b1 85 3f 28 4f 86 3f
       1.0435935 1.0282022 1.0444871 1.0492907
000020 73 7d 85 3f d8 09 85 3f 2d 28 84 3f 25 6e 84 3f
       1.0428909 1.0393629 1.0324761 1.0346113
000030 18 fd 83 3f 5e 49 84 3f 3a 74 84 3f e6 05 85 3f
       1.0311613 1.033489 1.034797 1.0392425
000040 f5 d6 83 3f 51 de 84 3f f0 fa 83 3f 95 60 84 3f
       1.0299975 1.0380346 1.0310955 1.0341974
000050 b6 e5 84 3f 82 2b 85 3f 44 15 84 3f e2 f4 83 3f
       1.0382602 1.0403903 1.031899 1.0309107
000060 02 d8 83 3f e6 1a 86 3f 7d 1a 86 3f ed 12 86 3f
       1.0300295 1.0476959 1.0476834 1.0474526
000070 b5 89 85 3f ba f6 84 3f 4f d3 82 3f 25 00 85 3f
       1.043265 1.0387795 1.0220736 1.0390669
000080 fd 97 85 3f 15 8d 82 3f 3f 1d 83 3f e0 a0 84 3f
       1.0437008 1.0199305 1.02433 1.0361595
000090 7f 86 84 3f fd 88 82 3f 67 b2 85 3f bf 3f 83 3f
       1.0353545 1.0198056 1.0445069 1.0253829
0000a0 16 7b 85 3f 53 50 85 3f 72 86 84 3f 6c f6 82 3f
       1.0428188 1.0415138 1.035353 1.0231452
0000b0 f0 88 86 3f de ee 86 3f 7e 40 85 3f 4f c3 84 3f
       1.051054 1.0541646 1.0410306 1.0372103
0000c0 38 8d 85 3f 72 67 86 3f 4b e6 85 3f 80 21 85 3f
       1.0433722 1.0500319 1.0460905 1.0400848
0000d0 d3 90 87 3f 66 f6 83 3f aa 1f 83 3f cc 98 85 3f
       1.0591072 1.030957 1.0244038 1.0437255
0000e0 02 be 84 3f 8f 22 86 3f 65 b6 84 3f 00 d5 81 3f
       1.0370486 1.0479296 1.0368162 1.0143127
0000f0 f6 a5 85 3f e4 9c 85 3f 70 a2 82 3f 7d 91 83 3f
       1.0441272 1.0438504 1.0205822 1.0278774
000100 06 ac 84 3f 29 65 84 3f a1 e9 84 3f 03 44 85 3f
       1.0364997 1.0343372 1.0383798 1.041138
000110 ae 5a 82 3f 86 42 83 3f 82 c3 84 3f 73 35 83 3f
       1.0183923 1.0254676 1.0372164 1.0250686
000120 15 0a 84 3f 35 20 84 3f 13 da 84 3f 79 9b 85 3f
       1.0315577 1.0322329 1.0379051 1.0438071
000130 db c1 84 3f 04 4a 84 3f 1d e0 84 3f 3b 84 84 3f
       1.037166 1.0335088 1.0380894 1.0352854
000140 00 c9 85 3f 34 6e 83 3f 49 96 84 3f ef a7 84 3f
       1.0451965 1.0268006 1.0358363 1.0363749
000150 50 b4 81 3f d3 41 85 3f a0 1b 84 3f da 21 85 3f
       1.0133152 1.0410713 1.032093 1.0400956
000160 b4 d2 84 3f c1 03 85 3f 0f 83 84 3f 43 f9 85 3f
       1.0376801 1.0391771 1.0352496 1.0466694
000170 4d 57 84 3f c8 73 84 3f e4 20 85 3f 8d 08 85 3f
       1.0339142 1.0347834 1.0400662 1.0393234
000180 0d d1 84 3f 96 7b 85 3f 10 c7 83 3f eb fd 84 3f
       1.0376297 1.042834 1.0295124 1.038999
000190 26 32 85 3f db 79 83 3f 0a ba 86 3f e9 50 85 3f
       1.0405929 1.0271562 1.0525525 1.0415317
0001a0 d3 28 85 3f 6e 08 85 3f 31 c7 84 3f 33 79 82 3f
       1.0403084 1.0393198 1.0373288 1.0193237
0001b0 66 c6 84 3f a8 54 84 3f 44 a2 85 3f 2c db 85 3f
       1.0373046 1.0338335 1.0440145 1.0457511
0001c0 07 6f 85 3f 13 6e 82 3f 25 6b 83 3f a1 26 83 3f
       1.0424508 1.0189842 1.0267073 1.0246164
0001d0 f3 58 84 3f 58 0e 83 3f 6b 20 86 3f ba 5c 84 3f
       1.0339645 1.0238752 1.0478643 1.0340798
0001e0 52 c9 85 3f b3 e9 7f 3f e5 2b 86 3f 6a bc 84 3f
       1.0452063 0.9996597 1.0482146 1.037
0001f0 a9 aa 84 3f 2e a6 82 3f 2b 2c 85 3f 9d 93 86 3f
       1.0364581 1.0206964 1.0404104 1.0513798

encoder.bn3.bias f4 [128]
000000 35 55 5c 3c 51 fc e6 3c 97 83 fa 3c 7e c2 f9 3c
       0.013448049 0.028196486 0.030580325 0.030488249
000010 22 8e cf 3c ee 18 91 3c 5f 86 e6 3c 8e 68 13 3d
       0.025336329 0.017712083 0.028140245 0.035988383
000020 81 16 c7 3c ff b0 e1 3c 4f 2d 4a 3c e0 8a c5 3c
       0.024302723 0.027550219 0.012339904 0.024114072
000030 a4 27 2b 3c 2c 3b dc 3c e8 6a a0 3c bf 09 b6 3c
       0.010446463 0.026883684 0.019582227 0.022221444
000040 ab ce 44 3c 48 09 95 3c 03 80 87 3c 65 b0 c3 3c
       0.012012164 0.018192902 0.016540533 0.023887822
000050 71 5a d0 3c 50 d0 d8 3c b1 ea 73 3c de 52 c3 3c
       0.02543375 0.026466519 0.014887498 0.023843225
000060 df 9f c9 3c 32 68 12 3d b2 3e 03 3d 3d a4 02 3d
       0.024612365 0.0357439 0.032042213 0.03189491
000070 26 f9 0c 3d 41 d6 7d 3c 1f c0 01 3c 8a 1f e5 3c
       0.034417294 0.015492977 0.00791934 0.02796914
000080 11 03 cd 3c 69 54 0a 3c 5c 05 a6 3c d5 3e ab 3c
       0.025025876 0.0084429765 0.020266227 0.020903984
000090 18 a5 bf 3c 48 e1 0c 3c 9d de 0e 3d 00 65 b2 3b
       0.023394153 0.008598633 0.03488027 0.005444169
0000a0 87 d8 e2 3c bb de ec 3c ac d5 b4 3c b8 29 5f 3c
       0.027691139 0.0289148 0.022074543 0.013620786
0000b0 30 b6 01 3d ba b3 31 3d 90 cb ca 3c 40 4d ad 3c
       0.03166789 0.04338429 0.02475527 0.021155
0000c0 e4 d7 d5 3c 90 4c 0d 3d 54 95 00 3d f5 3e bb 3c
       0.026103921 0.034496844 0.03139241 0.022857169
0000d0 bb b4 46 3d dd 5a b5 3c aa c8 e5 3c 29 ef c7 3c
       0.0485122 0.022138054 0.028049786 0.024406033
0000e0 6a f4 c3 3c ad 5e 18 3d a0 93 aa 3c c3 e7 dc 3b
       0.023920257 0.037199665 0.020822346 0.0067414953
0000f0 e0 cf bd 3c 05 24 f3 3c da 33 2a 3c 5e cf 4e 3c
       0.023170412 0.029680261 0.010388339 0.012622682
000100 17 c0 e8 3c 25 c7 ac 3c 43 b4 ce 3c 07 eb c8 3c
       0.028411908 0.021091053 0.02523244 0.024526132
000110 c4 c6 3e 3c 8b b8 51 3c 7f 78 ce 3c dd 27 67 3c
       0.011644069 0.012800346 0.025203941 0.014108625
000120 bd 10 6c 3c 4c b0 f3 3c e4 92 b0 3c 4a 45 c9 3c
       0.014408288 0.02974715 0.021554418 0.024569172
000130 1e a1 ce 3c b4 04 8d 3c c6 33 f5 3c ae 6b c8 3c
       0.025223311 0.017214157 0.029931914 0.024465408
000140 83 92 0a 3d d9 78 04 3c 65 7b 94 3c 1b 1c d7 3c
       0.03383113 0.008085453 0.018125245 0.026258519
000150 95 63 ba bb bf d7 f8 3c 0c a6 af 3c b2 eb d2 3c
       -0.0056881406 0.030376313 0.021441482 0.025747154
000160 87 3c 4c 3c 03 2b d9 3c 15 b1 c0 3c 58 6c 1c 3d
       0.012465603 0.026509767 0.02352194 0.038189262
000170 08 02 92 3c 95 dd b2 3c 34 9c e0 3c 75 64 bc 3c
       0.017823234 0.021834174 0.027418233 0.02299712
000180 93 b9 e8 3c 55 96 ff 3c b8 7d 9b 3c 59 01 4e 3c
       0.028408801 0.031199614 0.018980846 0.0125735635
000190 f1 05 f7 3c 07 c6 2a 3c 29 53 2d 3d a3 a6 eb 3c
       0.0301542 0.01042319 0.042315636 0.028765982
0001a0 df 7c cf 3c b2 fc eb 3c f6 b2 de 3c fd 7b 24 3c
       0.025328098 0.028807018 0.027184945 0.010039327
0001b0 fd 37 cf 3c 67 a2 cc 3c 2d ee b5 3c 46 c7 e0 3c
       0.025295252 0.024979783 0.022208298 0.027438771
0001c0 1a 51 fc 3c 58 25 65 3b 25 66 5c 3c fd 34 5d 3c
       0.030800391 0.0034964886 0.0134520875 0.013501403
0001d0 a9 f3 c3 3c c6 33 1f 3c e9 2d e1 3c 1a c6 83 3c
       0.023919897 0.009716934 0.027487712 0.016085673
0001e0 8a 21 ed 3c 04 12 1c bc 45 b1 05 3d fd 5c e0 3c
       0.028946657 -0.00952578 0.03263976 0.02738809
0001f0 76 a2 b6 3c a6 b0 21 3c 73 9b e5 3c ea 63 18 3d
       0.022294264 0.009868776 0.028028226 0.03720466

encoder.bn3.running_mean f4 [128]
000000 b4 4a 8a be ff 0d 8c be 93 7a 92 bd e9 df 43 3e
       -0.2701012 -0.27354428 -0.071522854 0.19128384
000010 71 f3 78 3e ab 17 90 3d 72 7a 56 3e d0 f3 97 be
       0.24311616 0.07035764 0.20945147 -0.29678202
000020 a4 84 48 bc fb 54 7a 3e f4 98 43 be d2 c6 b8 3e
       -0.012238655 0.2444648 -0.19101316 0.36089188
000030 ed c2 12 be 71 fe da bd fc 4e e8 3c be d6 7e 3e
       -0.14332171 -0.10693062 0.028357975 0.24886605
000040 2b 9d a8 bd 1e c2 e0 3e 6b 23 57 3e a9 5d ec bc
       -0.082331024 0.438981 0.21009605 -0.028853254
000050 33 16 cf 3e 27 23 cc 3e 92 6f b5 be 63 f7 d9 bd
       0.40446624 0.3987057 -0.35436684 -0.106428884
000060 9a 65 45 3e 3f 47 16 bb 23 43 12 bf c2 79 2f 3e
       0.19277039 -0.002293065 -0.5713369 0.1713629
000070 54 5b a7 3e 8a b9 b7 3e 34 7e 50 bd 54 06 d3 3e
       0.32686865 0.35883743 -0.050901607 0.41215765
000080 58 2a f9 3e 7e 9f df be 70 26 f1 3e 4a fc a1 3e
       0.48665118 -0.4367637 0.47099638 0.31637794
000090 20 1d 34 be 86 9b f8 bd c2 91 1e 3e 10 43 59 be
       -0.17589235 -0.12139039 0.1548529 -0.21216989
0000a0 03 8f 4f 3e 7e 1b 3d be 40 5e 9c be 08 32 5c be
       0.20269398 -0.18467519 -0.30540657 -0.2150346
0000b0 29 3d 96 bd c2 48 b6 be 46 93 c0 3e 03 54 07 3f
       -0.07335884 -0.35602385 0.3761236 0.52862567
0000c0 6d 3d 76 3e 3c a4 c8 bd 3f 28 87 be 9d 2b d4 bd
       0.2404687 -0.0979695 -0.26397893 -0.10359881
0000d0 04 1a a2 be 32 9c 9f 3d d6 3b 11 3e 44 64 de be
       -0.31660473 0.07793464 0.14182982 -0.43435872
0000e0 c2 15 0c be 21 b1 40 be 3a ce 87 3e 28 4f b7 3d
       -0.13680175 -0.1881757 0.26524526 0.08950645
0000f0 e4 0d bf 3d 39 23 49 3c 7b 5a c5 3c de 6b d1 3e
       0.09328821 0.012276464 0.024090996 0.4090261
000100 09 d2 1d 3e e8 aa ba be 89 dd 9d 3e 39 93 64 be
       0.15412153 -0.36458516 0.3083308 -0.22321786
000110 30 6e ab be 94 0a 47 bd 5e dd 3d 3e d1 fd 96 3d
       -0.33482504 -0.048594072 0.18541476 0.073726304
000120 58 25 71 3e 5b e3 0b be 8e a3 06 3f 0e a4 70 3e
       0.23549402 -0.13660948 0.52593315 0.23500082
000130 7f 7f e1 be 52 f9 13 3e 93 d2 ef be d6 36 bd bc
       -0.44042584 0.14450577 -0.46840343 -0.023097437
000140 f0 56 b2 be 00 a6 a1 bd 9e a3 1c 3f 5d 57 5d 3e
       -0.34831953 -0.0789299 0.6118716 0.21615358
000150 19 67 c2 3d 87 cb a8 3d a3 7b 13 3e 5e 1c 26 be
       0.094923206 0.08241945 0.14402632 -0.16221759
000160 af 40 79 bd d3 15 a7 bd d2 46 7e be da e7 7c bb
       -0.060852703 -0.081584595 -0.24831703 -0.0038590343
000170 38 59 d5 be c4 6a 1d be 95 d9 c8 3e 54 3b 27 bd
       -0.4166963 -0.15372759 0.39228502 -0.040828064
000180 14 95 5d 3e 23 60 e0 bd 05 99 a7 bd 15 dc 03 3f
       0.216389 -0.109558366 -0.08183483 0.51507694
000190 b1 e1 dc 3c f6 a7 34 be 64 43 9f 3d 85 3f 87 3e
       0.026963087 -0.17642197 0.077765256 0.2641565
0001a0 a4 90 05 bf 9f d9 91 be 1e f0 cc ba c5 c8 b5 be
       -0.5217383 -0.28486344 -0.0015635525 -0.35504737
0001b0 f3 83 c4 3d 28 9f e5 be 33 4a 3e bf a6 52 10 bf
       0.0959548 -0.4484799 -0.7433197 -0.5637611
0001c0 d1 f1 51 3d 69 dc 8b 3e 4b 22 d4 3e 36 80 db bd
       0.051256005 0.27316597 0.41432413 -0.10717814
0001d0 16 8d 1d 3e b8 2b 23 3e 67 60 1e bf 31 12 c7 bd
       0.15385851 0.15934646 -0.6186585 -0.097202666
0001e0 f1 cb 8a be 02 8c 1a bd 80 65 c1 be e3 0b 10 3f
       -0.2710872 -0.037731178 -0.3777275 0.5626814
0001f0 87 f0 84 be 76 5f f1 3d 99 00 79 3e de 2a 68 3e
       -0.25964758 0.11785786 0.24316634 0.22672603
