wesad_baseline/src/checkpoints/baseline_cnn_5s.pt (torch, 665228 bytes, 48 tensors)

encoder.conv1.weight f4 [32, 8, 7]
00000000: 9e74 db3d 0fc3 30bc efb9 9bbc 3a2d d0bd
00000010: 2936 07be 8ef7 93bc 4f13 d4bd c2c1 803c
00000020: 7c36 463b 91d9 b2bc a559 cebd c556 48bd
00000030: 46e7 dabd efcf dfbd caad b3bc 6cae 11be
00000040: a4d2 f13c 3d90 82bd 3ca3 f83d c465 76bd
00000050: ffb4 b33d 8a73 55bd 1e20 f43b 10a3 f2bc
00000060: 8076 d03d 8eaa f43d 012c e6bd b377 bbbc
00000070: ceea 40bc 7043 2b3d 847a 96bc d15e 6bbd
00000080: 08b4 d33d 26cd e3bc a0d7 0c3d cb6a 0cbe
00000090: 13ab d4bd c9ff a8bc 3d92 9cbb a26c 20ba
000000a0: 978b 363d a7cd 4bbc c3e3 d53d 3ffb c5bd
000000b0: 32ab a2bc 58f2 6c3d a059 a13c d3e6 3abd
000000c0: 2d25 e7bd 7c43 84bd d237 53bd 848f 55bc
000000d0: 888b 113e a695 06bd 073f 3abd 0803 28bd
000000e0: a38f b1bd 7a46 c1bd 2575 20bd eb0f 00bd
000000f0: eed7 0fbe 5254 a93d 9c78 e5bd 8e96 1bbd
00000100: 7095 e33d 7537 153d 0080 c53d 0a40 bdbd
00000110: af25 d43c 1d6f 8bbc 0c2a fbbd 3548 c73d
00000120: 7a2d ec3b 3e9a 1f3d 7d7f dbbd 59b0 02be
00000130: c308 3abd 393b da3d 752f f13d 0b52 f83d
00000140: 63ba 65bd e2c4 123d f6b4 0cbd 6e49 f5bd
00000150: 856e 753d 0996 a1bb 94bb bfbd 06a4 7b3d
00000160: c6fb e43d eec8 8e3d 1f2a 14ba ae05 f13d
00000170: 28b7 d7bd 463f 543d df87 a83c 829f 853d
00000180: b020 9fbb 6f2d eabb 29e4 febd 23ee 9fbc
00000190: b45d b93d ab71 27bd 8399 05be 65b0 c33d
000001a0: f1f5 62bd 5429 dcbc eab6 33bd 7a02 793d
000001b0: d76f 56bd 702d f8bd 356b febd 31c7 033e
000001c0: b2cd 7dbd 98ad 153d 88e2 bc3d 34ef 47bd
000001d0: 8646 a2bd 88cb 7b3d 518c 343c 879e d5bc
000001e0: 3af0 0ebe ce25 e93d dc97 f3bd b17a d5bd
000001f0: c3b1 943d 7d7f fdbb c263 6dbd fdd4 023d
00000200: 415c a93d 71d3 f6bc 6b55 5dbd 8b7e 773c
00000210: e529 f33d 2a51 acbc 5725 cfbc 1ef2 60bd
00000220: a456 e8bd d232 0d3e 1998 70bd b82c b23d
00000230: adc0 eabc b21d 41bc b96b 54bc 320e ebbc
00000240: 09aa c4bc 6c66 4d3c 740a 59bd 4265 5abd
00000250: a48d d2bd ab34 083e cdf1 efbd adfc 4cbd
00000260: 0d3b c33d 0fd3 d93d 4e80 e03d 880f dc3d
00000270: 0902 113e 404d 143b cb1b 473c 5e84 e33c
00000280: f744 cebd 7830 c43d b943 b83d 5f79 353d
00000290: 3b7a 95bc a3a7 aa3d 2f65 c1bd e66e 0bbe
000002a0: 2092 05be a70b 49bc 707d fbba 8180 db3d
000002b0: c8fe e6bd 6715 e83d 557f c4bc 041f 4abd
000002c0: e742 e0bd 505c 6dbd 0104 3abd d852 88bd
000002d0: 2593 f53d 0ae9 b73d 0c60 9f3c c0ad f33c
000002e0: 6c6d 0bbe 2bf6 1bbd 8581 e93d a4a1 00be
000002f0: 01eb dabd c90b fd3c ffb7 6ebd 175e df3d
00000300: 4b6c 63bd f5e0 903d 950b 31ba 602b 403d
00000310: e039 ab3d 31c6 873d bc98 8c3c de12 2ebd
00000320: 44a9 c9bb 9683 3a3c 93bf cb3c f3ff c6bd
00000330: c00d 573d be63 93bd c2df e1bd 4616 2dbd
00000340: ae94 7ebb 2976 f8bc 9c1d 093e cdce c93d
00000350: 78cf acbd 4394 093b 90ad 813c a472 2bbd
00000360: 9a25 083d b2fa 6b3d d6c2 ac3d 362e 193c
00000370: e10c 97bd 8196 f8bd e9e4 42bd b255 113d
00000380: ad8b 0f3e 33ab 0b3e fc1e d43d b2ac b83d
00000390: 6a92 99bd 8901 bc3d 356a d83c dc43 10be
000003a0: 749c 50bb 77a6 04be 2bff 00be 8d53 0bbd
000003b0: 920f 1f3d 03f9 84bd 9699 9b3a a245 3fba
000003c0: 5cf6 3a3d c3a3 fe3d d412 cdbd a695 b3bd
000003d0: e3f3 b6bd d099 3ebd 30ca a6bd 8362 8fbc
000003e0: 03c4 26bd 88ff 9fbd a494 da3c 1b97 a53d
000003f0: b287 513d 307c 073d 591e 56bd 6542 1fbd
0.10715602 -0.010788693 -0.019009558 -0.10164876 -0.13204254 -0.01806238 -0.10355245 0.01571739
0.0030244878 -0.02183226 -0.10075692 -0.048910875 -0.10688643 -0.10928332 -0.021933455 -0.14226693
0.029519387 -0.063751675 0.121405095 -0.060155645 0.08774757 -0.05211214 0.0074501177 -0.02961877
0.10178852 0.11946593 -0.11238862 -0.022884225 -0.011774732 0.04181236 -0.018368967 -0.05746347
0.103370726 -0.027807783 0.034385324 -0.13712613 -0.10384192 -0.02062978 -0.004778175 -0.0006119703
0.044566717 -0.012439168 0.10443833 -0.09667062 -0.019857023 0.057848305 0.019696057 -0.045630287
-0.112863876 -0.06458184 -0.051566906 -0.013034705 0.14213383 -0.03285756 -0.045470264 -0.041018516
-0.08669975 -0.094372705 -0.039174218 -0.03126518 -0.14047214 0.08268036 -0.11204645 -0.037985377
0.11112487 0.03642984 0.09643555 -0.0924073 0.025896875 -0.017020756 -0.12263879 0.09730569
0.0072075697 0.038965456 -0.10717676 -0.12762584 -0.045418512 0.10655827 0.1177663 0.121250235
-0.056085955 0.035832293 -0.034352265 -0.11976896 0.059919853 -0.0049312157 -0.093619496 0.06143572
0.111808345 0.06971918 -0.00056520285 0.117686614 -0.10532981 0.051818155 0.0205726 0.06524564
-0.0048561916 -0.0071465294 -0.12445862 -0.019522732 0.090510756 -0.040879887 -0.13046841 0.09555129
-0.05541033 -0.026875176 -0.043875612 0.060793377 -0.052352753 -0.121180415 -0.12422792 0.12868954
-0.061963744 0.036542505 0.09222895 -0.048812106 -0.079236075 0.0614734 0.011019782 -0.026076568
-0.13958827 0.11384164 -0.11894199 -0.10423792 0.07260468 -0.007736145 -0.057956465 0.031941403
0.08269549 -0.03013012 -0.05403654 0.015105854 0.11873225 -0.021034796 -0.02528636 -0.0549184
-0.113446504 0.13788918 -0.0587388 0.08699936 -0.028656328 -0.011786865 -0.012965136 -0.028693292
-0.02400686 0.012536626 -0.052988485 -0.053319223 -0.10280922 0.13301341 -0.11716042 -0.050045658
0.095327474 0.10635959 0.10961972 0.1074515 0.14160933 0.0022629052 0.012152622 0.027773079
-0.10071748 0.09579557 0.08997292 0.0443052 -0.01824676 0.083327554 -0.09443127 -0.13616523
-0.13044024 -0.012270845 -0.0019187164 0.107178695 -0.112790644 0.11332207 -0.023986498 -0.049345985
-0.109502606 -0.057949364 -0.045413975 -0.06656426 0.11990956 0.089799955 0.019454978 0.029745936
-0.1361596 -0.03807656 0.11401657 -0.12561661 -0.10689355 0.030889409 -0.05828094 0.10906618
-0.055523198 0.07074157 -0.000675374 0.046916366 0.08360648 0.06629599 0.017162673 -0.042498462
-0.0061542112 0.011383912 0.024871623 -0.09716787 0.052503347 -0.07196759 -0.110290065 -0.04225757
-0.0038845944 -0.03032978 0.13390201 0.09853897 -0.08438009 0.0020992912 0.015829831 -0.041857377
0.033238985 0.05761213 0.084355995 0.009349396 -0.07375503 -0.12138081 -0.047581587 0.035482116
0.14018126 0.13639526 0.10357472 0.09017314 -0.074986294 0.0917998 0.026417831 -0.14088386
-0.0031831535 -0.12954126 -0.12597339 -0.034015227 0.03883321 -0.06492808 0.0011871334 -0.0007296448
0.045645103 0.12433579 -0.10013357 -0.087687775 -0.089332364 -0.046533406 -0.08144033 -0.017503029
-0.040714275 -0.078124106 0.026682205 0.08085462 0.0511548 0.03307742 -0.052275036 -0.038881678

encoder.conv1.bias f4 [32]
00000000: b69c c6b6 87b1 9bba 78cd e53b ffd2 0dbd
00000010: b2ac c83c 900b 89b7 95f0 d03c e0f6 b3b9
00000020: 0c54 21b9 edeb acb6 4f6b 96b6 56c6 80b7
00000030: 5643 01bc c924 84b7 6d87 78b9 4b18 f6b6
00000040: 003a 3837 32bb a837 d9b2 b8b7 5af2 dd37
00000050: 585d e6bc f6ff 39b8 41b8 ae3c 8286 63b9
00000060: fa63 77bc f1ea 93ba 2527 1537 af23 8238
00000070: d0c2 c4b7 5610 9038 8b61 4e38 a484 4bbb
-5.9191034e-06 -0.0011878469 0.007013019 -0.03462505 0.02449641 -1.6337057e-05 0.025505343 -0.00034325477
-0.00015385466 -5.153465e-06 -4.4828407e-06 -1.5351146e-05 -0.007889589 -1.5752756e-05 -0.00023701573 -7.3341994e-06
1.0980759e-05 2.011433e-05 -2.2017792e-05 2.6458107e-05 -0.028120682 -4.434582e-05 0.021328093 -0.00021698515
-0.01509952 -0.0011285228 8.890206e-06 6.20553e-05 -2.3455737e-05 6.869498e-05 4.920507e-05 -0.0031054402

encoder.bn1.weight f4 [32]
00000000: d82d 7b3f 8d66 7e3f b9c5 7f3f d237 7c3f
00000010: 3976 813f b221 803f 5475 813f ea2c 813f
00000020: 4127 7f3f a7a0 803f 950a 813f a599 7a3f
00000030: 92a4 783f 3ea3 843f a89c 7c3f 55eb 7a3f
00000040: 4f10 803f 9bd4 7f3f 43dd 7b3f a973 7f3f
00000050: 19d2 7e3f 295c 7f3f c10b 813f 7f18 833f
00000060: 38c1 7c3f a94f 7d3f 4c8a 7e3f 9065 813f
00000070: b2f4 793f 3bf6 803f 4214 7e3f 14c5 7d3f
0.98116827 0.9937523 0.99911076 0.98522675 1.0114204 1.0010283 1.0113931 1.0091832
0.9966927 1.0049027 1.0081354 0.9789069 0.97126114 1.0362318 0.9867654 0.9801534
1.0004977 0.99933785 0.98384494 0.9978586 0.99539334 0.9975 1.0081712 1.0241851
0.9873233 0.98949677 0.99429774 1.010912 0.97639 1.0075144 0.9924966 0.9912884

encoder.bn1.bias f4 [32]
00000000: ee7e cd3b ab9f 283c 87d2 133c e567 b6bc
00000010: d18b a5bb fe02 0bbb e362 dcbb 4a88 79ba
00000020: ee85 83bb 5df0 80bc 8d4d ac3c 8074 6c3a
00000030: 2f4d 9dbc 69ef f73c 3be3 d3bb 0e58 77bc
00000040: d3a6 67bb 45b8 ba3b a2f1 0abd 50f5 0fbc
00000050: 28c8 2bbc ca7c 0d3b d54f 943a 57a7 993c
00000060: 0145 37bc 69fa 26bc b127 b83b ec30 503c
00000070: 67a8 9ebc 8ca4 463a e441 1c3c 90d5 a1bc
0.0062712347 0.010291974 0.009022362 -0.022266338 -0.005052068 -0.00212115 -0.0067256554 -0.0009518905
-0.0040137684 -0.015739614 0.021033073 0.00090200454 -0.019201843 0.030265527 -0.006466297 -0.0150966775
-0.0035347238 0.005698236 -0.033921845 -0.008786514 -0.010484733 0.0021589273 0.0011315296 0.018756552
-0.011185885 -0.010191538 0.005619966 0.012706976 -0.01936741 0.000757762 0.009537194 -0.019755155

encoder.bn1.running_mean f4 [32]
00000000: 31b3 bcbd 795f 813c b5f5 08bc f985 84bd
00000010: 9b9e 01bc ffa7 17bc 8946 1abc 25ee c23c
00000020: 32e6 cb3d 9421 663c e742 96bc 153e 093d
00000030: dc54 8ebd da11 6bbc 9cb4 85bb 4d13 aa3d
00000040: dba6 18ba b8ea 80bc 3607 c43c 4843 3abc
00000050: f2c2 e4bc a46c 093b 6f0e c3bb efc2 683d
00000060: dec3 d4bc 5b0b af3d b486 1d3d 2ba0 fdbc
00000070: 4b38 47bc e401 623d 037e e33c edfc 49bc
-0.092138655 0.015792595 -0.008359362 -0.06470866 -0.00791135 -0.009256362 -0.009416231 0.023795197
0.09956016 0.014046092 -0.018342448 0.03350647 -0.069497794 -0.014347518 -0.004080368 0.083044626
-0.0005823203 -0.015736923 0.02392922 -0.01136858 -0.027924988 0.0020969296 -0.0059526484 0.05682653
-0.025972303 0.08547088 0.03845854 -0.030960163 -0.012159417 0.055177584 0.027770048 -0.012328369

encoder.bn1.running_var f4 [32]
00000000: 1c56 c73e c2c1 dd3e 924f 933d 2e32 963e
00000010: 560a b13e 951e 013f db02 b73e b5d5 043f
00000020: a3e2 8c3e 3349 093f 0655 b83e afe1 c63d
00000030: 40d0 d63e 0605 913d 5fd4 4a3e 4ae4 d33e
00000040: 2644 263e 698b 6d3e 52ac 383e 5b64 ad3e
00000050: 4850 aa3d f306 103e cce0 8f3e a178 a23e
00000060: c08d 0a3f 552c ba3e 8709 c83e 4306 d53e
00000070: 6f7c 243e 8195 063e 1dda c53e 552d e03d
0.38932884 0.43311888 0.07192911 0.2933516 0.34578198 0.5043729 0.35744366 0.5188859
0.2751666 0.5362732 0.36002368 0.097110145 0.41955757 0.07081036 0.19807576 0.41385108
0.16236934 0.23197712 0.18034485 0.33865628 0.08316094 0.14065151 0.28101194 0.31732658
0.54122543 0.36361948 0.3906977 0.4160634 0.16063093 0.13142969 0.3864297 0.109461464

encoder.conv2.weight f4 [64, 32, 5]
00000000: 5ccb e9ba b71f 8a3d 62c3 00bc ab2b b23c
00000010: 78c4 17bd f5c3 133c 7398 693d 8b81 b8bd
00000020: f77e 80bc 7bf5 40bd 3ffe 773d dc34 65bc
00000030: e156 ae3d 83af ccbc e723 9d3d 9ade 803c
00000040: b9d5 adbc d1e7 5c3d d313 993c 646c 123d
00000050: eb9f 9e3d a563 19bd 85eb ed3c 536e e3bb
00000060: 8bf2 8db9 5e6e 4fba 9fc6 35bd 5c33 adbc
00000070: 08f0 643d 072f 6fbd 4450 72bc 58e2 d5bc
00000080: 1ffc 8dbd b6ee c9bc 3f99 16bb be41 bc3c
00000090: 6f00 583d 1d86 983d 1e40 243d bfee e8bc
000000a0: d903 a1bd 58f6 3dbd 573b 05bc 2fba 9a3c
000000b0: 8d59 08bd 4c21 313d cad9 5b3d 6151 9cbc
000000c0: 1e0f ad3d b511 18bd 3ed8 143d 34d6 753c
000000d0: 7684 aebd dce3 63bd 41d8 85bc bbed 993c
000000e0: 1ccc 01bd 9b17 88bd 5327 6bbd 1338 b4bc
000000f0: 35e9 1dbd 7d18 153d 9ff7 953d 3515 ff3c
00000100: e71a 943d 90db 51bd 3b1c 47bd e7af b0bd
00000110: 811a d03c 8864 71bd b3d0 d2bc 7a16 703d
00000120: 5638 783d bbdc 8c3d 4d67 dd39 8360 113d
00000130: 0d21 9c3d ea7b 18bd 4f91 a038 b171 8d3d
00000140: 31b2 a8bc b1b9 b93c da52 5b3d d7e7 45bd
00000150: 9538 ab3c a3af 4bbb fa9f 853d ce97 81bd
00000160: dc85 8dbd 4999 96bd 0e77 a53c f13a 54bd
00000170: 4244 403c 244f c3bc ff45 00bd 4835 6b3d
00000180: 5abb 64bd 4076 1b3d 4a11 ab3d 9583 10bd
00000190: f580 9d3c 2be1 2dbd 3880 6dbd bd0b 803d
000001a0: ca71 373d 5b5d 5abc bdc2 283c 6ffc eebc
000001b0: bd77 2b3d 60f2 073d 2700 903d b167 4e3d
000001c0: a4fa a4bb 82cb 57bd 8525 01bd 5104 4ebd
000001d0: 388f 7b3d 9742 883c 44a4 083c 8274 853d
000001e0: bdb5 6dbb eda8 9a3d c9ae 83bd 3db8 33bc
000001f0: d525 923d 4d67 34bd cdf2 a8bd 3d11 cdbc
00000200: c078 fd3c 1dcd d0bc aae1 cf3c f6c8 893d
00000210: 13f3 87bd 2938 38bc aa24 933d 69e4 6a3d
00000220: d699 52bd d71d 803c 7124 a6ba 21a7 4a3d
00000230: 8711 eabc d963 09bd afe5 5f3d c015 663d
00000240: ee4a e73b 16bb 0cbd ba45 c93b fefb 24bd
00000250: ea30 4a3c c18f 533b f5a3 74bd 7449 8c3a
00000260: ddcd 4f3d 3ad6 8bbc f2ff 44bd f786 e53c
00000270: dbfe 0a3d ad2d 093d 12a5 22bd 28ef 6e3d
00000280: de3a f7ba d96e 903d e94c 8f3d 9309 893d
00000290: aacc cdbc 3748 4ebb d6c8 9d3d 21fa 23bd
000002a0: ba39 7ebb 8ca4 933d 10c0 893c 829e 4d3d
000002b0: 3159 a1bd 432d 9fbd 05d7 6cbd 71b5 333d
000002c0: ff59 493d e6c8 8a3d 2c71 61bd 1251 753d
000002d0: 62d4 f13b 40f7 323d f2b0 473d a370 34bc
000002e0: 1d9c 8f3d 13b6 ebbb 4ddb 45bd e766 acbd
000002f0: b6fa a6bd 138d 90bd 26d3 0c3d be6f f1bc
00000300: 8e02 40bd 9d9d 8c3c 69f3 17bd 0e1e 953c
00000310: 0511 1a3d ba1b 68bc 8a7f 6a3c a753 95bd
00000320: 790d 723c 7362 753d 0b59 61bd b750 27bd
00000330: 2abe 113d 943c 36bd aceb de3a 12fe 21bd
00000340: c589 a23c 8a43 9b3c f08a 4fbd 8669 533d
00000350: 90b5 ddbc 8622 2f3c 7477 f8bc cc5c 953d
00000360: 9a06 15bd 3e36 a13c 5c04 a63d b385 74bd
00000370: 3f8c 71bd d034 3c3d 744e 87bd 3b92 8a3c
00000380: f198 ab3d 5cf4 9ebd ee67 10bc b0e3 6cbd
00000390: 09da 06bb ff37 65bc f973 02bd 43dd 363d
000003a0: 7e67 2d3c c35a 653c 85a5 92bd 3110 b8bc
000003b0: 779c 5ebd a9a2 39bd 6351 8f3c e2f5 8d3c
000003c0: f8f4 20bd 14f3 0ebd 87bd 94bc 0b10 9dbd
000003d0: 23c9 593d ff80 813d 893f 8cbc 9a2f 363d
000003e0: 1907 57bc cc61 1b3d edfb 55bd e1b4 fc3b
000003f0: f8dc 90bd 5803 c63c 5010 2ebb b500 443d
-0.0017837095 0.067443304 -0.007859083 0.021749338 -0.0370526 0.009018888 0.057030153 -0.09009083
-0.015685542 -0.04710911 0.060545202 -0.013989653 0.085126646 -0.024986034 0.076728635 0.015731145
-0.021220075 0.053932015 0.01868621 0.0357479 0.07745346 -0.037448544 0.029042969 -0.006940642
-0.00027074324 -0.00079128693 -0.044378873 -0.021142654 0.055892974 -0.05839446 -0.014789645 -0.026108906
-0.06932854 -0.024649959 -0.0022979525 0.022980567 0.05273479 0.07447455 0.04010021 -0.028434156
-0.07862062 -0.04637751 -0.0081318235 0.018887607 -0.033288527 0.043244645 0.053674497 -0.019081773
0.08450149 -0.03712626 0.036339037 0.015004683 -0.08521359 -0.055637226 -0.01633847 0.018790117
-0.031688794 -0.066451274 -0.05741055 -0.021999395 -0.03855248 0.036400307 0.073226206 0.031138042
0.07231694 -0.05123478 -0.048610907 -0.08627301 0.025403263 -0.058933765 -0.025734281 0.058615185
0.0606006 0.068780385 0.0004222937 0.03549243 0.076234914 -0.03722755 7.6564604e-05 0.069064505
-0.02059278 0.022671552 0.05354581 -0.048316803 0.020901004 -0.003108003 0.06524654 -0.063277826
-0.06910297 -0.073534556 0.020198371 -0.051814023 0.011735024 -0.023841448 -0.031316753 0.05742386
-0.055842735 0.03795457 0.08352907 -0.035281736 0.01922653 -0.042451065 -0.057983607 0.06252239
0.044786252 -0.013327922 0.0103003355 -0.029173104 0.04186224 0.03319013 0.07031279 0.050391857
-0.0050347615 -0.052684315 -0.031529922 -0.050297085 0.06141588 0.016633315 0.008339945 0.06516363
-0.0036271655 0.07551751 -0.06429822 -0.010969219 0.07136122 -0.044043828 -0.082494356 -0.025032634
0.030941367 -0.02548843 0.02537616 0.067277834 -0.066381596 -0.011243858 0.071847275 0.057346735
-0.05141624 0.015639229 -0.0012675655 0.049475793 -0.02857281 -0.033542488 0.054662403 0.056173086
0.007058493 -0.034358107 0.0061423453 -0.04027938 0.012340764 0.003228173 -0.059726674 0.0010703043
0.050733436 -0.017069925 -0.04809565 0.028018458 0.033934455 0.033490825 -0.039708205 0.058333546
-0.0018862148 0.070523925 0.06997091 0.06691279 -0.025122005 -0.003147615 0.07704322 -0.040033463
-0.0038791732 0.07209119 0.016815215 0.050199993 -0.0787834 -0.07772305 -0.057822246 0.043874208
0.049158093 0.067765996 -0.05503957 0.059891768 0.0073800543 0.043692827 0.048752733 -0.011013183
0.07012198 -0.007193336 -0.048304845 -0.084180646 -0.08153288 -0.07058158 0.034381054 -0.029472228
-0.046877436 0.017165 -0.03709737 0.018202808 0.037613887 -0.014166767 0.014312634 -0.07291346
0.01477372 0.05990834 -0.05501656 -0.04084846 0.035581745 -0.044491366 0.0017007492 -0.03954894
0.019841084 0.018953104 -0.05066961 0.051614307 -0.027064115 0.010689383 -0.030330397 0.0729309
-0.03638325 0.019679185 0.081063 -0.059697818 -0.05897164 0.045948803 -0.066067606 0.016915431
0.08378781 -0.077614516 -0.008813841 -0.057834327 -0.0020576736 -0.013990401 -0.03184888 0.044644605
0.0105837565 0.01399869 -0.071604766 -0.022468658 -0.054348435 -0.04532114 0.017494863 0.01732916
-0.03929612 -0.034899786 -0.01815678 -0.076690756 0.053170335 0.06323432 -0.01712014 0.04447899
-0.013124251 0.037935063 -0.05224221 0.007711992 -0.070733964 0.024171516 -0.0026560016 0.047852237

encoder.conv2.bias f4 [64]
00000000: 2eaa 2237 dc9d 04b7 70d5 4eb6 3f03 36b7
00000010: 1436 ba35 0166 61bb f00f 9f36 5d42 863b
00000020: 28d7 d2b6 a80b 023a d681 1539 341f 4c39
00000030: b6a5 59b7 f24b f0ba cde8 9bb5 a4ab 0cb9
00000040: e147 e13a 9e81 8c36 d717 99b5 7793 deb5
00000050: 209f 98b7 cfd9 ebba ebfb 27b7 eb62 d3b8
00000060: b4e5 8ab6 9fdd a136 fd1d 973b 21c1 6e35
00000070: b223 7437 b0f8 9db4 ec4d 1939 45c0 05b9
00000080: b0d5 66bb d8cb c639 c337 53ba 242a da37
00000090: f266 54b8 f1ae 69ba f14d d6b6 3777 093b
000000a0: 39d3 7737 3f77 0cbb a447 9bba 4792 25bb
000000b0: 2ad4 d53a 00b1 e4b2 1edc a835 e839 73ba
000000c0: 29d0 a6b9 5c77 80bb 190d dbb9 57de b0b7
000000d0: 6e4b 253b bdb8 913b 64bf 1ebb c9a6 c7b7
000000e0: 083a b8b6 377d 6038 1c8f 2137 a852 7136
000000f0: 96b0 a4b6 7269 9336 4513 f237 1e95 a8b6
9.6955755e-06 -7.904568e-06 -3.082063e-06 -1.0848801e-05 1.3873819e-06 -0.0034393074 4.7404246e-06 0.0040972666
-6.283535e-06 0.00049608434 0.00014258115 0.0001946658 -1.29727905e-05 -0.001833318 -1.1616154e-06 -0.00013415382
0.0017187559 4.1874146e-06 -1.1406327e-06 -1.6583207e-06 -1.819391e-05 -0.0017993989 -1.001263e-05 -0.00010079689
-4.1394615e-06 4.823974e-06 0.004611729 8.894295e-07 1.4551844e-05 -2.9424473e-07 0.00014620245 -0.00012755494
-0.0035222583 0.00037917378 -0.00080573204 2.6007248e-05 -5.0640614e-05 -0.0008914313 -6.3867706e-06 0.0020975599
1.4771526e-05 -0.002143338 -0.0011846912 -0.002526419 0.001631384 -2.6623184e-08 1.2581038e-06 -0.0009278343
-0.0003181708 -0.0039204787 -0.00041780694 -2.108437e-05 0.0025221962 0.0044470713 -0.0024222964 -2.3800314e-05
-5.490383e-06 5.3522377e-05 9.629668e-06 3.595991e-06 -4.908138e-06 4.393217e-06 2.8857621e-05 -5.0241497e-06

encoder.bn2.weight f4 [64]
00000000: ecb8 7a3f 826b 803f 5a50 7e3f a215 7b3f
00000010: 78f3 7c3f d1f1 7a3f b045 7f3f c0d0 7a3f
00000020: 7658 7c3f 505b 813f ec93 813f 675f 7f3f
00000030: 29d4 7e3f 812e 7b3f 8554 743f 5bb1 7e3f
00000040: b59b 813f 8747 7b3f 8bf9 793f a0c7 7f3f
00000050: e60f 813f 9a27 803f 2da3 7a3f 8399 803f
00000060: 4086 7c3f e2db 7d3f 5ce4 7c3f c3f6 7c3f
00000070: 8963 7d3f 0452 7e3f 48f4 813f b875 7e3f
00000080: f067 753f 54e3 7d3f a869 803f 1980 803f
00000090: 2671 7e3f f333 813f b8c2 7d3f 9d95 823f
000000a0: 8f5a 813f 8bf2 803f 8a91 803f d735 7d3f
000000b0: 2888 7b3f a702 813f 2bb7 7e3f e7f2 803f
000000c0: b4ca 7d3f a974 7d3f c00a 793f 4ed0 7d3f
000000d0: daeb 803f ecff 7f3f 8820 7f3f faa6 803f
000000e0: 7da3 773f 5224 7d3f 4330 813f 87c5 7f3f
000000f0: 4670 813f 02e9 7e3f 1bd7 823f ff33 7f3f
0.9793842 1.0032809 0.99341357 0.98079884 0.98809004 0.9802523 0.9971571 0.9797478
0.9857248 1.0105991 1.0123267 0.9975495 0.9954248 0.98117834 0.95441467 0.9948937
1.0125643 0.9815602 0.976464 0.9991398 1.0082977 1.0012085 0.97905236 1.0046848
0.9864235 0.9916364 0.9878595 0.9881403 0.98980004 0.99343896 1.0152674 0.99398375
0.9586172 0.99175 1.0032244 1.0039092 0.993914 1.0093979 0.9912524 1.0201908
1.0105761 1.0074018 1.0044415 0.9891028 0.9825463 1.0078934 0.9949824 1.0074128
0.99137425 0.99006134 0.9728203 0.9914597 1.0071976 0.9999988 0.99659014 1.0050957
0.9673384 0.98883545 1.0092853 0.9991078 1.0112388 0.9957429 1.0221895 0.99688715

encoder.bn2.bias f4 [64]
00000000: 3726 b1bb f712 92bb 2a74 2e3b e6b7 8fba
00000010: d163 383c b404 7b3c 6b0d d5bb 2be5 e1bc
00000020: d95f 69bc 531b 13bc f60b 473c 8b12 fd3b
00000030: 29a1 bdbb cff1 10bc 8abf a7bc fec0 3d3c
00000040: 7286 8cbb 7eb7 47bc 2cf6 ecbb 3947 87ba
00000050: a757 9f3c 627e e93b b34a aabc f75b 4cbc
00000060: f206 f0bb aacf a8bb ad7f acbc 1ed7 e1bb
00000070: 9c19 13bb 08ce a1bb 9f2f 0dbd 7fae 013c
00000080: 2872 39bc b8e6 8c3c 5a57 86bb bb1c 15bc
00000090: 917b aebc 2861 953b d920 d93b 699c 19bc
000000a0: b521 d03b 2c53 1b3c f748 52bb 6819 afba
000000b0: 6f4d 56bb 37f9 5c3c c48a 0f3c 1382 37bb
000000c0: af83 77bb 7d4b ec3b 3493 9bbc acce 3e3b
000000d0: 4825 bcba 51d2 f43b 0464 c6ba 9823 7ebb
000000e0: 25cb 3abc d35d 97bb 64fa c33a d2c5 03bc
000000f0: 8c75 d9b7 709d 5ebc ea69 773c dcd9 82bc
-0.005406167 -0.004457827 0.0026619532 -0.001096484 0.011254267 0.0153209455 -0.0065018437 -0.027575096
-0.014244043 -0.008978683 0.012148848 0.0077231578 -0.005787034 -0.008846714 -0.020477075 0.011581657
-0.004288488 -0.012189744 -0.0072314944 -0.0010320909 0.019450976 0.0071256617 -0.020787572 -0.012473098
-0.0073250467 -0.0051517086 -0.021056974 -0.006892099 -0.0022445684 -0.004937891 -0.034469243 0.007915138
-0.011318721 0.017199859 -0.0040997686 -0.009101088 -0.021299155 0.004558701 0.00662623 -0.00937567
0.0063516744 0.009480279 -0.0032086947 -0.0013359012 -0.0032699963 0.013487152 0.008761112 -0.0028001114
-0.0037767699 0.0072111473 -0.01899109 0.0029114885 -0.0014354372 0.0074713607 -0.0015136008 -0.003877854
-0.0114009725 -0.004619339 0.0014951942 -0.0080427695 -2.5923153e-05 -0.013587341 0.0151009355 -0.015973024

encoder.bn2.running_mean f4 [64]
00000000: 87c8 243e 73e3 8abe 9e0d 1abf 3c90 0abf
00000010: f2d6 34be 48b4 f4be 5029 8a3e 66ed 933e
00000020: e494 133f c210 1ebf 2870 cebd 7b14 4abe
00000030: 0d43 0abf 3024 613e 2f82 763e bd54 afbe
00000040: 6fdf 91be ddff d5be c86d 473d a006 363e
00000050: a95a 88ba 88b2 4d3e d319 11be e331 493d
00000060: c4d4 b53e bfab 91bd 40c2 0e3f adc3 92be
00000070: 802a 9d3e a3e7 bd3c 8f29 e7bd f66d 113f
00000080: 1357 c6be 7e37 753d 4527 e3be f49c 03bf
00000090: 45d5 e83e 472f 28be 2b1d 8e3e 38d1 233f
000000a0: 761f 2ebe c594 1abe 32b3 f1bd aa80 8bbe
000000b0: 0a1f 923e 1cb6 643e 1cee 23be 14d4 41bf
000000c0: 20a6 003e 001b 99be edf1 783e 2577 0f3e
000000d0: cbea 1c3d db4e f63d bb6d 453e ae08 813d
000000e0: 366e 62be c386 a7be 5753 553e a0a3 a8be
000000f0: e5b4 d23d ed83 95be 5329 70bd 76f5 41be
0.1609212 -0.27126655 -0.6017703 -0.54126334 -0.1766012 -0.47793794 0.26984644 0.28892058
0.57649064 -0.6174432 -0.10079986 -0.19734375 -0.5400856 0.2198646 0.24073099 -0.34244338
-0.2849078 -0.4179677 0.04868868 0.17775965 -0.0010402995 0.20087636 -0.14170007 0.04911984
0.3551389 -0.07112836 0.5576515 -0.28664914 0.30696487 0.023181742 -0.112872235 0.5680841
-0.38738307 0.059867375 -0.44365898 -0.51411366 0.45475212 -0.16424285 0.27756628 0.6399112
-0.17004189 -0.15095814 -0.11801757 -0.272466 0.28539306 0.22335094 -0.160088 -0.7571423
0.12563372 -0.29903412 0.24311037 0.14010294 0.038309854 0.12026759 0.1928014 0.06300484
-0.22112355 -0.32720003 0.20832573 -0.32937336 0.10288409 -0.29202214 -0.05863316 -0.18941292

encoder.bn2.running_var f4 [64]
00000000: 7f54 713e eb04 c23d 9d7c 3c3e 0a3f 353e
00000010: 49d2 373e b0ad 523e 97bb cd3d affe 593d
00000020: f8ea 2b3e 3ecf c53d 29c1 e33d 5136 c33d
00000030: 9cd6 153e a9d3 4c3e f105 293e cbd6 853e
00000040: 5267 db3d 4937 b73d 8ad2 5c3e 1252 f53d
00000050: c78d 1b3e 7207 343e a61a 083e 4161 963d
00000060: 470a 463e fc63 573e 4eca 1c3e 1665 123e
00000070: eb7b 323e 9649 163e 2422 033e 5b55 a33e
00000080: 93ad 253e da74 d03d cf77 2a3e 615a a03d
00000090: c7ad 3a3e c1ca 003e d3dd 933d 77d7 0a3e
000000a0: c71d b43d 79ee bf3d 9ad5 c33d a0b2 583e
000000b0: 2bf6 9b3e 9c02 063e 8a45 483e fbf8 273e
000000c0: 8489 753e cddb 703e fa34 663e dd7b f33d
000000d0: 3e68 2e3e d02a 493e 0701 de3e a810 133e
000000e0: bb8d 1e3e d45f 253e b88c 113e 56ac de3d
000000f0: d9f6 e53d f517 ec3d 1007 d13d 5b4a ba3d
0.23567389 0.09473594 0.18406911 0.17699829 0.17951311 0.20574069 0.100455455 0.0532214
0.16788852 0.09658669 0.11120827 0.095318444 0.14632648 0.20002617 0.16506173 0.26140437
0.10713066 0.08946092 0.2156469 0.11978544 0.15190803 0.17580965 0.13291416 0.073427685
0.19339858 0.21034235 0.15311548 0.14296374 0.17430083 0.14676508 0.12805992 0.3190106
0.16179495 0.10178538 0.16647266 0.078297384 0.18230353 0.12577344 0.07220044 0.13558756
0.08794742 0.09371657 0.09562226 0.2116189 0.3046125 0.13086933 0.19557777 0.16403572
0.2397824 0.23521347 0.22481146 0.118888594 0.17031953 0.19645238 0.4336016 0.14361823
0.15483753 0.16149837 0.14213836 0.10872714 0.11228723 0.11528007 0.10206425 0.090962134

encoder.conv3.weight f4 [128, 64, 5]
00000000: d85b 62bc b778 a93c 7016 123c 2368 8e3c
00000010: e2dc 81bd 9096 41bd f614 0bbd ce6b fc3b
00000020: 310f b73c ddd0 1bbc afb3 edbc fd5c 103d
00000030: 1867 523d ee75 0cbd 623e 4d3d 57ca 403d
00000040: 3170 3fbd 79b7 53bd 956b 0cbc 1853 4bbd
00000050: 508b 69bc 03e4 f2bc b662 28bb a658 453d
00000060: 663e 343c 2601 25bd 7be8 14bc 0088 43bd
00000070: 2359 afbc c4fa 81bb fa6c 443c f304 15bc
00000080: 148d 5338 4546 d0bb ee9b 8cbc 0411 40bd
00000090: 2a2a a03c 5677 07bd 8ab2 023d 5286 363c
000000a0: eef7 04bd 320d 083b 9ee9 4c3c b74e 64bc
000000b0: 6fc1 353c f979 15bc c0e8 bd39 e1ea 083d
000000c0: 9607 4cbc b143 9a3b f283 7bbd 08a6 65bd
000000d0: f44c 323d e203 1bbd f194 e8bc b468 063c
000000e0: 6946 01bd c18e c3bc 7206 f8bc 99e7 cfbc
000000f0: 46d1 2c3d 7f1a b03b 917b 0abc e420 a93c
00000100: 0933 1cbc 37bd 00bd 97d4 543b 2757 0d3d
00000110: cfeb 213d 46b7 69bc 094c f73c f6ad 0c3c
00000120: ad51 40bc 0e89 41bd 7280 063d 0b52 9cbc
00000130: 6352 fbbc 1e71 85bc 2a43 be3c 7c24 49bd
00000140: 3486 c83c 8fc7 59bc de35 203d 4fe7 df3c
00000150: 4052 9e3c 23bf 41bd 160e 563d 58ce 053d
00000160: f6a5 533d d363 33bd 8c27 a53c de39 173c
00000170: 97ee 87bc 21c6 23bd 7062 453d ffe9 1dbd
00000180: dbbf 82bc deae c1bc a35d 743c bdc4 eebc
00000190: 956a d63c a6ca 02bd e189 8bbd 3a23 513c
000001a0: f790 bb3c 914d b93c c861 34bd 090e eabc
000001b0: 6965 cdbc c939 1fbd 6033 31bd e8d0 023d
000001c0: 5d80 c73c dc15 09bd f429 143d 145f 0fbd
000001d0: e40c c6bc e1d5 4a3b 054d 6abd c0ed 60bd
000001e0: 6383 edbc 9fb5 a13c 9d0a 0a3c a6f3 32bd
000001f0: 99cc 353b c04f 8cbc a9df 29bd d711 dc3c
00000200: ba1c 46bd 28ec 703d f6d8 3bbd 64a1 dfbc
00000210: b19e abbc cf92 d63a bb90 063c 8ba5 c8b9
00000220: 14b2 28bd 5513 453d 41c2 2e3d 2b25 793a
00000230: 6b52 4f3d 7b8f 50bd 617f 56bd 9889 1a3d
00000240: e2a1 43bd 104d 1bbd cbb6 b5bc 2114 b1bb
00000250: 8371 d13c cbf1 573d a289 833c ac58 35bd
00000260: 0984 9f3c 4be5 1abd 93d5 dfbc aaf0 c9bb
00000270: 14e1 91bb 421b 6a3a 1081 133d 2963 3f3d
00000280: a8af 8c3c acea f1bb 1b41 c93c 1d67 ba3b
00000290: a1ac 0fbd aa5c 81bd 5104 973c 247d a43c
000002a0: 7d8d 7ebd 7409 1bbd aece 28bd 6280 56bd
000002b0: c1ca 4fbd 0696 033d 704b 68bc 160e 6a3d
000002c0: cf73 ec3c 7c73 1abd 914a 8b3c 920a f83c
000002d0: 5db4 1fbc 9bfa 563d 3c06 bfbc 14ab 483d
000002e0: b6bd 0dbd a785 d1bc 14f4 df3b e257 f73c
000002f0: af78 19bd af56 1b3c ee08 c0bb e9b2 e13b
00000300: 15e5 433c 2bd8 013d ec07 0fbd 2e76 413d
00000310: 26ca f73c ea30 123d b2f4 93bc 0ddb 23bb
00000320: 24dd 49bd 7f76 5dbd 0be9 033c 8121 083d
00000330: e705 4cbb 3b9d 81bc 85c5 30bd 1ca4 183c
00000340: e50c 5bbd cf42 39bd 150d e0bc d133 c03c
00000350: bea3 8dbd 0855 e53c fbd3 52bd dd57 e6bc
00000360: cd8c 253d fb99 883d 0af2 c4bc 0bcc c5bb
00000370: c995 28bc 130d 633d 25a3 393d e0e4 3ebc
00000380: 2e38 24bd c38d 14bd 003b ed3c ea93 513c
00000390: 8d96 f0bc 2029 4cbd a4bd 0a3d 5c97 42bd
000003a0: 0b02 5cbd 0577 3c3c fcd8 ca3c 68dc 9d3c
000003b0: 8dcc b3bc 2fc9 253c 7fb1 bc3c 2450 2e3d
000003c0: 7f8e 293c 5dd4 6cbd 7bbf 143d 88ca 7f3c
000003d0: 6d8d 453d 0200 77ba 1a4b 63bd 85b9 313b
000003e0: f57a 003d 1ee3 31bd 6da6 6d3c a3f3 3fbc
000003f0: c3d1 a1bb 79c6 8a3c e609 57bd f3ea 0ebd
-0.013815843 0.020687444 0.008916482 0.01738364 -0.06340958 -0.04726273 -0.033955537 0.007703281
0.022346111 -0.009510246 -0.029016344 0.03524493 0.05136785 -0.034292154 0.05010832 0.047067966
-0.046737853 -0.051688645 -0.008570571 -0.04963979 -0.014254406 -0.02964974 -0.0025693602 0.048180245
0.011001205 -0.0402843 -0.009088631 -0.04773712 -0.021404808 -0.003966661 0.011988873 -0.009095418
5.043771e-05 -0.006356033 -0.017164197 -0.046891227 0.019551355 -0.033072792 0.03190855 0.011140423
-0.032463007 0.0020759818 0.012506871 -0.013934783 0.011093481 -0.009123319 0.000362223 0.033427123
-0.0124529805 0.0047077765 -0.06140513 -0.056066543 0.04353042 -0.0378455 -0.028391333 0.008203674
-0.03156129 -0.023871781 -0.03027651 -0.025378989 0.042191766 0.0053742523 -0.008452312 0.020645566
-0.009533652 -0.03143045 0.0032475346 0.034506943 0.039531525 -0.014264887 0.030187624 0.008586397
-0.011738223 -0.047249846 0.03283734 -0.01908209 -0.030678933 -0.01628929 0.023225386 -0.04910706
0.024478056 -0.013292207 0.03911387 0.027331976 0.01932633 -0.047301423 0.052259527 0.032667488
0.051671945 -0.04379637 0.020160459 0.009230105 -0.01659326 -0.039983872 0.04818958 -0.038553234
-0.015960624 -0.023642953 0.014914903 -0.029146546 0.02617387 -0.03193154 -0.06813408 0.012764746
0.022896273 0.022619994 -0.044038564 -0.028571146 -0.02507277 -0.038873468 -0.043261886 0.03193751
0.0243532 -0.033468112 0.036172822 -0.035002783 -0.024176069 0.0030950236 -0.057202358 -0.054914236
-0.028993314 0.019739924 0.008425382 -0.043689393 0.0027740358 -0.017127872 -0.041473065 0.026863975
-0.04836724 0.058818966 -0.045861207 -0.027298637 -0.020949693 0.0016370657 0.008213217 -0.00038270312
-0.041185454 0.04811414 0.042665724 0.00095041347 0.05061571 -0.050918084 -0.05236757 0.037728876
-0.047761805 -0.03791529 -0.022181889 -0.005404011 0.025566822 0.052720826 0.01605684 -0.044274017
0.019472139 -0.037816327 -0.02732352 -0.0061627226 -0.00445188 0.00089304533 0.036011755 0.046725426
0.017173603 -0.0073827114 0.024567178 0.0056885616 -0.03507674 -0.063165024 0.018434675 0.020079203
-0.062146652 -0.037850812 -0.04121273 -0.05236853 -0.05073047 0.032125495 -0.014178142 0.05714234
0.028863816 -0.03770779 0.01700333 0.030278478 -0.009747592 0.05248509 -0.023318402 0.048991278
-0.03460475 -0.025576426 0.0068345163 0.030193273 -0.03746861 0.009481116 -0.0058604395 0.006887783
0.011956473 0.031700294 -0.034919664 0.047231846 0.03024776 0.03569118 -0.018061016 -0.002500239
-0.04928316 -0.054068085 0.008051167 0.033235077 -0.0031131448 -0.015822044 -0.04315712 0.0093164705
-0.053479094 -0.04522973 -0.027349988 0.023462208 -0.06915997 0.027994648 -0.05147169 -0.028118068
0.04041748 0.066699944 -0.024041194 -0.0060362867 -0.010289618 0.05543239 0.045321602 -0.011651248
-0.04009264 -0.036268007 0.028958797 0.012791613 -0.029368663 -0.049843907 0.03387226 -0.04750763
-0.053712886 0.011502986 0.02476167 0.019270137 -0.021948123 0.010118767 0.023033855 0.042556897
0.010348915 -0.057819713 0.036315423 0.015612252 0.048230577 -0.00094223034 -0.055491544 0.0027118635
0.03136726 -0.043429486 0.014505011 -0.011715802 -0.0049383356 0.016940342 -0.052499674 -0.034892034

encoder.conv3.bias f4 [128]
00000000: b8e4 8735 fa94 e3b4 0107 4fb9 d43e 4bb4
00000010: a368 3f39 2c36 59b5 763f c736 6297 b9b5
00000020: 6690 d0b4 f2b7 1c36 22f7 29b7 fa34 f534
00000030: 2afd a6b7 03f0 15b8 e9c9 ddb6 ee29 e835
00000040: 4d6f 5436 a9cb 81b6 8f13 1cb6 781f 87b5
00000050: 0bec aab7 7be1 78b7 27e8 8d39 83f9 9eb7
00000060: 16dc 9336 6d7d 7839 63c9 0d39 2c37 5834
00000070: ce6f 8ab6 bcae ff36 6dad 49b9 345f 1736
00000080: 1513 76b6 c392 80b7 e012 48b6 916e 61b9
00000090: 42d6 6a38 a41c 80b3 99e3 5eb9 7dfd 6739
000000a0: 4813 5f37 27ed 61b9 2988 9435 0ca9 4a36
000000b0: a1b7 1435 fba7 9ab9 a3c5 6bb9 fe77 7eb9
000000c0: f78e 8738 cc3e feb8 90a9 11b7 e8ed 9333
000000d0: 28c2 34b7 d539 d637 d3fd 37b6 b2ed 2236
000000e0: bcb9 70b9 04e6 b7b6 a5f0 8a39 b28d 3bb6
000000f0: c718 8d38 37dc 0837 adf0 c838 8a74 a9b6
00000100: 3977 78b9 cf35 f338 38a8 d3b5 e85e b037
00000110: 9e3f edb5 85d0 b135 000e 30b4 71cf 2bb8
00000120: c34b 5437 ac85 7b34 7785 6eb6 7a1f 6838
00000130: d060 06b7 b9bb 8c36 e11c ab38 0c17 5b36
00000140: 500d d9b6 2eda b439 c1eb 9e37 8194 c939
00000150: 7cf4 ec36 3c1a 58b7 5e13 6036 5ae6 99b7
00000160: 8e8c a8b5 a46e be38 1016 1eb5 accb 1835
00000170: cc6b 1cb4 5bbd 00b7 1f97 a835 f07d 9934
00000180: c0d9 ddb4 457f f036 defe 8e38 a88b bfb8
00000190: 1a0b 9938 f9e6 4039 08af 27b7 c080 08b6
000001a0: 8f01 0536 3ac5 89b9 c88e 7ab6 2cc4 0d38
000001b0: 1442 c635 5d3c e0b5 31ac ac36 8114 f339
000001c0: 05f5 a0b7 bdd0 14b7 7e15 08b9 908c 6737
000001d0: 40b4 74b4 a8a9 1737 7026 90b8 c0f8 0838
000001e0: f135 2f37 2aed 9db6 ee2e bb33 5200 cbb6
000001f0: d2ce f335 7ea5 b636 e209 d235 86d6 1135
1.012485e-06 -4.239044e-07 -0.00019743668 -1.8928705e-07 0.0001825416 -8.091763e-07 5.93805e-06 -1.3827632e-06
-3.8848083e-07 2.3352882e-06 -1.0130725e-05 4.5673352e-07 -1.990663e-05 -3.5747897e-05 -6.6098187e-06 1.729755e-06
3.1655247e-06 -3.8682088e-06 -2.3257196e-06 -1.0067442e-06 -2.0375495e-05 -1.4834451e-05 0.00027066583 -1.8951256e-05
4.4065628e-06 0.00023697848 0.0001352183 2.0136639e-07 -4.1257363e-06 7.619934e-06 -0.0001923346 2.255617e-06
-3.6667964e-06 -1.532713e-05 -2.981331e-06 -0.00021498861 5.598949e-05 -5.965674e-08 -0.00021256357 0.00022124308
1.3296325e-05 -0.00021546018 1.1066487e-06 3.0198744e-06 5.540151e-07 -0.00029498324 -0.00022484972 -0.00024268028
6.463931e-05 -0.00012123361 -8.682153e-06 6.888496e-08 -1.0774042e-05 2.5537718e-05 -2.741687e-06 2.4278238e-06
-0.00022957375 -5.4806023e-06 0.00026500705 -2.794765e-06 6.728019e-05 8.157504e-06 9.5815725e-05 -5.0501594e-06
-0.00023695537 0.000115971656 -1.5769683e-06 2.102503e-05 -1.7676391e-06 1.3248215e-06 -1.639637e-07 -4.0962772e-05
1.2653824e-05 2.3424826e-07 -3.554245e-06 5.5342425e-05 -8.009563e-06 4.194179e-06 8.1592945e-05 3.2646958e-06
-6.4686537e-06 0.00034494832 1.894485e-05 0.00038448352 7.06181e-06 -1.2880711e-05 3.3389874e-06 -1.8346287e-05
-1.2557882e-06 9.0805144e-05 -5.889169e-07 5.6920794e-07 -1.4567848e-07 -7.673482e-06 1.2560957e-06 2.8590102e-07
-4.1322892e-07 7.1673735e-06 6.81856e-05 -9.133603e-05 7.297676e-05 0.00018396591 -9.994728e-06 -2.0340522e-06
1.9819452e-06 -0.00026277622 -3.7336013e-06 3.379972e-05 1.4771381e-06 -1.6706869e-06 5.146045e-06 0.00046363848
-1.9187582e-05 -8.870088e-06 -0.00012977977 1.38014e-05 -2.2789845e-07 9.0398025e-06 -6.8736146e-05 3.2656593e-05
1.0443372e-05 -4.706574e-06 8.7164025e-08 -6.0499087e-06 1.8165103e-06 5.4432885e-06 1.5649096e-06 5.432888e-07

encoder.bn3.weight f4 [128]
00000000: 8481 863f 45ff 843f c44e 873f f2b0 853f
00000010: ed0f 883f 56e7 873f 4b58 843f abdd 853f
00000020: 24bd 843f 3f54 853f d571 863f 4f9b 863f
00000030: dc46 853f 3522 873f f4d4 853f e921 853f
00000040: 8fa5 873f e8be 873f b228 863f 85dd 863f
00000050: ea8d 873f fa6b 883f 3df8 863f d95a 853f
00000060: c6b6 863f 709e 853f c00f 873f 6908 863f
00000070: 9664 873f 5f26 853f 4b0b 883f 84e5 833f
00000080: cffc 833f 71ca 843f eeff 843f 6241 863f
00000090: be86 863f a660 863f e012 883f cd57 843f
000000a0: 5bab 853f 7219 843f d6e8 833f 2c5a 863f
000000b0: 0745 873f 4e97 863f fa0e 873f 8441 863f
000000c0: 8a8e 863f bd7e 853f 9b00 873f 64fa 843f
000000d0: 39f4 863f 0e69 863f 011d 873f 7342 883f
000000e0: 1991 853f 9d3b 863f e262 863f ef5c 863f
000000f0: e6de 863f 14af 863f f6cf 843f 4ec2 863f
00000100: 563c 833f b2a4 863f 8449 863f 6f32 843f
00000110: 58cf 863f 1ecf 853f d0b4 843f 540d 883f
00000120: d984 873f 1fe5 853f 10f2 843f 4ab4 853f
00000130: a267 843f 64cd 853f c6f1 853f 1d41 843f
00000140: 3996 853f 63ed 873f 2adf 863f 9ce8 873f
00000150: 44d4 853f cd4a 863f b7bb 853f fd47 873f
00000160: 19a8 843f 76ff 863f d2ee 853f 979b 843f
00000170: bf72 873f eaf1 853f 9cfc 833f cb18 863f
00000180: 57ba 853f d6e1 853f 3286 863f 07be 833f
00000190: 2301 873f 5f1b 853f bd1f 843f ef27 863f
000001a0: 194c 853f 3568 863f 0846 873f 73ab 853f
000001b0: 39f6 853f 9197 863f c7b3 863f 5e19 863f
000001c0: 81f4 853f 3737 853f 9bef 853f 0817 853f
000001d0: 6c67 873f 4002 853f 11ca 853f 04a4 833f
000001e0: 53f9 843f 27cc 863f b1db 853f 5f82 853f
000001f0: 8e29 863f 2e37 863f 3d57 863f 120b 863f
1.0508275 1.0390402 1.0570912 1.0444624 1.062986 1.0617473 1.0339445 1.0458273
1.0370221 1.0416335 1.0503489 1.0516146 1.041225 1.0557314 1.0455613 1.0400974
1.05974 1.0605135 1.0481169 1.0536352 1.0590184 1.0657952 1.0544506 1.041835
1.0524528 1.0438976 1.0551682 1.0471317 1.0577571 1.0402335 1.0628446 1.0304418
1.0311526 1.037428 1.0390604 1.0488703 1.050987 1.0498245 1.063076 1.0339295
1.0442919 1.0320265 1.0305431 1.0496268 1.056794 1.0514925 1.0551445 1.0488744
1.051225 1.0429302 1.054706 1.0388913 1.0543281 1.050081 1.0555726 1.0645279
1.0434905 1.0486943 1.0498927 1.0497111 1.0536773 1.052218 1.0375965 1.0528047
1.0252788 1.0519011 1.0491185 1.0327891 1.0532026 1.0453832 1.036768 1.0629067
1.0587417 1.0460547 1.0386372 1.0445645 1.0344126 1.0453305 1.0464408 1.0332371
1.0436469 1.061932 1.0536854 1.0617862 1.0455403 1.0491577 1.0447911 1.0568844
1.0363799 1.054671 1.0463507 1.0359982 1.0581893 1.0464451 1.0311465 1.0476316
1.0447491 1.0459545 1.0509703 1.0292367 1.0547222 1.0398978 1.0322186 1.0480937
1.0413848 1.0500551 1.0568247 1.0442947 1.0465766 1.0515004 1.0523614 1.0476491
1.0465242 1.0407475 1.0463747 1.0397654 1.0578437 1.0391312 1.0452291 1.0284429
1.0388588 1.0531052 1.045767 1.0430411 1.0481431 1.048559 1.0495373 1.0472128

encoder.bn3.bias f4 [128]
00000000: f352 033d 8858 5b3c d4b1 143d 1522 c63c
00000010: 0531 353d 5eb4 2b3d 5618 ce3c 3779 f43c
00000020: 909b a03c eb17 ad3c 7b07 ca3c 1b4f 063d
00000030: 85fe a93c 7e05 293d edd0 c63c f051 b93c
00000040: 8e65 2f3d d0b4 2c3d f39c f23c a843 cb3c
00000050: 8059 113d 1341 4b3d fb1d 113d 1bcc 003d
00000060: 1582 e83c 25bf c93c 8a48 f83c 6163 103d
00000070: 4b59 1a3d 243c a63c 7dad 373d 4aea 983c
00000080: 266a 9d3c 5e27 c73c 1ca8 fe3c af74 a53c
00000090: 883d 0e3d 1c1c 103d df13 3a3d 4c16 553c
000000a0: 751f dc3c ccbf 953c e87b aa3c 1ae9 ac3c
000000b0: a118 093d d212 083d 7f0f 213d 00c4 1b3d
000000c0: 3038 2a3d 070c b73c 3f85 273d b799 6f3c
000000d0: 1576 293d 02ef 153d f782 203d 721a 2b3d
000000e0: e634 9c3c d103 f73c 9c59 ec3c aa9e d93c
000000f0: ba31 e03c b009 0a3d 560e b63c be1f 173d
00000100: dabb 803c 9584 0e3d 9beb c33c 8d0f 8b3c
00000110: 4c03 053d 4760 b53c 766b a13c debe 113d
00000120: b722 3f3d b94b f43c cca3 7c3c da15 d23c
00000130: dec7 8c3c 16dc ff3c 9100 ec3c 5081 c53c
00000140: 7d1f b93c 8e64 143d 5e8a c23c a405 1b3d
00000150: f70f 0b3d c5dc e93c 0e51 c23c fa07 103d
00000160: f37d 5b3c ff44 f83c 3852 fe3c 9710 0d3c
00000170: eec4 1a3d 5498 b43c cf8f 563c 320b 0d3d
00000180: 1653 c53c aee3 0a3d 2a2f de3c bb49 c83c
00000190: dbc6 183d d132 b13c 94ac b13c df58 023d
000001a0: d4c5 a23c 41a6 003d eaa9 193d dcfe e73c
000001b0: b59c 193d 65e5 053d 1db2 da3c ff12 ce3c
000001c0: 488c f13c 6f3e cb3c 1337 ee3c bffd d73c
000001d0: e802 0b3d 0493 b33c b52c d23c 66dc 363c
000001e0: f20a c53c f000 033d c6ea e43c aac4 b63c
000001f0: 548b d43c 9641 e73c 7f92 da3c 9850 193d
0.03206153 0.013387807 0.036302403 0.024186173 0.0442362 0.04192006 0.025158089 0.029842956
0.019605428 0.021129569 0.02466177 0.032790285 0.020751247 0.041265003 0.024269545 0.022622079
0.04282146 0.042164624 0.029615855 0.024812534 0.035485744 0.049622606 0.035428982 0.03144465
0.02838234 0.024627278 0.030308027 0.035251025 0.037682813 0.02029235 0.044843186 0.018666405
0.019215655 0.024310764 0.03108602 0.02019724 0.03472665 0.035183057 0.045429107 0.013005804
0.026870469 0.018279932 0.020811036 0.021107245 0.033470754 0.033221073 0.03932142 0.038028717
0.04155749 0.022344602 0.040898558 0.014624051 0.041372377 0.03660489 0.039187398 0.041773267
0.019068193 0.030153187 0.028851323 0.026564915 0.027367461 0.033700645 0.022223633 0.036895506
0.015714575 0.03479441 0.023916056 0.016975189 0.032473847 0.022140635 0.019704562 0.035582416
0.046663966 0.029821264 0.015419912 0.025645185 0.017185148 0.031232875 0.028808864 0.024109513
0.022598023 0.03622871 0.02374762 0.037847176 0.033950772 0.028547654 0.02372029 0.035163857
0.013396728 0.030306337 0.031045064 0.008609912 0.037785463 0.022045292 0.01309581 0.034434505
0.02408747 0.03390854 0.027122099 0.02444922 0.03729902 0.021630676 0.021688737 0.031823035
0.019869722 0.031408552 0.03751556 0.028319769 0.037502963 0.03268947 0.02669626 0.025155542
0.029485837 0.024810044 0.029078996 0.026366113 0.03393832 0.021920688 0.025656084 0.0111609455
0.02405307 0.031983316 0.02794398 0.022310574 0.025945343 0.028229516 0.026681183 0.037430376

encoder.bn3.running_mean f4 [128]
00000000: d429 e3be c543 fe3d da2c 87be 2ea9 52ba
00000010: 45da aabe 5cc8 dbbc 4a87 473e d950 51be
00000020: 0c8a aabe 6b90 86be ca13 a13e 1972 9abe
00000030: 1084 253e 4821 bbbd b208 c1be 8271 aebe
00000040: 800d 22be 2ece 683e f409 02bf 38ef 42be
00000050: 5af8 16bd 203f c8bc e91c f73c ba28 e9bd
00000060: d010 ac3e a522 373e 6db3 873e fac5 adbd
00000070: 24af 1abe 75c0 38be 5659 a23d 92c6 ebbc
00000080: 9b62 2b3f d9b0 26be 67b3 11be f366 bf3d
00000090: 71c9 0ebe 0843 bf3e db76 89be 4753 473e
000000a0: b5e9 c0be 93bb 44be b7c4 5a3d 1af6 41be
000000b0: 5feb 993d f8eb 2cbe a8ee 94bd fdaa 16bd
000000c0: 7117 303d db27 553e f7ee 69bd 4eab b43e
000000d0: 35c4 343e 9be5 11bd 9552 22bd 87de b6bd
000000e0: 2298 523d 9c20 8cbe 8170 60be 2ecc 5abe
000000f0: 9030 593e f9e7 07be 3cb2 513e a1d3 f9bc
00000100: 0497 2b3e 5a5b 153e 02c4 8b3e 6d5a db3d
00000110: 0bba 71be 6f16 c2bc 16b2 93be 6178 99be
00000120: 6ae2 1f3d 7781 b4bd 61fb 3fbe b711 49be
00000130: b3a6 4c3e 4498 6b3e 926c 02be a106 90be
00000140: 1c11 623e 57fc c5bd 9373 afbe ec71 a4bc
00000150: 0dee 4dbe a762 22be ef07 b9be f729 b03d
00000160: b178 39bc bb09 ad3d 09ec 4cbe 06c0 d13d
00000170: be90 823e 2029 813e bc6e 5abd 4c9b 853e
00000180: 6a81 f93d 7202 ecbd 346d 973e a9e7 1abe
00000190: 51b8 133d 0c96 933e ee74 1ebe 6f04 d2be
000001a0: 61bc ba3e 0c83 d93e 8c07 053e d586 94be
000001b0: 4bdf 81be 8244 1cbe 5f93 58bd a67a d93d
000001c0: f607 c03d e424 0cbc 1319 ebbd 587b b83e
000001d0: 4a25 273c 4896 843b de55 06bf 0e51 8ebd
000001e0: 3d03 5d3e c9be 463e 84c3 eebe 5880 3cbe
000001f0: da5c 4b3e 548e 493e a9d5 9e3e 6d88 0abd
-0.4436785 0.1241527 -0.26401407 -0.0008036074 -0.3336965 -0.026828937 0.19485202 -0.20440997
-0.33308446 -0.26282057 0.3146041 -0.30165175 0.16163659 -0.09137207 -0.37701946 -0.34070975
-0.15825462 0.22734901 -0.5079644 -0.19036567 -0.03685794 -0.024444163 0.030165153 -0.11384721
0.33606577 0.1788431 0.26504079 -0.08485027 -0.15105873 -0.18042167 0.07927196 -0.02878121
0.66947335 -0.162784 -0.14228593 0.09345808 -0.13944031 0.37355828 -0.26848492 0.19465362
-0.37678304 -0.19212179 0.05341026 -0.18941537 0.075155966 -0.1688689 -0.072720826 -0.03678416
0.042991105 0.20815985 -0.05711266 0.35286945 0.17652972 -0.03561936 -0.039629538 -0.089291625
0.051414616 -0.2736863 -0.21917917 -0.21366951 0.21209931 -0.13272084 0.20478147 -0.03049642
0.16756827 0.14585629 0.2729798 0.10710607 -0.23606126 -0.023692338 -0.28846806 -0.29974654
0.039034285 -0.08813756 -0.18748237 -0.19635664 0.19985466 0.23007303 -0.12736729 -0.28130057
0.22076839 -0.09667271 -0.34267864 -0.020073853 -0.2011034 -0.15857945 -0.36138865 0.08601754
-0.011320279 0.084491216 -0.20011915 0.10241704 0.25501055 0.25226688 -0.05332826 0.26095045
0.12182887 -0.11523904 0.29575503 -0.15127434 0.03606445 0.28825414 -0.15474293 -0.41019008
0.36471847 0.42482793 0.1299116 -0.2900912 -0.25365672 -0.15260509 -0.05287492 0.106190965
0.093765184 -0.008553717 -0.11479392 0.36031604 0.0102017615 0.0040462352 -0.5247477 -0.06949054
0.21583267 0.19408716 -0.46633542 -0.18408334 0.19859639 0.196832 0.31022385 -0.033821512

encoder.bn3.running_var f4 [128]
00000000: 4e2f e33d 531e a63d 6aad bd3d 545f c73d
00000010: 4e3a 523d 876c 813d 3431 c23d 2da1 233e
00000020: a973 c73d a887 8a3d 765b 6d3d 9b08 053e
00000030: a07d 1e3e 5848 983d 7286 a03d 6e0c 053e
00000040: a7ce 1a3e 0782 8c3d 2eb3 153e f94e 053e
00000050: e0b9 b23d 95cb 573d bb11 893d 270f b93d
00000060: a2d2 c63d b773 8b3e c745 cb3d 9038 ee3d
00000070: c11e d13d a3d9 2b3e 6f2a 943d 72ba 933d
00000080: 2f74 1b3e 6ca4 dd3d 5d0d 593d c7a6 533e
00000090: 47cb ae3d fcd7 e93d eac9 a03d c9cb af3d
000000a0: 2177 063e a237 f53d 109b c53d 279c 0a3e
000000b0: fe05 253e f303 bd3d bb87 da3d 7019 cb3d
000000c0: f869 7c3d 5172 713d f23d 8e3d adfe d13d
000000d0: f071 a13d 0e07 ab3d a13b c13d dfe6 bb3d
000000e0: cf7f 993d d362 a63d 0dac 8c3d 8ee0 a43d
000000f0: 8564 003e 9e77 d73d be5a f83d 64a8 ec3d
00000100: 939e b43d 7b77 923d 462b 733d 2729 1b3e
00000110: b988 8e3d 8f28 b43d 99b2 e13d 3718 e23d
00000120: de92 713d ad91 a53d c581 933d d757 d43d
00000130: 2303 1c3e a28d bd3d e0fc ae3d bcd3 8d3d
00000140: c279 a73d 78bb a93d f14e d93d 3618 c23d
00000150: 187e ba3d 3066 b73d 37b3 d13d 3f23 fc3d
00000160: db76 ae3d 7f0f 983d 7c75 6f3d 1511 123e
00000170: f428 813d 4cdd c83d d742 a73d eb84 bc3d
00000180: f952 933d d990 6c3d 77ac 683d decd 253e
00000190: 6538 0b3e 4b67 b73d e59f 063e bf26 ca3d
000001a0: 4cfb c33d 2da1 123e 456b 923d 75b7 d13d
000001b0: a251 c33d 2222 873d 2d28 ac3d 5b82 9e3d
000001c0: 20d2 c63d 41fb 8f3d 431f 073e 45bc 1d3e
000001d0: 57cd 9a3d e031 f23d 6537 2e3e a22c cb3d
000001e0: ed59 913d 6ccb 633d c146 013e 26b4 853d
000001f0: 1f6c b63d 8394 ab3d 6c10 a33d ef6d 8e3d
0.11093007 0.08111253 0.09261592 0.09734979 0.051325135 0.06319528 0.09482041 0.15979452
0.09738857 0.067641556 0.057948552 0.12991564 0.1547761 0.074356735 0.078381434 0.12993023
0.15117894 0.06860738 0.14619133 0.13018407 0.08726859 0.052684385 0.06692835 0.09036093
0.09708144 0.2723672 0.09925418 0.11631882 0.10210944 0.1678224 0.07234656 0.07213296
0.1518104 0.108223766 0.05299126 0.2066909 0.08534866 0.11418149 0.07851012 0.08583791
0.13131382 0.11973502 0.096487164 0.1353613 0.16115567 0.09229269 0.1067042 0.09916961
0.061624497 0.05894691 0.06945409 0.10253654 0.0788306 0.08350955 0.094352014 0.091748945
0.07495081 0.08124318 0.068687536 0.08050643 0.12538345 0.10520862 0.12126683 0.115555555
0.08819308 0.07151695 0.05936744 0.15152417 0.069596715 0.087967984 0.11020393 0.11039775
0.058977954 0.08084426 0.07202486 0.103683166 0.15235572 0.0925553 0.08544326 0.06925151
0.0817752 0.0828771 0.1061076 0.09477274 0.09106082 0.089550376 0.10239261 0.1231141
0.08518764 0.07424831 0.05846165 0.14264329 0.06306639 0.09807834 0.081670456 0.092050396
0.0719356 0.057755325 0.0568051 0.16191813 0.13595732 0.089552484 0.13146932 0.098706715
0.095694155 0.14319296 0.07149366 0.1024007 0.095370546 0.06598307 0.084061004 0.07739707
0.09708047 0.07030345 0.13195519 0.1540385 0.07558697 0.11825919 0.17013319 0.099206224
0.0709723 0.05561392 0.12624647 0.06528501 0.08907341 0.08377936 0.079621166 0.06954562
