wesad_baseline/src/checkpoints/exp_20251210_021133_baseline_fresh_baseline_cnn.pt (torch, 665228 bytes, 48 tensors)

encoder.conv1.weight f4 [32, 8, 7]
000000 7f 84 72 3d 68 ab e1 3d b6 a3 a7 bd 56 92 dd bd
       0.05920839 0.11019021 -0.08185522 -0.10818927
000010 d4 ba 64 bc 4e ae 5d bd 67 1b bf bc 21 1f d7 bd
       -0.013960559 -0.054121308 -0.023328496 -0.10503984
000020 ae 62 71 bd b4 57 fc bd 71 d8 76 bd c3 5d aa bd
       -0.058932 -0.123214155 -0.06026501 -0.08318665
000030 d4 42 0e be c2 5c 84 bd 14 3b 79 3d 4e c9 d3 bd
       -0.1389268 -0.06463005 0.060847357 -0.1034113
000040 41 90 09 3e db 3d 2d bd 12 a1 c3 bd 6a 14 ee 3c
       0.13433935 -0.042295318 -0.09552206 0.029062469
000050 97 63 a4 3d 19 cd 98 3d 1d 23 94 3d 07 c2 82 bd
       0.08026808 0.07460994 0.0723326 -0.06384664
000060 b7 e6 f9 3c da fb ea bd 26 d2 ab bd d5 7c 70 bd
       0.030505521 -0.11473818 -0.08389692 -0.0587128
000070 9d 67 1b 3d b4 07 59 bd cf b9 96 bd 79 b1 16 bd
       0.03794061 -0.052985862 -0.07359659 -0.036790345
000080 92 f9 ad bc cc f3 a5 3d b7 fa 92 3d e2 59 00 3e
       -0.021237168 0.08103141 0.07176726 0.12534288
000090 20 7d 07 3e 73 cd bc 3c 8c 76 b8 3d f3 0c 7b bd
       0.13231325 0.023047185 0.09006986 -0.061291646
0000a0 7d c3 ef 3d e7 ba 97 3d 20 38 98 bc af d8 d5 bc
       0.11707208 0.07408696 -0.01858145 -0.0261043
0000b0 29 03 db bd 15 b6 a6 3d 41 d9 37 3d 95 e4 51 bb
       -0.10693962 0.08140198 0.044884924 -0.0032027115
0000c0 42 f0 03 bd cb 94 12 3d 91 a8 8c 3c 09 81 a5 3d
       -0.03221155 0.03578643 0.017170222 0.08081252
0000d0 71 9d d4 3d e3 ec f1 bd 50 d8 85 bd 43 78 7f bd
       0.10381592 -0.11812761 -0.06535399 -0.06237055
0000e0 38 8e f2 3d 6f 91 bf bd e1 1f 01 be 13 ed 05 3e
       0.11843532 -0.09353911 -0.12609817 0.13078718
0000f0 f9 05 35 bd 9c 85 ec 3d 99 3f eb bc cb 61 00 bc
       -0.04419515 0.115489215 -0.02871685 -0.007835816
000100 95 5c 21 bd fb c3 b4 bd 56 e0 98 bd 5b 30 d2 bd
       -0.039394934 -0.08826443 -0.07464664 -0.10263129
000110 24 65 b4 3d b0 b3 eb 3d 37 85 a0 bd 1d 54 e4 3d
       0.088083535 0.11508882 -0.07837909 0.11148856
000120 47 e6 17 3d e1 22 e5 bc e9 05 a8 bc d5 f2 e5 bd
       0.037084844 -0.027970733 -0.02051063 -0.11227957
000130 73 8f f6 bd 9b 1b c1 bd b8 eb 4b 3a 02 9a cb 3d
       -0.120390795 -0.094290935 0.000777896 0.09941484
000140 ab ac a8 3d 6b 46 04 be 80 68 b0 3d 35 fc 7d bd
       0.08236059 -0.12917487 0.08613682 -0.0620081
000150 5a 96 e4 bc e1 a8 bc 3d 03 a0 b3 3d 54 dd 51 bd
       -0.027903724 0.092118986 0.08770754 -0.051236466
000160 ec 2c 90 bd b8 65 96 bd 17 cc 83 3d e7 ca 27 3d
       -0.07039818 -0.0734362 0.064354114 0.040964987
000170 90 40 8f 3d cf 09 e1 bd 37 db cf bd 87 d2 bb 3d
       0.06994736 -0.10988199 -0.10149234 0.09171014
000180 6c cc 8b bc 1f ea e2 3d 3a 84 84 bd e8 dc 5e 3d
       -0.01706525 0.11079811 -0.06470533 0.05440989
000190 da 2d b5 3d 38 8a 23 3e a8 3c a8 3d 9d 6d 2b 3b
       0.08846636 0.15970695 0.08214694 0.0026157864
0001a0 b9 75 3c 3e 11 90 f1 bd 49 a8 b7 3d c6 dd 36 bd
       0.18404283 -0.117950566 0.08967645 -0.044645093
0001b0 7a b6 95 bd 86 06 bf 3d 80 1c 0e bd 71 de a2 3d
       -0.07310195 0.09327416 -0.03469515 0.079525836
0001c0 2e e2 d3 bd c6 d5 82 bd ab 24 04 bd 72 8a 71 bc
       -0.10345875 -0.0638843 -0.03226153 -0.014742481
0001d0 af 51 de bd 5e ed 29 3b d5 97 9b ba 44 07 09 bd
       -0.10855424 0.0025928835 -0.0011870811 -0.033454195
0001e0 2d 2a da 3d a4 eb ec bc 29 8a 49 bd 73 07 97 3d
       0.10652576 -0.028920956 -0.049204025 0.07374468
0001f0 fd dd aa bc aa 94 10 bb 59 95 a0 bc 92 de bb 3d
       -0.020857805 -0.0022061267 -0.019602465 0.09173311
000200 93 94 00 3c 0c 70 b0 bd c0 07 3a 3d c5 e2 06 3d
       0.007847923 -0.08615121 0.045417547 0.032931108
000210 fb 6b 72 bd 5e 7f 80 bd e1 e5 a8 3c a2 10 1c 3d
       -0.05918501 -0.06274293 0.020617427 0.0381018
000220 5c f4 b2 3c 50 b2 20 bb a4 94 e7 bd f2 a9 e7 bd
       0.021845035 -0.0024520345 -0.11307648 -0.11311711
000230 8e c1 83 3c dc 47 5a bd d3 4c 96 3c a7 60 83 bd
       0.016083505 -0.053291187 0.01834718 -0.06414919
000240 89 49 09 bd 7b e5 31 bc 7f 7b d0 bb ef aa b7 3d
       -0.033517394 -0.010857935 -0.006362378 0.0896815
000250 6e 14 0a bd 68 03 b4 bd e8 6f 4e 3d 61 95 d4 bd
       -0.03371089 -0.08789712 0.05039969 -0.10380054
000260 35 13 21 be e6 91 fc bd d3 91 58 bc 7c e3 09 bd
       -0.15729983 -0.123325154 -0.013218361 -0.03366421
000270 d8 e3 27 3d 59 63 9a bd 6f 29 a4 3b b7 5f bd bd
       0.040988773 -0.0753848 0.005009822 -0.09246772
000280 88 18 f7 bd 3d 9f c1 bd 86 55 9e bd 1b 53 06 3e
       -0.12065226 -0.094542004 -0.07731156 0.1311764
000290 41 82 ee 3c 7a 5d c5 bd ba 46 9b bc d5 25 c0 3d
       0.029114844 -0.0963697 -0.018954623 0.09382216
0002a0 3e 95 1e 3d 51 d7 d3 bd b7 41 00 3e c4 71 09 ba
       0.038716547 -0.10343803 0.12525068 -0.00052430877
0002b0 72 43 d2 bd 55 61 11 3e 37 6a 61 3d 0d be 0f bd
       -0.102667704 0.14197285 0.055032935 -0.035093356
0002c0 7f 73 fc 3a 74 58 90 3d 10 4a d5 3c 97 78 00 be
       0.0019260495 0.07048121 0.026036292 -0.12546001
0002d0 6d f4 22 bd d5 65 2e 39 62 74 03 bd 9f f0 ae 3d
       -0.039783884 0.00016631868 -0.032093413 0.085419886
0002e0 dd 94 d4 3d dc 66 d9 3d 25 04 59 bd a5 18 ce 3b
       0.10379956 0.10615322 -0.05298247 0.006289559
0002f0 f5 a9 d5 3d 06 7b 98 bd 63 dc cf bd e8 d9 47 3b
       0.10432807 -0.0744534 -0.10149457 0.0030494872
000300 19 3e 23 3d f6 d8 95 3d c5 e5 8c 3d 92 81 56 3d
       0.039854143 0.07316773 0.068797626 0.05236966
000310 1d ec c9 3d a9 70 85 3c 46 94 10 3c 51 e2 00 be
       0.09859488 0.016289072 0.008824414 -0.12586333
000320 9d c8 8e 3d fc 0c 5c bd 04 03 ce 3c ba 6e 61 bd
       0.06971858 -0.05372332 0.025147922 -0.055037238
000330 f2 22 82 bd b8 a6 e3 bd 45 b4 71 bd 16 07 24 bd
       -0.063543215 -0.111157835 -0.05900981 -0.04004582
000340 55 43 fd bd be 7e 92 bd 39 73 a0 bd 39 a8 92 3c
       -0.12366358 -0.071530804 -0.07834477 0.01790248
000350 3b 4a e4 3d a3 17 10 3e 06 0b 03 3e 11 a0 57 bc
       0.11146971 0.14071517 0.12797174 -0.013160721
000360 90 94 c5 3c 29 5d 92 3c f1 73 d8 bd d1 20 3b bd
       0.024118692 0.017866688 -0.10568989 -0.045685593
000370 12 bf 97 bd 39 b5 b3 3d 22 d1 17 3e 7e 54 dd bc
       -0.07409491 0.087748 0.14825872 -0.027017828
000380 ee 19 f9 bc 4e 14 a9 bd 5b 50 9e 3d 92 d0 a2 bd
       -0.030407872 -0.08255826 0.0773017 -0.07949938
000390 de ba 22 bb 3e c6 9e bd 70 8b d8 bd 9c eb a8 3d
       -0.002483062 -0.077526554 -0.105734706 0.08248064
0003a0 20 7a 4e 3d 99 9d 8d 3c 39 c3 4a bc 64 33 12 3e
       0.050409436 0.017287062 -0.012375646 0.14277416
0003b0 fe 4e 0c 3d c8 e3 6a 3d 08 49 37 3c e7 72 0b bd
       0.03425502 0.057346135 0.011186846 -0.034045126
0003c0 ab e9 06 3e cb 58 c4 bd 01 6b a5 3c 5f d7 e8 3c
       0.13175075 -0.095872484 0.020192625 0.02842301
0003d0 46 6c 75 bd db 84 d5 bc 47 98 cd 3d 0d e6 3f bd
       -0.05991771 -0.026064327 0.1003881 -0.046850253
0003e0 40 2d cc 3d d4 9a f2 3d dd 76 05 bd 5c ae 9e bc
       0.09969568 0.11845937 -0.03258406 -0.01937025
0003f0 f4 af 60 bd 24 81 78 bd 8d bc 0d bc 51 f4 84 bd
       -0.054855302 -0.060670033 -0.008650911 -0.06491912

encoder.conv1.bias f4 [32]
000000 80 d5 9e 37 75 1f 81 38 e6 10 a8 36 cc 15 db 36
       1.8934486e-05 6.157059e-05 5.0087574e-06 6.529246e-06
000010 60 10 29 36 96 7c 80 b8 61 fe 82 38 52 19 fd b7
       2.5192494e-06 -6.1267216e-05 6.246265e-05 -3.0171741e-05
000020 6c 8e bf b6 f0 a5 71 b7 72 30 43 b6 0a c3 0d b8
       -5.7088237e-06 -1.4403355e-05 -2.9085463e-06 -3.3798664e-05
000030 98 52 56 b7 08 43 81 37 e1 67 44 38 e0 20 31 b7
       -1.2774624e-05 1.5409212e-05 4.6826786e-05 -1.0557676e-05
000040 ac 0c 00 b8 78 e9 bd b7 9f 8d f7 38 70 ad 9d 35
       -3.052938e-05 -2.2639273e-05 0.00011804257 1.1747888e-06
000050 5c bc 8a 38 0b 7e 98 b7 b9 1e 0b b8 62 0d 7e 38
       6.6154375e-05 -1.8178505e-05 -3.3168795e-05 6.0570783e-05
000060 87 19 43 38 f8 2f 0b 36 c1 56 3d 38 71 f7 f4 37
       4.6515397e-05 2.0740536e-06 4.5141907e-05 2.920229e-05
000070 a2 9e 72 37 00 c7 28 38 8d a8 15 b7 34 fc e7 b8
       1.4461259e-05 4.0239654e-05 -8.920336e-06 -0.00011061915

encoder.bn1.weight f4 [32]
000000 95 32 81 3f 7d f4 7e 3f 20 4c 7a 3f da b5 80 3f
       1.0093561 0.9959181 0.9777241 1.0055497
000010 94 28 7b 3f b1 22 7c 3f f3 c2 84 3f 45 23 7f 3f
       0.9810879 0.98490435 1.0371994 0.9966319
000020 ff aa 6f 3f ef e0 7b 3f a4 00 80 3f e0 32 76 3f
       0.93620294 0.98390096 1.0000196 0.9617138
000030 53 a3 7e 3f 4a e5 6e 3f aa 83 77 3f 15 1d 75 3f
       0.99467963 0.9331862 0.9668528 0.957475
000040 3d b4 80 3f d4 b1 79 3f 61 b0 83 3f 3a 12 80 3f
       1.0055004 0.9753697 1.0288202 1.0005562
000050 be 8e 7e 3f b9 7f 7d 3f 80 f4 7a 3f c7 26 80 3f
       0.9943656 0.99023014 0.9802933 1.0011834
000060 0a 4c 81 3f f2 d9 82 3f e4 92 80 3f 54 0e 79 3f
       1.010133 1.0222762 1.0044827 0.9728749
000070 c4 f5 7d 3f 24 50 7e 3f 3f 8c 63 3f 23 23 83 3f
       0.99203134 0.99341035 0.88885874 1.0245098

encoder.bn1.bias f4 [32]
000000 ed b4 81 bb 65 90 06 bd 47 7c 4f bd ed 3d c2 3c
       -0.0039583356 -0.03285255 -0.05065563 0.02371117
000010 9c 7e a3 3c f3 99 c7 3b 69 34 64 bc c5 66 5c 3c
       0.019957833 0.00609135 -0.013928511 0.013452237
000020 43 c5 7a bd 02 44 e0 bc ee dc dd bc 2a d6 9e bc
       -0.06122328 -0.027376179 -0.027082887 -0.01938923
000030 e0 e6 7b bc 73 a4 57 3c 71 10 d3 bc 39 c6 25 bc
       -0.015374869 0.013161766 -0.025764676 -0.010118061
000040 9d de 1f 3c 7c 28 41 bc ca b1 b0 3c d2 f0 07 3c
       0.009757665 -0.011789437 0.021569151 0.008297162
000050 e0 d2 ab 3c 93 44 87 3c 39 8a 37 bd 67 bd 97 3c
       0.020974576 0.01651219 -0.044809554 0.018522931
000060 c5 3a e5 3c cc a7 34 3c bb 79 1b bd 4e e7 6a be
       0.027982125 0.011026334 -0.037957888 -0.22939798
000070 fb 7b 65 bc 71 56 82 3c ff 9d 6d bd 88 c4 06 bc
       -0.01400661 0.01591036 -0.058012005 -0.008225568

encoder.bn1.running_mean f4 [32]
000000 60 d7 cf bd 00 a7 cb 3c cc 79 13 bd 22 7c 15 bd
       -0.101485014 0.024859905 -0.036004826 -0.036495335
000010 c4 c5 8f 3d d7 31 50 bd 73 a3 73 3d 3e fe 28 3c
       0.07020143 -0.05082878 0.05948205 0.010314522
000020 34 44 22 bc b7 c0 1f 3a 4d 4c 43 3d 34 0d 11 bc
       -0.009903956 0.00060940854 0.047680188 -0.0088532455
000030 fc c6 45 3c 2d 11 d9 3d 19 d0 7d bc 6e de e0 bc
       0.012071367 0.10598979 -0.015491509 -0.027449813
000040 41 0f fa bb 83 57 a8 3d 27 e1 2e 3c 43 59 16 ba
       -0.007631213 0.082198165 0.010673798 -0.0005735347
000050 c8 37 56 3d 22 13 39 3d 5a 04 e7 3a d0 89 dc 3d
       0.05229929 0.045184262 0.0017625198 0.10768473
000060 3f 5f 2c bd a4 cd 92 bd 7f 40 04 3d 6d 4b 15 bc
       -0.04208302 -0.07168129 0.03228807 -0.009112221
000070 0e 13 df bb e8 02 09 bd 89 50 a2 bb 2c 92 a1 3d
       -0.0068076914 -0.033450037 -0.004953448 0.07889208

encoder.bn1.running_var f4 [32]
000000 42 b7 04 3f 29 40 51 3e 72 5a af 3e 67 0e e1 3e
       0.5184213 0.20434631 0.34248692 0.439563
000010 02 09 64 3e 89 a4 62 3e 34 81 05 3e 5c e4 62 3e
       0.22269061 0.22133078 0.13037568 0.22157425
000020 0d f8 ae 3e 28 99 c6 3e 52 65 d4 3e fb 73 05 3f
       0.34173623 0.38788724 0.4148355 0.521301
000030 ae e2 c7 3e bc 15 a4 3e 20 69 9e 3e cb aa e3 3e
       0.3904013 0.32047832 0.3093958 0.44466242
000040 7b 6b e7 3e 71 fe 95 3e 36 a0 27 3e af bd 28 3e
       0.4519919 0.29295686 0.1636971 0.16478609
000050 46 96 48 3e 21 78 2a 3e e8 57 9c 3e 6d 02 b8 3e
       0.19588575 0.16647388 0.30535817 0.3593935
000060 d5 3b 48 3e 2a 55 58 3f ca 49 4f 3e ab b4 37 3f
       0.19554074 0.8450495 0.20242992 0.7176005
000070 a7 e3 23 3f a2 ed 5f 3e fe d4 5b 3e ae a8 78 3e
       0.64019245 0.21867993 0.21467969 0.24283096

encoder.conv2.weight f4 [64, 32, 5]
000000 a2 f9 68 3d e8 9c b9 bc f5 ac 0e bc ea 3f b6 3b
       0.056878693 -0.022657827 -0.008708228 0.0055618184
000010 ee 75 db 3c 29 77 b5 3d c0 68 06 bd b3 64 2d bd
       0.026789632 0.088606186 -0.03281474 -0.042332362
000020 7d e7 4b bc 36 19 41 3d 88 0b aa bd bd 1d c2 3a
       -0.012445328 0.047143184 -0.08302981 0.0014809888
000030 16 7b 49 3c 2e ff 2d bd 63 e7 2a 3c 59 51 01 bd
       0.012297412 -0.042479686 0.010431143 -0.03157172
000040 02 6f 61 bd a6 8f ef bc 67 2f 1b 3d 9e a0 27 3d
       -0.055037506 -0.029243302 0.037887003 0.04092466
000050 82 85 8f bb df 71 4c 3c 56 7c 5c bd 84 b4 48 3c
       -0.004379929 0.012478321 -0.053829513 0.0122500695
000060 4c 22 98 bd 6a de 8b 3c 8b 36 c3 bc 70 ff 3f 3c
       -0.074284166 0.017073829 -0.023829719 0.011718616
000070 a1 de b1 bd 12 a8 59 3d f0 ec 94 3d 74 e6 80 bc
       -0.08685041 0.0531388 0.07271755 -0.015734889
000080 49 5d b6 3d 61 62 ab 3d 69 d0 03 3d 7e 11 c4 ba
       0.089045115 0.08368374 0.032181177 -0.0014958826
000090 a9 17 2e bc 5e e2 c8 3c 94 23 90 bc 56 55 9d bd
       -0.010625758 0.024522003 -0.01759509 -0.07682292
0000a0 28 02 52 bd 06 cd 5c bc 8d db 48 bc c8 81 48 3d
       -0.051271588 -0.013476616 -0.012259376 0.048951894
0000b0 c9 2a 9b bd 0f 1d 7d bc 61 07 63 bd 41 7f 3d bd
       -0.0757652 -0.015448823 -0.05542696 -0.046263937
0000c0 03 1a aa bb e4 50 40 bd 6c 8b 75 bc 26 bb c2 bc
       -0.005191089 -0.046952143 -0.014986854 -0.02377088
0000d0 0f 3d c8 3c 59 2f 16 bd 5c c2 4b 3d b3 1e 35 bc
       0.024443178 -0.036666248 0.049745902 -0.011054683
0000e0 80 69 1d 3c 70 bc 0b bd 73 b3 ad 3c 0b e6 f9 bb
       0.009607673 -0.034115255 0.021203732 -0.0076263
0000f0 16 ea 7c 3d 80 eb fd 3b f0 8a 13 bd 19 bb 89 3c
       0.06174668 0.007749021 -0.036021173 0.016812848
000100 91 e7 bf 3d ee 3b 05 3d e3 7e 1c 3c 8f 55 86 bd
       0.0937034 0.032527857 0.0095517365 -0.06559288
000110 69 74 d7 3a 0a 86 5c 3c bf f6 a3 bc ff ca 97 3d
       0.0016437891 0.013459692 -0.020015119 0.07411765
000120 41 aa 86 bd 53 ae b5 bc 5f 28 08 bb 86 2d 0f bd
       -0.06575442 -0.02217785 -0.0020776016 -0.034955524
000130 92 00 5e bc 2a 17 95 ba 78 e3 3e 3d 6c 07 2a 3d
       -0.013549941 -0.0011374701 0.04660365 0.041510984
000140 33 f6 9c 3c 53 dc 87 3a 6c ac d0 bc c7 0d 8e bd
       0.019160366 0.0010365344 -0.025472842 -0.069362216
000150 c3 cc 39 3d 0f ee f9 3c 02 c3 2f bd 29 7e 62 3d
       0.04536129 0.030509023 -0.042910583 0.055296097
000160 56 04 2d bd 48 8f 29 3d 29 44 ca 3c 06 a0 2e bd
       -0.042240463 0.04139641 0.024690704 -0.04263308
000170 bf 6b 43 bd ad 2b 9c 3c 67 01 13 3c 5f 87 e1 bd
       -0.047710177 0.019063795 0.008972502 -0.11012148
000180 55 34 c1 bd eb e3 47 bd 5e 25 98 bd a2 cc 19 bd
       -0.0943381 -0.048801344 -0.07429002 -0.03754867
000190 d4 67 ca bc c7 fb 7d bd 18 d5 7a 3d 2c ad 32 bd
       -0.024707712 -0.06200769 0.06123838 -0.04362218
0001a0 33 05 d9 3b 67 85 11 3d 11 12 f6 bc 2c 87 fc 3c
       0.0066229342 0.035527613 -0.030037912 0.030826174
0001b0 22 64 ab bd 63 d7 9a bc fb 99 68 bd a3 4d 8d 3d
       -0.08368708 -0.018901533 -0.056787472 0.06899574
0001c0 46 00 58 bd b6 ae 89 3d bb a3 69 bd c1 99 6a bd
       -0.052734636 0.067227766 -0.05704091 -0.057275537
0001d0 28 d9 9c 3d 09 bd 4a ba bf 48 a5 3d 9f 6a 9b 3c
       0.07658607 -0.0007733857 0.08070516 0.01897174
0001e0 85 3b ec bd ba ae d7 bd cd 4a 93 bd eb d4 d3 bd
       -0.1153479 -0.10531373 -0.071920015 -0.10343345
0001f0 08 de e2 3a 97 bc 32 3d 64 a1 11 3d 72 17 86 bd
       0.0017308602 0.043636885 0.035554305 -0.065474406
000200 c1 2a 35 3d d6 31 99 3b 88 83 a2 3d e9 e6 75 3d
       0.044230226 0.0046751304 0.07935244 0.060034666
000210 88 bb c6 3a 58 db a9 bc 09 56 0d 3c 07 59 46 bd
       0.001516209 -0.020734474 0.008626469 -0.048424747
000220 f0 54 a1 bd bb d3 16 3c df 63 52 bc 71 ca e2 bd
       -0.07877529 0.009205754 -0.012841194 -0.11073769
000230 1a 61 24 bd 34 ab 80 bc 4c 33 bf 3c 20 a3 35 3c
       -0.040131666 -0.015706636 0.02333989 0.011086255
000240 b2 ca 87 bd e5 a5 3e 3d 61 49 51 3d ed 57 bb bc
       -0.06630458 0.046544928 0.05109537 -0.022869075
000250 0c 39 36 3d ba 72 3c 3d 24 aa 35 3d 83 2b 47 bd
       0.044487998 0.04600785 0.044351712 -0.04862548
000260 ab 4b 66 bd 43 1e 12 bd be 0f fb 3b 7b ae 02 bd
       -0.056224506 -0.03567339 0.0076617887 -0.03190468
000270 92 c0 14 bd 7b 17 b7 3d 23 68 cb bc 9b 9e 72 3d
       -0.03631646 0.089400254 -0.02482993 0.05923329
000280 d0 32 35 bd 25 72 a3 3c e8 41 98 3c b5 30 e0 bc
       -0.04423791 0.01995189 0.018586114 -0.027366975
000290 ac 18 be bc 15 5c 8c 3b 95 ac 04 bb 43 81 e3 3c
       -0.023205124 0.004283438 -0.0020244468 0.027771598
0002a0 eb df 0c bd 36 0a e4 bb ef 94 91 bd 26 4f d6 3c
       -0.034393232 -0.006959225 -0.07108485 0.026160788
0002b0 0d 6c a1 bb 92 4c 81 bd 27 f4 74 3d 24 d2 be bb
       -0.0049262107 -0.06313433 0.059803154 -0.0058233906
0002c0 f3 03 b7 3c 24 10 86 bd 5f 6a 8a 3d 1c ca 49 3b
       0.02234075 -0.06546047 0.0675857 0.0030790633
0002d0 9a 64 87 bd 75 bb 17 3c 27 b3 55 3c de 23 f4 3c
       -0.06610985 0.009261002 0.0130432015 0.029802259
0002e0 73 c9 a4 bd 21 93 1b 3d 71 15 0b 3d 2f ce 83 bd
       -0.08046236 0.03798211 0.033955995 -0.06435811
0002f0 82 85 39 3d 86 0e 75 3d 92 46 b6 bc 8b 62 9e 3c
       0.04529334 0.059828304 -0.022250447 0.019334098
000300 f0 c4 d8 3c 42 d0 02 3c f9 e3 bc 3c 0f be b5 3d
       0.026461095 0.007984223 0.023057925 0.088741414
000310 cd c1 80 bd 87 ed 67 bc d7 e4 32 bd 2c ea 31 bd
       -0.062869646 -0.014155752 -0.04367527 -0.043436214
000320 dc 07 65 3d e2 19 02 3d 71 05 51 3c 26 82 0c 3d
       0.0559157 0.031762965 0.012757645 0.034303807
000330 46 9e 8e bc b7 55 99 3d 91 7d f6 bc d9 99 94 3d
       -0.017409455 0.07487052 -0.030089172 0.072559066
000340 e2 f1 44 3d dd c5 76 bd 7e 24 8f 3d 76 de 05 3d
       0.04808224 -0.06024729 0.06989382 0.03268286
000350 e8 cf 21 3d 2f 4d 2b 3b 5c c6 55 bd 90 81 04 3c
       0.039504915 0.0026138534 -0.052191123 0.008087531
000360 48 4d 85 bc 50 d6 22 bc af b7 93 bc a4 7f 83 bd
       -0.016272202 -0.009938791 -0.018031923 -0.0642083
000370 79 7a 52 bd bf 8c 3c 3d a8 14 93 3d 25 12 1d 3d
       -0.05138633 0.046032663 0.07181674 0.038347382
000380 ae 95 6c bd 03 d4 09 bd a6 6e 81 3d 20 1e 21 bd
       -0.057759933 -0.033649456 0.06319933 -0.03933537
000390 1d 8a 19 bd 18 d9 8a bd 4d 96 99 3d 93 bb 97 3d
       -0.03748523 -0.067796886 0.07499371 0.07408824
0003a0 45 46 d2 bb e6 d1 ad 3d 8b c3 00 3d be 29 89 3d
       -0.006417068 0.084873006 0.031436484 0.06697415
0003b0 8b e1 71 bc e2 37 9a bc 5b 09 fa bc 5f eb f6 3c
       -0.014763246 -0.018825475 -0.03052204 0.03014153
0003c0 9b 13 d7 bc 7e 2b 52 3d 56 9d 67 bc 9d 88 86 3d
       -0.026254466 0.05131101 -0.014136633 0.06569026
0003d0 d3 0f 7d bc 29 64 1d bd 34 f9 f8 bd c4 2b dd bd
       -0.015445667 -0.0384256 -0.12156907 -0.10799363
0003e0 50 90 b6 bd b7 38 20 bd 1d 82 c4 3d 6f 43 da b9
       -0.08914244 -0.039116587 0.0959513 -0.00041630442
0003f0 65 c7 5d 3d 83 d1 86 3d e4 46 49 3d 7e 72 ad bc
       0.054145236 0.0658293 0.049139872 -0.021172758

encoder.conv2.bias f4 [64]
000000 bb ba 05 37 28 d2 59 35 f1 91 02 b8 4d 02 15 b7
       7.970894e-06 8.1144617e-07 -3.1130334e-05 -8.881628e-06
000010 26 a8 03 38 53 69 a4 37 6c fe e9 b7 7c 62 3d 37
       3.1389434e-05 1.9599369e-05 -2.7894239e-05 1.1288208e-05
000020 f8 a3 fa b7 1a 6f 32 38 0c a7 9e b7 5b 6f 30 b7
       -2.9878676e-05 4.254198e-05 -1.8912855e-05 -1.0516344e-05
000030 10 12 bc 35 4a 9a ad 37 36 6c c3 b7 96 5d 8c b7
       1.4012348e-06 2.0695054e-05 -2.3296201e-05 -1.673288e-05
000040 3f fa d0 b6 92 32 b4 37 b6 bb 4c 38 a9 4c 93 37
       -6.2280155e-06 2.148122e-05 4.881221e-05 1.7559463e-05
000050 d0 1b 5b 38 4e 21 4f b8 0e f1 a3 38 08 11 26 37
       5.223957e-05 -4.9383663e-05 7.8173456e-05 9.898336e-06
000060 99 6f 4e 38 48 a1 1e 38 a0 af fa b5 1b e7 a9 b7
       4.921816e-05 3.782034e-05 -1.8677565e-06 -2.0253987e-05
000070 9e 32 b2 b7 00 fb 93 35 c5 10 a4 37 90 a7 03 37
       -2.1242824e-05 1.1025404e-06 1.9558132e-05 7.847222e-06
000080 24 07 9e b6 65 9d b7 37 c4 13 a4 37 6f 97 ce b6
       -4.709598e-06 2.1888593e-05 1.9559528e-05 -6.1569076e-06
000090 d6 81 2e b7 1b 76 89 37 ac 64 14 37 27 84 91 38
       -1.0401438e-05 1.638667e-05 8.844927e-06 6.938754e-05
0000a0 d7 10 9f b8 7a aa b1 b6 f6 1a 51 38 57 73 30 37
       -7.5848475e-05 -5.294857e-06 4.9854592e-05 1.0517272e-05
0000b0 8d 37 4d b8 53 31 9d b8 f6 a9 c0 b7 3a de 35 37
       -4.8927544e-05 -7.495531e-05 -2.2967328e-05 1.0840182e-05
0000c0 00 03 00 b8 c1 f5 f2 37 a9 3e f6 36 2a 75 ad 37
       -3.0520372e-05 2.8963086e-05 7.338666e-06 2.0677766e-05
0000d0 f1 c9 18 38 f7 cf b2 b8 f2 ab 63 37 44 bf 91 36
       3.6427697e-05 -8.526438e-05 1.35702885e-05 4.343603e-06
0000e0 03 f0 92 38 27 65 16 b8 8a f5 e7 37 85 61 86 37
       7.006528e-05 -3.5856992e-05 2.7651684e-05 1.6019456e-05
0000f0 50 1b 4a b6 b6 29 1b 37 60 8a 82 38 8b 16 48 38
       -3.0116244e-06 9.2484315e-06 6.2246574e-05 4.770471e-05

encoder.bn2.weight f4 [64]
000000 6c 25 7e 3f fd 8b 73 3f 72 34 82 3f 6a 09 7a 3f
       0.9927585 0.9513548 1.0172255 0.97670615
000010 ab 4f 7c 3f b7 15 78 3f 53 57 78 3f 7f dc 7a 3f
       0.98559064 0.96908134 0.97008246 0.979927
000020 10 3e 7c 3f 00 47 83 3f 1b e8 7b 3f 1a 72 74 3f
       0.985322 1.0256042 0.9840104 0.95486605
000030 8d 76 70 3f c1 8e 7f 3f ae 6e 7b 3f 43 65 6c 3f
       0.93930894 0.998272 0.9821576 0.92342013
000040 da 11 73 3f be 0a 79 3f b6 72 7d 3f ac ce 7e 3f
       0.94949114 0.97282016 0.9900316 0.99534106
000050 59 11 80 3f 49 0a 7b 3f 79 45 82 3f a0 2b 7c 3f
       1.0005294 0.9806257 1.0177451 0.98504066
000060 a1 89 7f 3f 2a d8 7d 3f 4e 21 7d 3f 97 7b 76 3f
       0.9981938 0.99157965 0.98878944 0.96282333
000070 59 56 7a 3f 26 9a 76 3f e1 64 7e 3f 32 b7 6e 3f
       0.97788006 0.9632896 0.9937268 0.93248284
000080 fd 00 7a 3f 0b ab 74 3f 07 97 79 3f 3f 08 71 3f
       0.9765776 0.9557349 0.97496074 0.9415321
000090 2a f1 69 3f b7 64 7e 3f 12 f7 7e 3f 4e 14 83 3f
       0.9138361 0.9937243 0.9959575 1.0240571
0000a0 c6 ff 7b 3f c0 ce 6e 3f f5 68 7e 3f 4e 3a 7c 3f
       0.98437154 0.93284225 0.993789 0.98526466
0000b0 a9 92 7b 3f 9f f6 7e 3f b1 6f 79 3f ec a0 7a 3f
       0.9827066 0.99595064 0.9743605 0.979018
0000c0 b3 54 80 3f a4 69 78 3f 09 60 73 3f 96 93 7a 3f
       1.0025848 0.97036195 0.95068413 0.9788145
0000d0 16 e5 79 3f 87 64 80 3f 90 b3 79 3f c6 e6 73 3f
       0.9761518 1.0030679 0.97539616 0.9527401
0000e0 af f6 7b 3f 27 fb 7f 3f ed 73 80 3f 29 53 74 3f
       0.98423284 0.99992603 1.0035378 0.9543939
0000f0 28 d4 74 3f 5e a0 75 3f e8 c2 7f 3f 1c e8 80 3f
       0.95636225 0.95947826 0.9990678 1.0070834

encoder.bn2.bias f4 [64]
000000 5f 87 83 3b 93 4e 2d bd 00 ad cd b9 fd f0 39 bd
       0.00401394 -0.042311262 -0.00039229542 -0.04539584
000010 32 58 a9 bb 68 0c 2e 3c 05 49 c8 bb 2b 35 5b bc
       -0.0051679844 0.010623075 -0.00611222 -0.013379375
000020 02 bf 13 bd 06 86 ad bc 93 c5 27 bc 5c 5e 0e bd
       -0.03607083 -0.021182071 -0.010239976 -0.034757957
000030 8e 4c dd bc a7 f4 b4 bc 39 4b 35 bd be 53 70 bd
       -0.027014043 -0.022089316 -0.04426119 -0.058673613
000040 ec 73 0c bd 23 60 71 bc 61 5e 68 bc 65 44 9f 3c
       -0.03429024 -0.014732393 -0.014182658 0.019441793
000050 53 0a 2a bd e3 83 86 3c 52 05 a5 3c 73 36 b0 bc
       -0.041513752 0.01642031 0.020144138 -0.021510338
000060 c0 51 f1 b9 8e 00 6d bd 3e 34 3d bd 26 1a 62 3b
       -0.0004602801 -0.057861857 -0.0461924 0.003450045
000070 dc f4 e2 bc 13 1a c5 bc e6 ed 75 bb 1a df 20 bd
       -0.027704649 -0.024060285 -0.0037525832 -0.039275266
000080 49 f7 71 bd e4 ed 35 bd 33 1b b3 bc 41 54 06 bc
       -0.05907372 -0.044416323 -0.021863556 -0.008198799
000090 61 ad 52 3b 13 55 33 bd a3 04 99 bc 0e 9b 0d b9
       0.00321468 -0.043782305 -0.018678969 -0.0001350457
0000a0 aa f2 6d bc 69 50 6d bd da 1d cf bc 47 ce 6e bc
       -0.014523188 -0.057938013 -0.025282789 -0.014575548
0000b0 3a 6d d3 bb fc 63 20 bd 96 9c ed bc 17 86 66 3b
       -0.00645223 -0.039157853 -0.02900533 0.0035175139
0000c0 c1 f6 37 bc 34 e8 88 bc d8 89 6f bc 11 8f 0a bc
       -0.011228264 -0.016712286 -0.014620267 -0.008456961
0000d0 7e 9b eb 3a 3d 12 0f bd cb 26 0f bc 04 66 e2 bb
       0.0017975417 -0.034929503 -0.008737276 -0.006909134
0000e0 35 91 b1 3b 8a b3 14 bd 12 49 98 bc e4 38 a4 bc
       0.0054189214 -0.036304034 -0.01858953 -0.020046659
0000f0 4c fa bb bc 29 d4 de bc 63 05 19 bc 85 61 9b bc
       -0.0229465 -0.027200775 -0.009339663 -0.0189674

encoder.bn2.running_mean f4 [64]
000000 8c e5 94 be cc f4 54 be 1e ed 37 3f d0 2e 51 bf
       -0.2908138 -0.20796508 0.7184619 -0.81712055
000010 5e 1a 5c bf 22 74 13 bf 52 2b 1b 3f d3 86 9b bd
       -0.85977733 -0.5759908 0.60612977 -0.07594075
000020 f6 e3 61 bb 0c 44 59 3d 0d 63 4f be 95 b7 48 bb
       -0.003446815 0.05304341 -0.20252629 -0.0030627002
000030 8c 0d 35 be 5b d2 ad be 1d 9a 4c 3f a3 ba 04 bf
       -0.17680949 -0.3394955 0.7992266 -0.51847285
000040 bb b9 6e be ee 52 33 bf 97 29 18 3e 4b 3c 15 be
       -0.23313038 -0.70048416 0.14859615 -0.14573781
000050 21 8e 46 3e a4 17 56 bf 48 19 d9 be b7 0d 82 3e
       0.19390155 -0.8362982 -0.424021 0.2540109
000060 30 86 3e 3f d2 87 0c be b8 93 71 3c db e1 00 bf
       0.74423504 -0.13723686 0.014744692 -0.5034463
000070 90 3d e5 bd d7 6f cf be c4 e9 29 3f c6 d2 57 bf
       -0.11193383 -0.40515015 0.66372323 -0.8430599
000080 d9 64 9f be 94 83 76 be ca bc 3a be af 7c 81 be
       -0.31131628 -0.2407363 -0.1823608 -0.2529044
000090 ac 37 09 bf 70 f0 77 be f2 44 d7 3e 39 c2 d3 be
       -0.53600574 -0.24212813 0.4204479 -0.41359118
0000a0 cd 36 a3 be 16 09 19 bf 0e 1d b4 3e 4e 43 71 3e
       -0.31877747 -0.5977949 0.35178417 0.23560831
0000b0 e4 36 9e 3e 53 da d6 be 26 2a 86 be cc 40 08 bf
       0.30901253 -0.41963443 -0.26204032 -0.5322387
0000c0 4a 05 80 be 00 a6 40 3f 08 c6 a2 bd c0 aa 9c 3e
       -0.25004035 0.75253296 -0.07947928 0.30599022
0000d0 f7 1d 34 3f 75 9f 70 be 03 b6 e3 be 85 11 1b be
       0.7035822 -0.23498328 -0.444748 -0.15143402
0000e0 9b 2b 0f 3e 22 77 61 3e 20 d5 1f bf 12 f0 90 be
       0.13981478 0.22018102 -0.6243458 -0.2830816
0000f0 b4 b4 bf 3e d7 03 21 3d fc 8f bc bd d8 ce cf be
       0.37442553 0.039310303 -0.0920715 -0.40587497

encoder.bn2.running_var f4 [64]
000000 50 67 b0 3e 50 d3 48 3e ed b4 27 3e 14 e6 2f 3e
       0.3445382 0.1961186 0.16377611 0.17177612
000010 db b8 6d 3e be 76 0b 3e 26 87 02 3e 38 0c 35 3e
       0.23215048 0.13619515 0.12746868 0.17680442
000020 0a c7 2b 3e 75 15 0e 3e 49 36 ee 3d 0e 86 1e 3e
       0.16775146 0.13875373 0.11631448 0.15480825
000030 32 04 d5 3d 53 dc 1b 3e 89 5b 6a 3e a4 13 ed 3d
       0.10401191 0.15220766 0.2288648 0.11576012
000040 68 fd 5b 3e 28 bf a6 3e aa 6b 12 3e 2d f2 6b 3e
       0.21483386 0.32567716 0.14298883 0.23041601
000050 fe 48 11 3e c8 83 5e 3e 0e 59 78 3e b5 8b 1f 3e
       0.14188 0.21729958 0.24252722 0.15580638
000060 f0 ac 8d 3e b0 1e a4 3d db 73 bf 3d f6 c7 ce 3e
       0.27671003 0.08013666 0.093482696 0.40386933
000070 53 fa 49 3e 6c 74 22 3e 0e 8d 83 3e 84 71 98 3e
       0.19724397 0.15864724 0.25693554 0.29774106
000080 06 d8 3c 3e b6 d7 55 3e b7 a8 c2 3d 92 76 00 3e
       0.18441781 0.20883068 0.09504836 0.12545231
000090 c5 54 b7 3e f5 37 79 3d fd ea 4e 3e e0 e6 bb 3d
       0.35806862 0.06084438 0.20206828 0.09174895
0000a0 ba 01 11 3e 24 f5 01 3e da 69 a8 3d 27 86 58 3e
       0.14160815 0.1269117 0.082233146 0.21144925
0000b0 d8 b4 2c 3e 7f 1f a2 3d d3 30 16 3e 28 4c 88 3e
       0.16865861 0.07916164 0.14667062 0.26620603
0000c0 cc cf 61 3e 99 d2 68 3e 4a 22 7b 3e 2a d5 0f 3e
       0.22051924 0.22736587 0.24524799 0.1404616
0000d0 b1 3f 57 3e 5f a5 3e 3e b8 52 1b 3e e7 3c a5 3e
       0.2102039 0.18617772 0.15168273 0.32273027
0000e0 78 23 7b 3e 72 c7 3a 3e 8e eb c6 3d a3 6f 8f 3e
       0.24525249 0.18240145 0.09712897 0.2801486
0000f0 45 08 3d 3e b2 16 6e 3e 97 86 d0 3d b2 5a 4e 3e
       0.18460186 0.23250845 0.10181921 0.20151785

encoder.conv3.weight f4 [128, 64, 5]
000000 e5 3a 0d bd d5 33 57 3d 8c e0 24 bc 68 83 d1 bc
       -0.034479994 0.052539665 -0.010063302 -0.025575355
000010 17 4c 1f 3d d4 a9 c6 3c 55 de 7e bb 88 e5 15 bb
       0.038890924 0.024250902 -0.0038889844 -0.0022872407
000020 cc c6 c5 3c 4f bd a2 3c e2 0d 55 3d 76 de e1 bc
       0.024142645 0.01986566 0.052015193 -0.027571898
000030 6d f5 f2 3c b0 70 0f 3d bd d3 64 3d d8 ce 44 3c
       0.029658044 0.035019577 0.05586599 0.012012206
000040 6e 95 b7 3a 6b dc 1e bc 66 6d 0b bc e9 35 d1 3c
       0.0014006326 -0.009696106 -0.008509969 0.025538402
000050 56 e4 41 bd 42 90 74 bd 0d aa 89 bd d8 a6 84 bd
       -0.0473369 -0.059707887 -0.06721888 -0.064771354
000060 65 3a e7 bc e0 52 99 bc 6a a5 f3 3c 9b 46 23 bd
       -0.028226087 -0.018716276 0.029741962 -0.039862256
000070 61 f2 1c 3c 40 6b 6a bc 0e 3a 17 3c bc b9 c3 bc
       0.009579272 -0.014307797 0.00923015 -0.023892276
000080 5e 42 65 bd f1 7e 46 bd 68 02 4e 3c 03 92 1f 3b
       -0.055971496 -0.048460905 0.012573816 0.0024348504
000090 9f 38 b0 3b 89 6c fd bc d6 77 5f bc 25 63 f6 bb
       0.0053778435 -0.030935543 -0.013639411 -0.007519143
0000a0 21 fb 50 3d c1 cd a0 3c b8 94 33 bd 72 4d 5a 3d
       0.051020745 0.019629361 -0.043843 0.053296514
0000b0 e6 1a 3e 3d cf 05 7c bd e5 ed 7b bd 80 03 56 bc
       0.04641237 -0.061528977 -0.06150617 -0.013062358
0000c0 69 ff c5 bc 3a 3b 17 3d ef 85 43 bd 2b 8f 66 bd
       -0.02416964 0.036921717 -0.04773515 -0.05628888
0000d0 98 02 02 bd 7a 9c be 3c bf 5d 1c bc 3d 95 e2 3c
       -0.031740755 0.023267973 -0.009543835 0.027659053
0000e0 85 f7 68 3c e2 e7 09 bd 1c ed 80 3c cf 0b 23 3d
       0.0142191695 -0.033668406 0.015738063 0.039806183
0000f0 3b 2a b4 bb 2b 99 b7 bc 2e ba 51 3d fa cf 01 3d
       -0.0054981983 -0.022411903 0.051202945 0.031692483
000100 0e 8f 39 bd 14 ee 55 bb e3 cd c4 bc fb 1a e2 bc
       -0.045302443 -0.0032643126 -0.024023956 -0.027600756
000110 04 0e eb 3c a6 bb 4a bd 08 f7 34 bd fb 54 86 3c
       0.028693207 -0.04949536 -0.0441809 0.016397944
000120 08 36 54 3d 12 90 1f bd 4c 18 70 3c 16 7d 33 3d
       0.05180934 -0.038955756 0.01465423 0.043820463
000130 4a 1b d2 3b ef 30 16 3d 33 34 87 3c a8 0f f3 3a
       0.0064119445 0.03666776 0.016504383 0.0018544095
000140 0a 3d 42 bc 2a 55 17 3d 6c 3f 0c 3d ac a0 3e 3d
       -0.011855373 0.036946453 0.03424017 0.046539947
000150 fb ce cd bb e5 5a d3 3c ea ab de bc 51 9c a7 bb
       -0.0062807775 0.025800178 -0.027181584 -0.00511507
000160 d9 e5 1e 3d f3 1e d1 3c 1a 0e 98 3c 3e 27 a9 bc
       0.03879342 0.025527453 0.018561412 -0.020648595
000170 11 6a 43 bd 1f 9d 34 bc ec bb 59 bc 7c 95 ac bc
       -0.047708575 -0.011023789 -0.013289433 -0.021067373
000180 72 45 08 3b 35 8d 9b bd 66 22 1a bd ad 6a 99 bc
       0.0020793346 -0.075952925 -0.03763046 -0.018727625
000190 98 d2 a7 bc b3 e9 1a 3d 5a 71 18 3c ea d7 1c 3d
       -0.020486161 0.03782053 0.009304369 0.03829185
0001a0 e4 c6 0f 3d 30 b8 9b 3d eb f8 4d 3c 22 1b 75 3d
       0.035101786 0.0760349 0.012571554 0.05984033
0001b0 99 41 14 bb e9 3f c2 3a 72 6e 0d 3d 7b 74 11 3d
       -0.0022622107 0.0014820072 0.034529157 0.035511475
0001c0 3c e6 fd 3b 94 f5 2e 3d 27 cb 25 bc e1 6d 8a bb
       0.0077483933 0.04271467 -0.010119236 -0.0042245244
0001d0 ec 83 93 3b b9 5c 9b 3a 73 74 86 bb 0a 99 32 3d
       0.0045018103 0.0011853195 -0.0041032373 0.04360298
0001e0 c7 00 ab bc 12 5c ab bc 3a ea 4d bc 45 8d 11 3d
       -0.020874394 -0.020917926 -0.012568051 0.035535116
0001f0 43 43 43 bc 4a 14 23 3d 7c 0e 34 bd 9a 6f 20 3d
       -0.011917892 0.03981427 -0.043959126 0.03916893
000200 d6 21 6c 3c 2a 18 27 3d c2 74 50 3c ae fa 1e bd
       0.014412364 0.04079453 0.01272315 -0.038813286
000210 09 66 ab 3c f2 d1 04 bd f1 d6 a9 bb a0 d8 8d ba
       0.020922678 -0.032426782 -0.0051830937 -0.0010822006
000220 15 c0 3a bd 71 5e a9 3b 25 29 91 3c dd 1d 3e 3d
       -0.04559334 0.005168729 0.017719815 0.0464152
000230 b6 87 ec 39 38 71 2e bd bf ce 42 3d b7 9a 10 3c
       0.0004511454 -0.042588443 0.04756045 0.008825949
000240 26 13 b2 39 24 52 fd 3b c8 b4 f4 3c 7a ab 2a bd
       0.00033965072 0.007730739 0.02987136 -0.04166744
000250 bd c4 1c 3d 3e bf 30 3c 94 e7 01 bd 16 c6 1c bd
       0.03827356 0.010787783 -0.03171499 -0.038274847
000260 6b d4 b4 bc bc 05 0e 3c b7 63 e6 bc 8f 2f 48 3d
       -0.022073945 0.008668359 -0.02812372 0.04887348
000270 91 0f 20 3d f1 e6 3b 3d 02 d2 07 bd bb 7a 59 3d
       0.039077345 0.04587454 -0.033159263 0.05309556
000280 54 ec bc bc 63 0f 05 3b a2 c5 c7 bc 85 e4 43 bd
       -0.023061909 0.002030336 -0.02438623 -0.047825355
000290 73 cf 3b bd 0a 3d f7 3c a0 24 35 bc db ca 43 3d
       -0.045852136 0.030180473 -0.011056095 0.04780088
0002a0 be e5 04 3c 45 d2 3e 3c 8d 83 55 b9 67 9c 94 bc
       0.008111415 0.011646812 -0.0002036227 -0.018140985
0002b0 02 93 bf bb ab 2a b8 bb 8d 2a 47 3d b8 19 65 3c
       -0.005846382 -0.005620321 0.048624564 0.013983183
0002c0 17 81 f5 bc ab c4 4e 3c 38 91 1e bd 19 30 24 3c
       -0.029968781 0.0126201315 -0.03871271 0.010021233
0002d0 fa b1 10 3c ff 47 3f bd 78 e4 8d bc 98 10 17 3d
       0.008831495 -0.04669952 -0.017320856 0.03688106
0002e0 5f f4 a4 3b a4 57 9e 3c d2 98 5b bc 66 91 72 bd
       0.005034014 0.0193289 -0.013403134 -0.059220694
0002f0 4b 77 ee 3c c3 b7 ae 3c 36 d7 8c bc 1c ff 61 3b
       0.029109618 0.021327859 -0.017192464 0.0034484332
000300 69 7f 20 3d c6 86 26 3d 04 66 50 bc 5b a2 68 3c
       0.039184008 0.040655874 -0.012719635 0.014198865
000310 90 19 1b bc ed d5 4a bd 62 14 6d bd 94 36 41 bd
       -0.009466544 -0.04952042 -0.057880767 -0.04717119
000320 97 30 39 3c 54 0e 0d bd a1 b6 0a bd 6a f7 09 3d
       0.011303089 -0.034437492 -0.033865575 0.033683218
000330 f2 44 41 3c 16 dc 1c bd 81 40 49 3d fe 32 5b bd
       0.011796223 -0.038295828 0.04913378 -0.053515427
000340 89 89 39 bc 69 9c e0 3c 1b a8 ba 3c f7 1f df 3c
       -0.011324295 0.027418332 0.022785237 0.027236922
000350 37 7d 8b bc ba a6 0c 3c a0 1e 52 bd cf d8 21 3c
       -0.01702748 0.008584673 -0.051298738 0.009878351
000360 e3 3c 02 bd c3 b8 f6 3c f3 5a 84 bc bd fe 0e 3d
       -0.031796347 0.030117398 -0.01615665 0.034910906
000370 79 2f 42 bd c5 78 42 bd e1 da d5 3a 8c e6 80 ba
       -0.047408555 -0.047478456 0.0016315841 -0.0009834333
000380 04 e6 c1 bb 13 10 bb bc e6 83 8b bd 48 ea 6e bd
       -0.0059173126 -0.022834813 -0.06812267 -0.058328897
000390 d5 51 8a 3b b0 e8 ec 3b 07 c5 72 3d c4 90 f4 3b
       0.004221181 0.007229887 0.05926993 0.0074635465
0003a0 ef 24 40 3d ea bd 24 3c 36 56 35 3d 4a 87 8e bc
       0.046910223 0.010055045 0.04427167 -0.017398495
0003b0 d0 ae 63 3c 81 4f 45 3d fd c8 05 bd cc 71 06 bd
       0.013896659 0.048171524 -0.03266238 -0.03282337
0003c0 98 cd 1a 3d 8c 6d 41 3c 2a 1c a3 bb 46 69 ba bc
       0.037793726 0.011805903 -0.0049777227 -0.022755276
0003d0 08 dc 3d 3d d2 71 17 bc 59 56 15 bd ca 0e 85 bd
       0.046352416 -0.0092434455 -0.0364593 -0.064969614
0003e0 ef 11 03 bd 15 78 b8 3c 4e 15 84 3b 47 cb 83 bd
       -0.031999525 0.022518197 0.00403086 -0.064352565
0003f0 a7 29 52 bd 8e 0e 1e bd de 23 91 3c 55 8d ff 3c
       -0.051309254 -0.0385881 0.017717298 0.031195322

encoder.conv3.bias f4 [128]
000000 62 07 92 37 d0 09 60 33 70 12 5b 37 76 2a b1 36
       1.7407994e-05 5.216299e-08 1.305771e-05 5.279954e-06
000010 15 6e fc b6 36 23 32 36 a2 72 f8 36 93 48 cc 36
       -7.5230005e-06 2.6544562e-06 7.404321e-06 6.0881225e-06
000020 30 74 61 35 ec 38 07 36 2e e3 01 b7 e8 91 4c 35
       8.3988107e-07 2.01497e-06 -7.741894e-06 7.6208244e-07
000030 8d 02 ab 35 6a 09 42 b6 56 41 e6 36 c2 c4 0d b7
       1.2741235e-06 -2.8913732e-06 6.8621403e-06 -8.450066e-06
000040 37 e2 a7 36 c6 d8 94 b6 97 50 95 36 20 ed 63 37
       5.0033227e-06 -4.4359795e-06 4.449928e-06 1.3585464e-05
000050 e8 56 ef 35 1f d2 a7 b7 0b 27 b4 37 20 a7 72 b7
       1.7832181e-06 -2.0005797e-05 2.1475853e-05 -1.4463236e-05
000060 98 9d ed 35 3b ff 79 b5 9e fd aa b6 dd 57 b9 b5
       1.7703742e-06 -9.313114e-07 -5.0959197e-06 -1.3809146e-06
000070 e1 6e 1a b7 ca 85 c4 36 de 23 b2 33 5e af 88 37
       -9.204931e-06 5.8568303e-06 8.295295e-08 1.6294125e-05
000080 d6 15 9c 36 36 09 4d b7 90 7d cb b5 1a d0 dc 35
       4.6517043e-06 -1.2221097e-05 -1.5161222e-06 1.6451843e-06
000090 c8 cf 17 36 62 c0 10 38 ee 48 03 36 ca cd 5d b6
       2.2621698e-06 3.4511446e-05 1.9562972e-06 -3.3051351e-06
0000a0 e2 63 1b 37 4e ca 65 b6 1a 6e 0e 37 57 b6 f7 b6
       9.261976e-06 -3.4241416e-06 8.489495e-06 -7.382401e-06
0000b0 91 8c 8b b6 24 cf a3 37 40 70 3e b7 89 dc 7b 36
       -4.158887e-06 1.9527572e-05 -1.1351018e-05 3.7530283e-06
0000c0 8a 8c 68 b5 70 a3 ef 36 ba 93 83 36 e8 37 09 b6
       -8.6631246e-07 7.1417817e-06 3.921302e-06 -2.0447133e-06
0000d0 6f 09 90 35 25 40 02 b6 f0 f2 06 37 d4 af ac 35
       1.0731582e-06 -1.9408847e-06 8.043586e-06 1.2866171e-06
0000e0 68 e6 d7 35 a1 b4 74 36 e2 58 f4 35 97 db 9d 36
       1.6085805e-06 3.6463973e-06 1.8205285e-06 4.7045282e-06
0000f0 35 af 5f 37 1d 1f d4 36 97 99 dc 36 29 61 0d 37
       1.3332629e-05 6.3217144e-06 6.574391e-06 8.426877e-06
000100 b1 18 84 37 88 c6 80 36 b9 33 ac b6 21 f6 9b 35
       1.5747124e-05 3.8378093e-06 -5.1320208e-06 1.1620033e-06
000110 22 73 da b6 16 e7 25 36 38 87 0f 37 97 ac 66 b7
       -6.5103095e-06 2.4721426e-06 8.554947e-06 -1.37492525e-05
000120 c5 27 9f b7 be 0d d1 b6 d8 55 bb 34 84 7a fd 35
       -1.8972796e-05 -6.230285e-06 3.4893924e-07 1.8885626e-06
000130 3d d4 38 37 f1 73 d1 36 f2 20 5c b7 88 eb 00 b7
       1.101667e-05 6.2421827e-06 -1.31206925e-05 -7.684233e-06
000140 86 29 5e 36 da ec 1c b6 24 4e 58 37 83 f3 84 37
       3.3104748e-06 -2.3383677e-06 1.2892797e-05 1.584902e-05
000150 23 ec 9a b6 b2 de b7 b5 50 97 7e 34 88 65 41 b7
       -4.6170476e-06 -1.3699375e-06 2.371064e-07 -1.1527336e-05
000160 67 19 b4 b5 bc 1a 9e b6 1a be 5c b7 51 7f 03 37
       -1.3418438e-06 -4.7118792e-06 -1.3157283e-05 7.837852e-06
000170 23 69 4a 36 25 72 f8 b6 85 4f fb 36 24 d0 01 37
       3.0161543e-06 -7.404264e-06 7.48964e-06 7.737461e-06
000180 1e dd 1c 37 2c db 5b b5 5c 6a 9e b7 e8 9d c8 b6
       9.349807e-06 -8.1902795e-07 -1.8884595e-05 -5.978847e-06
000190 40 60 91 36 eb 4f 9b 37 1b 16 bb b7 50 2d 26 b5
       4.3325417e-06 1.8514655e-05 -2.230243e-05 -6.190576e-07
0001a0 d7 c3 72 36 00 79 b7 b1 17 74 08 36 af 94 d0 b6
       3.6174804e-06 -5.339757e-09 2.0333152e-06 -6.216192e-06
0001b0 62 87 2e b5 74 ae 4b b5 70 75 ed 35 e2 c5 36 b7
       -6.501706e-07 -7.5877256e-07 1.7692055e-06 -1.08941185e-05
0001c0 16 c1 5c 35 b1 65 16 37 54 c7 37 37 77 00 fc b5
       8.2237364e-07 8.964374e-06 1.095406e-05 -1.8775598e-06
0001d0 09 9c 56 b7 58 1b 39 36 0a f7 75 b5 6a b4 ee 35
       -1.2791724e-05 2.7583064e-06 -9.16291e-07 1.7784889e-06
0001e0 0f be ae b6 98 6c e1 35 94 ab 94 b4 89 45 c4 b6
       -5.20773e-06 1.6795411e-06 -2.7691988e-07 -5.84935e-06
0001f0 ec 04 f4 35 66 bb a0 b5 2b a8 22 36 90 d4 75 36
       1.8180849e-06 -1.1975469e-06 2.4237768e-06 3.6631573e-06

encoder.bn3.weight f4 [128]
000000 70 03 8c 3f 1f 0a 8d 3f 8f 68 86 3f 89 f6 8b 3f
       1.0938549 1.1018714 1.0500659 1.0934612
000010 94 2e 8d 3f 47 22 8e 3f 67 74 8b 3f f3 11 8f 3f
       1.102984 1.1104211 1.0894898 1.1177353
000020 ab 2f 88 3f 24 99 93 3f 38 84 88 3f 85 c3 88 3f
       1.0639547 1.153111 1.066535 1.0684668
000030 28 f9 89 3f a9 21 8c 3f e1 cd 8d 3f 70 9a 8b 3f
       1.0779161 1.0947772 1.1078454 1.0906506
000040 c3 a8 8e 3f 4c 73 8c 3f 9e e4 8b 3f 5a 43 8b 3f
       1.1145252 1.0972686 1.0929143 1.0879929
000050 bf 80 8e 3f d9 f7 88 3f 86 6d 8b 3f 33 e4 88 3f
       1.113304 1.0700637 1.0892799 1.0694641
000060 34 81 88 3f 97 bc 88 3f fb 54 8b 3f 61 a9 8d 3f
       1.066443 1.0682553 1.0885309 1.1067315
000070 46 10 89 3f 91 fa 89 3f 0a 85 8b 3f 19 90 8a 3f
       1.0708091 1.0779592 1.0899975 1.0825225
000080 04 94 92 3f 95 d2 8b 3f fd 99 8e 3f 91 99 8b 3f
       1.1451421 1.092364 1.1140743 1.090624
000090 88 53 84 3f 4a 4c 8b 3f 1b 1e 8d 3f e5 37 84 3f
       1.0337992 1.0882657 1.1024812 1.0329558
0000a0 91 a5 8f 3f 79 5e 86 3f 47 21 8b 3f d4 54 8b 3f
       1.1222402 1.0497581 1.086953 1.0885262
0000b0 c2 71 86 3f 08 b6 8d 3f 4e 23 97 3f 3c 74 91 3f
       1.0503466 1.1071177 1.1807649 1.1363597
0000c0 48 68 86 3f c6 07 8d 3f 14 43 8f 3f f5 14 8f 3f
       1.0500574 1.1017997 1.1192346 1.117827
0000d0 b0 a4 88 3f fc 91 8c 3f 6e c0 93 3f 8a f7 8b 3f
       1.0675259 1.0982051 1.15431 1.0934918
0000e0 70 71 8d 3f 66 e6 8c 3f 2a 34 88 3f 2b b3 89 3f
       1.1050243 1.1007812 1.0640919 1.0757803
0000f0 f9 6c 8a 3f f2 0c 88 3f 62 a1 90 3f 7b c4 8b 3f
       1.0814506 1.062895 1.129925 1.0919336
000100 c6 94 80 3f fb ab 87 3f 28 82 90 3f d8 53 8d 3f
       1.0045402 1.0599359 1.128972 1.1041212
000110 c1 a5 91 3f 7a 41 8c 3f 43 1a 88 3f 2d ea 8d 3f
       1.1378709 1.0957482 1.0633014 1.108709
000120 67 53 86 3f d1 b8 86 3f 08 e9 85 3f 0d ca 93 3f
       1.0494202 1.0525151 1.046174 1.1546036
000130 ee 41 8d 3f dc 6d 91 3f f4 f1 87 3f ac a2 84 3f
       1.1035745 1.1361651 1.0620713 1.0362144
000140 3f 27 89 3f 21 bb 8a 3f 21 dc 8a 3f a0 ec 8b 3f
       1.0715102 1.0838357 1.0848428 1.0931587
000150 71 8a 8e 3f fc 65 86 3f 40 cb 8b 3f 58 8d 94 3f
       1.1135999 1.0499873 1.0921402 1.1605635
000160 72 96 87 3f 11 03 89 3f f3 a0 8c 3f d0 55 8b 3f
       1.0592787 1.0704061 1.0986618 1.0885563
000170 07 13 8f 3f d2 a4 8f 3f 1a 0d 89 3f a9 93 8f 3f
       1.1177682 1.1222174 1.0707123 1.1216937
000180 6d b0 86 3f c7 b1 85 3f 00 51 93 3f 86 82 8f 3f
       1.0522591 1.0444878 1.1509094 1.1211708
000190 75 38 8a 3f a8 99 86 3f 74 80 8b 3f f7 27 8a 3f
       1.0798479 1.0515642 1.0898576 1.0793446
0001a0 3c d7 8c 3f be a5 87 3f 9b 1a 8c 3f 07 ca 8a 3f
       1.1003184 1.0597456 1.0945619 1.0842904
0001b0 af 98 8a 3f 5b f4 8b 3f 17 82 8c 3f bd 5d 83 3f
       1.0827845 1.0933946 1.09772 1.0262982
0001c0 c5 de 8a 3f 84 29 87 3f 08 6c 8b 3f b2 80 90 3f
       1.0849234 1.0559545 1.0892344 1.1289275
0001d0 f6 80 92 3f 15 3c 8b 3f bd 51 8a 3f 5d f8 8a 3f
       1.1445606 1.087771 1.0806195 1.0857044
0001e0 37 8b 8b 3f 48 75 8e 3f 6a b8 8d 3f 02 19 8c 3f
       1.090186 1.1129541 1.1071904 1.0945132
0001f0 9b cb 8c 3f 87 73 88 3f 47 7e 8e 3f 03 0d 89 3f
       1.0999635 1.0660256 1.1132287 1.0707096

encoder.bn3.bias f4 [128]
000000 70 29 ae 3d 1d 5b de 3d 87 15 9c 3d 14 f8 99 3d
       0.08503997 0.10857222 0.076212935 0.0751802
000010 a4 12 05 3e 74 29 b9 3d 25 3d e3 3d 9e a6 b8 3d
       0.12995392 0.0904111 0.11095647 0.09016155
000020 b3 1f 7d 3d cb b4 c5 3d 1b 49 40 3d c2 4b 84 3d
       0.06179781 0.09653624 0.04694472 0.06459762
000030 ec 26 96 3d a6 b8 b2 3d b5 e9 e5 3d 6d 33 83 3d
       0.073316425 0.08726625 0.11226217 0.06406293
000040 db 35 9e 3d 25 0a 9e 3d 13 b7 b9 3d 74 c1 91 3d
       0.07725116 0.07716779 0.09068122 0.071169764
000050 4f 61 bf 3d d4 fc 92 3d 46 e6 82 3d bc e4 a9 3d
       0.09344732 0.071771294 0.063915774 0.08295581
000060 9b 94 a6 3d ac 6f 8e 3d ab d8 c9 3d 04 5d c1 3d
       0.08133813 0.069548935 0.09855779 0.094415694
000070 4f 6e 78 3d 71 e6 9f 3d 13 6d 78 3d 3e 14 81 3d
       0.060652073 0.07807625 0.060650896 0.06302689
000080 96 db d0 3d 6e b2 92 3d 0a 3c 80 3d dd 86 82 3d
       0.10198133 0.07162939 0.062614515 0.063733794
000090 44 b9 96 3d 49 c0 dd 3d 2a 0c 93 3d 16 60 c4 3d
       0.07359555 0.10827691 0.071800545 0.095886394
0000a0 02 60 cc 3d 59 f5 99 3d b4 60 a2 3d 5c 95 a5 3d
       0.099792495 0.075174995 0.07928601 0.08085129
0000b0 47 ee 86 3d 9b 23 bc 3d d8 f2 d4 3d 31 c9 f6 3d
       0.065884165 0.09186479 0.10397881 0.12050093
0000c0 2b 6e 99 3d 9a 28 aa 3d af 30 a9 3d 3c 80 a7 3d
       0.07491716 0.083085254 0.08261239 0.08178756
0000d0 49 2b a0 3d f9 3d 38 3d 71 8e f6 3d 5f 60 a3 3d
       0.07820756 0.044980977 0.12038887 0.07977366
0000e0 61 b0 a5 3d 13 3f a7 3d cb 61 52 3d 04 8e c4 3d
       0.08090282 0.08166327 0.051362794 0.095974
0000f0 c7 26 8a 3d 7b 9a 80 3d ff df d4 3d b2 dc 9b 3d
       0.067456774 0.06279465 0.10394286 0.07610454
000100 d9 ca 55 3d 6e c1 84 3d ee 0b dd 3d e6 eb 5c 3d
       0.052195404 0.06482206 0.10793291 0.053935908
000110 59 88 b7 3d 7c 8c 9f 3d 27 e1 78 3d e1 f0 93 3d
       0.08961553 0.07790467 0.060761597 0.072236784
000120 52 a0 c5 3b 87 fe 98 3d 40 13 89 3d eb e4 ce 3d
       0.0060310746 0.07470422 0.06693125 0.101022564
000130 12 75 a0 3d 9d fb ae 3d 49 08 97 3d 3f 09 1c 3c
       0.078348294 0.08544085 0.07374627 0.009523689
000140 60 a2 71 3d be 15 a6 3d ee 6e 97 3d 1e d6 89 3d
       0.058992743 0.08109616 0.07394205 0.06730293
000150 28 f5 ac 3d 03 84 e7 3c ee 63 bf 3d 7e ec e0 3d
       0.08445197 0.02826119 0.09345232 0.10982607
000160 d9 12 12 3d 9f 66 d0 3d 6d 88 b4 3d 0f e6 86 3d
       0.035662506 0.101758234 0.08815084 0.06586849
000170 64 14 ed 3d 63 17 c7 3d bd e4 a2 3d b9 30 b0 3d
       0.11576155 0.097212575 0.079537846 0.08603043
000180 0a cf 5b 3d cf d4 43 3d f7 04 d0 3d 91 35 d4 3d
       0.053664245 0.047810372 0.10157197 0.103617795
000190 35 b7 d4 3d 9d 5f 71 3d bb 08 76 3d 3c 02 92 3d
       0.103865065 0.058929075 0.06006692 0.071293324
0001a0 78 9b af 3d 61 49 a7 3d 83 cc c3 3d e9 10 a6 3d
       0.08574575 0.08168293 0.09560492 0.08108694
0001b0 01 81 a2 3d 99 30 9b 3d 60 1b 6a 3d 56 10 14 3d
       0.07934762 0.07577629 0.057155013 0.03614839
0001c0 7d a3 8e 3d 3e 16 81 3d 1c 14 b4 3d c1 d6 a9 3d
       0.06964777 0.063030705 0.08792898 0.08292914
0001d0 50 1c b3 3d 91 b0 90 3d a8 0f b1 3d 60 c6 b6 3d
       0.087456346 0.07064927 0.08645564 0.08924556
0001e0 17 e8 ad 3d 4c fd c7 3d 80 d1 c3 3d a1 4f bd 3d
       0.08491533 0.097651094 0.09561443 0.09243704
0001f0 a8 80 bf 3d f6 85 ac 3d 05 9c ec 3d 59 4c a4 3d
       0.09350711 0.084239885 0.11553196 0.08022375

encoder.bn3.running_mean f4 [128]
000000 42 2b 34 be 50 3e 67 3d 93 d2 bc bd 63 8a 3b 3d
       -0.17594627 0.05645591 -0.09219851 0.045786273
000010 4c 65 c0 3c 37 ce a0 bd b7 c0 52 be 0e 8c 5a 3c
       0.023485802 -0.07851832 -0.20581327 0.013339056
000020 ae 60 67 3e 8d 42 18 3e 17 60 f6 3d cc 4a 6d be
       0.22595474 0.14869137 0.120300464 -0.23173064
000030 c8 e1 aa bd 67 6b 88 be 8a d8 27 3d 03 01 bc 3d
       -0.083438456 -0.2664444 0.040977992 0.091798805
000040 95 86 b1 be a0 4b cc bd dc 19 81 3e 7d 8c 95 3d
       -0.3467299 -0.09975362 0.25215042 0.07302187
000050 d6 45 0c 3c 9c a9 83 bd 2e 7c 1c be ea bb 60 bc
       0.008561572 -0.06428835 -0.15281746 -0.013716677
000060 71 d5 11 3e 90 de 65 bc db ef ee bd 53 ca bf be
       0.14241578 -0.014030114 -0.116668426 -0.3745905
000070 08 96 e0 3d f5 3c fd bc ab 93 8c 3e 1f f8 15 be
       0.10966116 -0.030912856 0.27456412 -0.14645432
000080 aa 42 07 be 28 e5 47 bd 7d e3 1f be f1 d6 43 3e
       -0.13209024 -0.048802525 -0.15614124 0.19124962
000090 1b d9 41 bc c3 3b 3e bd 4b 70 c6 bd d6 9b 32 3f
       -0.011831547 -0.046443712 -0.09689387 0.69769037
0000a0 40 2d 5b 3c 11 dd 2c be ee 12 65 3e f0 86 a3 bc
       0.013377488 -0.16881205 0.22370502 -0.019961804
0000b0 c4 0f 45 bd 54 e8 65 3e 9c 7f f8 be e5 99 ff 3d
       -0.04811074 0.22451907 -0.48534858 0.12480525
0000c0 03 4e 14 bd cc f8 79 3e 10 8e b9 be 22 c8 a2 be
       -0.03620721 0.24411315 -0.36241198 -0.31793314
0000d0 aa c2 6a 3e 92 7c 1b 3e 1b f5 a2 3d c7 07 a7 3d
       0.22925821 0.15184239 0.079569064 0.0815578
0000e0 c2 4f 52 be 42 8b 39 3e c5 31 8b be 82 da 77 3e
       -0.20538238 0.18119529 -0.2718641 0.24204448
0000f0 4f 15 48 3d e3 cf 8d 3b d4 5d 28 be e2 9a 13 3e
       0.048848446 0.0043277605 -0.16442043 0.14414552
000100 25 5d 59 3e 98 9c 78 be 35 8d be bc 63 2c 97 3d
       0.21226938 -0.24278486 -0.023260692 0.07381513
000110 79 10 92 be c9 4a c9 be 5c 4c 53 3d 2c 0c 05 bb
       -0.28528193 -0.3931487 0.051586494 -0.0020301444
000120 b8 6e 04 3f 08 23 b1 be f0 96 21 3e 78 ce 58 bc
       0.51731443 -0.3459704 0.15780234 -0.01323282
000130 2a 8f b8 be 7b 80 5c be 82 dd 8d bd 6c c9 07 3f
       -0.36046726 -0.21533386 -0.06927015 0.5304172
000140 aa ad a1 bd a4 08 df bd 29 3a 9c be 08 f8 7d 3e
       -0.07894452 -0.1089032 -0.30513123 0.24801648
000150 10 be e5 be dd 1e 1d 3e 2d 5c e7 3e 12 31 da be
       -0.4487157 0.15343805 0.45187512 -0.42615563
000160 9f 57 95 3d 9a 2e bf be a0 99 2b 3e 50 0d 6a 3e
       0.07292103 -0.37340242 0.16757822 0.22856641
000170 06 56 5b be ec b2 5e 3d 70 58 8e 3e ce 12 a5 be
       -0.21419534 0.054369852 0.27801847 -0.3224091
000180 b8 80 1b 3e 45 7d 3e bc 80 48 b7 be 9f e7 66 bd
       0.15185821 -0.011626546 -0.357975 -0.056373235
000190 18 26 47 be 79 45 8b be ec 86 90 be 93 fc 99 3d
       -0.19448125 -0.2720144 -0.28227937 0.07518878
0001a0 e4 dc 17 3e a8 48 0a be c7 b5 80 be e0 ec 63 be
       0.14830357 -0.13504279 -0.25138685 -0.2225833
0001b0 b1 82 d4 be 8d 3a d0 be 12 e9 9f 3e 7f bf 9e bc
       -0.4150596 -0.4066967 0.31232506 -0.019378422
0001c0 c9 be dd bd c4 4d bc 3d 75 79 32 bd 8c 83 2a be
       -0.10827405 0.0919452 -0.04357286 -0.16651744
0001d0 db 28 b3 3b ab 6d 60 be 7e d6 24 3e fb 1f 5b be
       0.005467517 -0.21916835 0.16097447 -0.21398918
0001e0 4e ee 6b 3e ad 31 8e bd b7 e1 eb 3d 5b b6 4d 3d
       0.23040125 -0.06943069 0.11517661 0.050222736
0001f0 ab e2 32 be 47 37 07 3e fc 1a 8f bc fe f3 fa 3d
       -0.1746928 0.1320468 -0.017468922 0.12253569
